pinn_lorenz.pt (torch, 472191 bytes, 18 tensors)

weight f4 [128, 1]
0	0x3ea0591b	0.31317982
1	0xbf2b720c	-0.66970897
2	0x3f393aa9	0.72355133
3	0xbe628cdb	-0.22124045
4	0xbe1ebd62	-0.15501931
5	0xbf4cbd5a	-0.7997643
6	0x3e6f4804	0.23367316
7	0x3e14c27f	0.1452732
8	0x3f044c84	0.51679254
9	0x3f5c8779	0.86144215
10	0xbf8013a0	-1.0005989
11	0x3f850787	1.0392922
12	0xbec61b0b	-0.38692507
13	0xbf251e96	-0.64499795
14	0x3ed5dcbb	0.41769966
15	0x3e3fe980	0.18741417
16	0x3f52f7fc	0.82409644
17	0xbec27a7e	-0.3798408
18	0xbda20bfa	-0.079124406
19	0x3d4302ec	0.04761021
20	0xbf6a3a50	-0.9149523
21	0xbf17e607	-0.5933537
22	0x3e45d6b0	0.19320178
23	0x3f18bcc4	0.59663033
24	0xbf5d1f51	-0.8637591
25	0xbe9bbfb7	-0.30419704
26	0x3f56ad42	0.8385812
27	0x3eb7dd80	0.3591118
28	0x3e1465ac	0.1449191
29	0x3f4b6eb2	0.7946578
30	0xbf44593b	-0.76698655
31	0x3e96c1b2	0.29444653
32	0xbf601221	-0.8752766
33	0x3f5ed2e8	0.8704057
34	0x3bcf1ec3	0.0063208058
35	0x3f8163c5	1.0108572
36	0x3eb5c60a	0.35502654
37	0x3f2c6aa5	0.67350227
38	0x3ef4d853	0.47821292
39	0xbf2eb48b	-0.68244237
40	0xbf63ff64	-0.8906157
41	0xbf876b59	-1.0579635
42	0x3ebf0ebe	0.37315935
43	0xbcf24491	-0.02957371
44	0xbda91a73	-0.08256998
45	0xbef89ff9	-0.4855955
46	0xbf05c895	-0.5225919
47	0x3f292eb6	0.660869
48	0x3f745aba	0.9545094
49	0x3e3279d7	0.1742929
50	0xbe4ce3c2	-0.20008758
51	0x3eb939db	0.36176953
52	0xbf27e69e	-0.6558627
53	0x3f7e24a8	0.99274683
54	0x3f08052a	0.5313288
55	0x3d8f1fac	0.06988463
56	0x3f74d87b	0.95642823
57	0xbc6ac247	-0.014328546
58	0xbf0915e4	-0.5354903
59	0xbebd2b4a	-0.3694709
60	0x3f03160b	0.5120551
61	0x3eeee690	0.4666028
62	0x3e03c8cb	0.12869565
63	0xbe48eb83	-0.1962109
64	0xbf38e1cf	-0.72219557
65	0x3ea4947e	0.3214454
66	0x3f82ba59	1.0213119
67	0xbf4f1073	-0.80884475
68	0x3d351708	0.044211417
69	0x3f7cc86f	0.9874334
70	0x3f1191ce	0.56863105
71	0xbf733bc2	-0.9501306
72	0xbe380e6e	-0.17974254
73	0x3e50b793	0.20382528
74	0x3dbe917a	0.09305091
75	0xbf6491cb	-0.8928496
76	0xbf7d91c2	-0.99050534
77	0xbe461dc5	-0.19347294
78	0x3f24fd8d	0.6444939
79	0x3f59a45b	0.8501641
80	0xbe702846	-0.23452863
81	0x3f55f832	0.8358184
82	0x3d3f99dc	0.04677759
83	0x3e457423	0.19282584
84	0x3f294359	0.6611839
85	0xbf7c3e81	-0.98532873
86	0xbf82692a	-1.0188344
87	0xbbcdc84e	-0.0062799817
88	0xbf4ba4bb	-0.79548234
89	0xbf73ff59	-0.95311505
90	0x3e7c2950	0.24625134
91	0x3e858fe1	0.26086333
92	0x3f57790b	0.8416907
93	0xbf465781	-0.7747727
94	0xbf0c62c3	-0.548382
95	0xbe8f3776	-0.27972
96	0x3d916770	0.07099807
97	0xbf72c753	-0.94835395
98	0x3d7fa39e	0.062411897
99	0x3f7eee87	0.99582714
100	0xbf0f3e91	-0.55954844
101	0xbf4b9fc0	-0.79540634
102	0x3efc5558	0.49283862
103	0xbf31e9e1	-0.69497496
104	0x3ec3e984	0.38264096
105	0x3f60e213	0.8784496
106	0x3efa190b	0.4884723
107	0xbf791240	-0.9729347
108	0x3dbab468	0.09116441
109	0xbe09f55e	-0.13472506
110	0x3f3742f2	0.71586525
111	0xbf850fc6	-1.0395439
112	0xbe084469	-0.13307346
113	0x3efb0b08	0.49031854
114	0x3e84ad92	0.25913674
115	0xbf110d0a	-0.5666052
116	0xbe06f22b	-0.13178317
117	0xbe0c20a3	-0.13684325
118	0x3f20e26a	0.6284548
119	0x3e9ca307	0.3059313
120	0x3ef6d20c	0.48207128
121	0xbf4d407f	-0.8017654
122	0xbeda3a77	-0.4262273
123	0x3eb534aa	0.35391742
124	0xbf0dcbe2	-0.55389225
125	0x3d1ef81f	0.038810845
126	0xbf35beca	-0.70994246
127	0x3f707321	0.9392567

bias f4 [128]
0	0xbdc18725	-0.09449605
1	0xbf1c0fab	-0.6096141
2	0xbf5468c0	-0.82972336
3	0x3f48371e	0.782091
4	0x3f58dda1	0.8471318
5	0xbef8020c	-0.48439062
6	0xbf75bc91	-0.95990855
7	0xbf10f2f7	-0.56620735
8	0xbf65c1df	-0.8974895
9	0xbf395302	-0.72392285
10	0x3e8a8094	0.27051222
11	0xbef1bf9b	-0.47216496
12	0x3f3d0493	0.73835105
13	0xbe95f199	-0.29285887
14	0xbf5fdb20	-0.87443733
15	0x3f1aaf50	0.60423756
16	0x39ea0129	0.00044632822
17	0x3eef8a95	0.46785417
18	0xbedb72bf	-0.42860982
19	0x3f78b809	0.97155815
20	0xbf38c333	-0.7217285
21	0xbf2ed9cd	-0.6830109
22	0xbf3b922f	-0.73269933
23	0x3ec1a413	0.3782049
24	0xbf6286e6	-0.8848709
25	0xbe3e17a2	-0.18563703
26	0xbf1659ed	-0.58730966
27	0x3f53916d	0.8264378
28	0x3f4bd1c1	0.79616934
29	0x3c8d4f91	0.017249854
30	0x3f2404cf	0.6406984
31	0xbf5da1cf	-0.86575025
32	0x3f44b165	0.7683318
33	0x3d47ccad	0.04877918
34	0x3e44913f	0.19196032
35	0x3e567377	0.20942484
36	0x3e2c3d5d	0.16820283
37	0x3e4e65c6	0.20156011
38	0x3eb8344b	0.35977396
39	0xbebc2522	-0.3674708
40	0xbf089b32	-0.5336181
41	0x3f45792e	0.7713803
42	0xbf08004b	-0.5312545
43	0xbe6a47fc	-0.22879022
44	0xbe2471ef	-0.16059087
45	0xbf2b2f81	-0.6686936
46	0x3f01616a	0.5053927
47	0xbf1b4dd2	-0.6066562
48	0xbebf6a51	-0.373858
49	0xbf091c70	-0.5355902
50	0xbe4421a0	-0.19153452
51	0xbd77128f	-0.060320433
52	0x3e0a2de1	0.13494064
53	0x3d2d8534	0.04236336
54	0x3f34577d	0.70445997
55	0xbdf38cc3	-0.118920825
56	0xbf43bc6f	-0.764594
57	0x3f3c9195	0.7365964
58	0x3ee979a4	0.45600617
59	0xbf2357df	-0.63805956
60	0xbeed2fc9	-0.4632552
61	0x3ecf9e60	0.40550518
62	0xbf7045af	-0.9385633
63	0xbf436f9e	-0.7634219
64	0xbf475433	-0.7786285
65	0x3f2b9342	0.6702157
66	0xbeef4849	-0.46734837
67	0x3e8fb26b	0.2806581
68	0x3f47fc51	0.7811938
69	0xbecdf27b	-0.4022406
70	0x3e13ef19	0.14446677
71	0xbedd3c3c	-0.43210018
72	0xbf47fe52	-0.78122437
73	0xbe957cfb	-0.29196915
74	0x3f13daaa	0.5775553
75	0xbee2ef6e	-0.44323295
76	0x3e109e46	0.14122877
77	0xbf064077	-0.52442116
78	0x3f3a59c8	0.72793245
79	0xbf0a5a42	-0.5404397
80	0x3efbddee	0.49192756
81	0xbe882354	-0.26589453
82	0x3e816d4d	0.25278702
83	0xbd1d00ef	-0.03833097
84	0xbea51e04	-0.32249463
85	0xbeabcca6	-0.33554572
86	0x3e862ba6	0.26205176
87	0xbf7542ee	-0.9580525
88	0xbeaee681	-0.34160236
89	0xbefc7137	-0.49305126
90	0xbf2beac7	-0.67155117
91	0xbf38f9be	-0.72256076
92	0xbed9468b	-0.42436633
93	0x3ec5dbde	0.38644308
94	0xbe33fa98	-0.17576063
95	0xbf177908	-0.59169054
96	0x3f063978	0.5243144
97	0xbee9be47	-0.45652983
98	0x3f1a2635	0.6021455
99	0xbf03b48e	-0.5144738
100	0x3f5a4a3e	0.85269535
101	0x3e8a1404	0.26968396
102	0x3d843c52	0.06456818
103	0x3ec2b680	0.3802986
104	0xbe4393e4	-0.19099385
105	0xbe959d80	-0.29221725
106	0x3efbcc70	0.4917941
107	0xbf417e1c	-0.7558305
108	0x3ec8406e	0.39111656
109	0xbf650b42	-0.89470303
110	0xbf307000	-0.689209
111	0x3f49b6c2	0.7879449
112	0xbf67e24e	-0.9057969
113	0x3f1793a3	0.5920965
114	0xbf2e35f6	-0.6805109
115	0x3f473ff3	0.77831954
116	0x3eae9081	0.34094623
117	0x3ecaafb7	0.39587185
118	0xbeee73b8	-0.4657266
119	0x3f67ca5d	0.90543157
120	0xbea4c992	-0.32185036
121	0x3ef2f0ca	0.47449332
122	0x3e875f9b	0.2644013
123	0xbd79929f	-0.060930844
124	0x3f398a1a	0.7247635
125	0xbe35d85f	-0.1775832
126	0x3f4b7868	0.794806
127	0x3eb80e8e	0.35948604

weight f4 [128, 128]
0	0x3d5c63bf	0.053806063
1	0xbd83c15f	-0.06433367
2	0x3d17c568	0.037053496
3	0x3d126eb7	0.035750117
4	0x3d8c1a83	0.06840994
5	0x3be38512	0.0069433535
6	0xbcfd1e00	-0.030898094
7	0x3d6bb6ab	0.057547253
8	0x3cf98782	0.030460123
9	0x3d4e4da7	0.050367024
10	0x3d9f7d92	0.077876225
11	0xbda9842a	-0.082771614
12	0x3dbf81db	0.0935094
13	0xbd59010f	-0.052979525
14	0x3c62e69b	0.013848926
15	0xbcf298e5	-0.029613921
16	0xbbdf037a	-0.0068058344
17	0xbc5278f1	-0.0128462175
18	0xbba6a2f5	-0.005085344
19	0xbd9ea6a6	-0.077466294
20	0x3cc8aa57	0.024495287
21	0x3c3b2ec8	0.011424728
22	0x3d976e11	0.073940404
23	0xbc3b943d	-0.011448917
24	0x3d2078bd	0.039177645
25	0x3d2ab676	0.041677915
26	0x3cc7b553	0.024378454
27	0xbd290c59	-0.04127154
28	0x3d752d5a	0.059857704
29	0xbbe0e302	-0.006862999
30	0x3d827ec5	0.063718356
31	0xbc70a13b	-0.014686878
32	0x3d81e679	0.06342787
33	0xbdd17aa7	-0.10228472
34	0xbd07ef3f	-0.033187147
35	0xbc7e535a	-0.015522802
36	0x3d9356cd	0.0719429
37	0xbca3b05a	-0.019981552
38	0x3da9ab27	0.08284598
39	0xbca3f940	-0.020016313
40	0xbbd204fd	-0.006409286
41	0x3c7da385	0.015480881
42	0xbdbdc4dc	-0.092660636
43	0x3d0f7021	0.035019044
44	0x3d8f093e	0.06984185
45	0x3d6a591a	0.05721388
46	0x3d552c13	0.052043986
47	0xbd1ca0ec	-0.038239405
48	0x3d8acca2	0.06777312
49	0x3d90427b	0.0704393
50	0x3c674a27	0.0141168
51	0xbdc3b29e	-0.09555553
52	0xbda0529c	-0.078282565
53	0xbce0724a	-0.027398247
54	0x3cd25537	0.0256754
55	0x3aa05d6f	0.0012234877
56	0xbbef6a8f	-0.007306404
57	0xbd74b44a	-0.05974225
58	0xbd4c9f3a	-0.049956538
59	0xbceadc3e	-0.028669473
60	0xbd5e2b49	-0.0542405
61	0x3c65c7c7	0.014024681
62	0x3d82bf19	0.06384105
63	0xbd7fd886	-0.062462352
64	0xbcdb5ffc	-0.026779167
65	0xbd4b6f98	-0.04966697
66	0x3c8d1e02	0.017226223
67	0xbd27b11b	-0.040940385
68	0xbdb7d6ca	-0.08976515
69	0xbcdf4a87	-0.027257217
70	0x3d243442	0.0400889
71	0xbd63fe20	-0.055662274
72	0xbdbf4349	-0.093390055
73	0x3d8de30b	0.06928071
74	0x3cebd038	0.02878581
75	0xbc820f7b	-0.015876522
76	0xbd6d34cf	-0.05791169
77	0x3bcb14c7	0.006197545
78	0xbd81595a	-0.063158706
79	0x3d8c8576	0.06861393
80	0xbb97b61c	-0.0046298634
81	0x3d208e62	0.039198287
82	0x3cf436dc	0.029811315
83	0x3d8e77aa	0.06956418
84	0x3d82981a	0.06376667
85	0x3db5be10	0.08874142
86	0xbd26a756	-0.040686928
87	0xbd35ede6	-0.04441633
88	0x3d27d31c	0.040972814
89	0x3c4f8202	0.012665274
90	0x3dad7f0e	0.084714994
91	0x3c83dff6	0.016098004
92	0xbd9c0a05	-0.076190986
93	0x3d8b8658	0.068127334
94	0x3d2f88f4	0.042855218
95	0x3c81fbf4	0.01586721
96	0xbd9bc658	-0.076061904
97	0xbd4b83aa	-0.04968611
98	0x3d401977	0.046899285
99	0xbd11b7ba	-0.035575606
100	0x3b2d8294	0.0026475536
101	0x3ca58e90	0.02020958
102	0x3d16e371	0.036838
103	0xbc180631	-0.00927882
104	0x3d611073	0.054947328
105	0xbcd6f464	-0.026239581
106	0x3b8f8d4c	0.0043808576
107	0x3ca0ef2d	0.019645298
108	0xbdc63358	-0.09677762
109	0x3d2d611c	0.04232894
110	0xbd075ea6	-0.03304925
111	0x3d8f040b	0.06983193
112	0x3d141f2d	0.036162544
113	0xbcdb706f	-0.026787011
114	0x3d9b853d	0.075937726
115	0xba71cb06	-0.0009223673
116	0xbd020e05	-0.03175165
117	0x3d921c1b	0.07134267
118	0xbdae3758	-0.0850665
119	0xbda10769	-0.078627415
120	0x3d61a67d	0.055090416
121	0x3d04a3dd	0.032382835
122	0xbca2dbbd	-0.01988017
123	0xbdb490e1	-0.08816696
124	0x3d4eea1e	0.05051624
125	0xbdb9cb20	-0.09071946
126	0xbd5f321f	-0.05449116
127	0xbd20ebd2	-0.039287396
128	0xbd026476	-0.03183409
129	0x3ca28438	0.019838437
130	0xbdb3224a	-0.087467745
131	0x3dacd597	0.084391765
132	0xbd7dfe52	-0.062010117
133	0x3dbe5a0f	0.09294521
134	0xbc01166c	-0.007878881
135	0xbd8fc296	-0.07019536
136	0x3ce7b301	0.028283598
137	0x3d3728c7	0.044716623
138	0xbd11ebcf	-0.035625275
139	0x3dabc10c	0.0838643
140	0x3e028b88	0.1274854
141	0x3abbf71f	0.0014340616
142	0xbd6373cb	-0.05553035
143	0x3da0af39	0.07845921
144	0x3d6502f4	0.05591102
145	0x3da5d1c2	0.08096649
146	0xbd89753b	-0.06711813
147	0xbc81806d	-0.015808308
148	0xbd40f7d8	-0.047111362
149	0xbdb08a20	-0.08620095
150	0x3cf7a22d	0.030228699
151	0xbcf300fe	-0.029663559
152	0x3d2b8c26	0.041881703
153	0x3db6e948	0.089312136
154	0x3d9e1ecc	0.07720718
155	0xbcf845b0	-0.030306667
156	0x3d38d15c	0.045121536
157	0x3cc2f449	0.023798125
158	0x3dec1b06	0.11528592
159	0x3c78b080	0.0151788
160	0xbd5b9b05	-0.053614635
161	0x3d03356f	0.03203338
162	0xbd04cc30	-0.03242129
163	0x3d8c79d5	0.06859175
164	0x3c5c2ec5	0.013438885
165	0x3bf3ffce	0.007446266
166	0xbc1e830f	-0.0096748015
167	0x3db244c7	0.087045245
168	0xbdab61a9	-0.083682366
169	0x3d1ce96c	0.038308546
170	0xbc1054b8	-0.008809261
171	0xbd035287	-0.032061126
172	0xbc5925f8	-0.013253681
173	0xbd701dff	-0.058622357
174	0xbd64e602	-0.055883415
175	0xbd5e939c	-0.05433999
176	0x3c98f6be	0.018672343
177	0x3c35b68c	0.011090886
178	0x3da02f48	0.07821518
179	0xbceb7e13	-0.02874664
180	0xbb5463ee	-0.0032408196
181	0x3cfb1fd1	0.03065482
182	0xbc9353fb	-0.017984381
183	0xbc8bc2ba	-0.017060626
184	0xbdacb543	-0.084330104
185	0x3d63a12e	0.055573635
186	0x3d49e0e1	0.049286727
187	0x3d7d9ed8	0.061919063
188	0xbd33897c	-0.043832287
189	0x3d50ac8c	0.050945804
190	0xbdac9d4e	-0.08428441
191	0xbcb8e7a7	-0.022571398
192	0xbd34b478	-0.04411742
193	0x3c7ec0ed	0.015548927
194	0xbd58bdb5	-0.052915294
195	0x3dccc873	0.0999917
196	0xbcb0f785	-0.021602402
197	0x3c8250ce	0.015907671
198	0xbcc850b7	-0.02445255
199	0xbdaa7532	-0.083231345
200	0x3d7a9ae5	0.061182875
201	0x3c8c99d0	0.017163187
202	0xbdc37a94	-0.09544864
203	0xbda545a5	-0.08069924
204	0xbc929225	-0.017891953
205	0x3d45ac2b	0.048259895
206	0xbd8c67fa	-0.068557695
207	0xbdafea61	-0.08589626
208	0x3d14cdc1	0.036329035
209	0xbd512530	-0.051060855
210	0x3bd383fd	0.006454943
211	0x3d954373	0.072882555
212	0x3d03fc84	0.03222324
213	0xbcda778d	-0.026668334
214	0xbcad2f30	-0.021140665
215	0xbd3dcee0	-0.04633987
216	0x3d9af616	0.075664684
217	0xbc82b84f	-0.015957026
218	0x3ccb754d	0.024836207
219	0xbd16762a	-0.036733784
220	0xbda2b7d9	-0.079452224
221	0xbd1b344b	-0.037891667
222	0x3c9d32c9	0.019189255
223	0x3dc2ac46	0.09505515
224	0x3c36e10d	0.011162055
225	0xbd972b29	-0.07381279
226	0xbca3b2e3	-0.01998276
227	0x3dbe2dc0	0.0928607
228	0xbd5a862a	-0.053350605
229	0xbd1fb5a6	-0.038991593
230	0xbd473845	-0.048637647
231	0xbcb69d21	-0.022291722
232	0xbdcc2852	-0.09968628
233	0x3cda3243	0.026635295
234	0x3dae2d0a	0.08504684
235	0xbc0adcbd	-0.00847548
236	0xbd707240	-0.058702707
237	0x3db2cb8e	0.08730231
238	0x3d1a48bc	0.03766702
239	0x3cb41a59	0.02198522
240	0x3da220dc	0.07916424
241	0x3dce9c6f	0.10088431
242	0x3d1915ad	0.037374187
243	0xbda1476c	-0.07874951
244	0x3cc35a55	0.023846785
245	0x3c8d2c57	0.017233057
246	0x3d6f1635	0.058370788
247	0xbd883136	-0.06650011
248	0xbddd655a	-0.10810347
249	0x3d1fa3db	0.038974624
250	0x3c4d5698	0.012532853
251	0xbd33fc30	-0.043941677
252	0x3c1d37c0	0.009595811
253	0xbd91a260	-0.07111049
254	0x3d9f91cf	0.07791483
255	0x3d1d333f	0.03837895

bias f4 [128]
0	0xbdb04553	-0.086069725
1	0xbd6eaa29	-0.058267746
2	0x3dd957db	0.1061246
3	0xbdc417d1	-0.09574855
4	0xbdad0ea7	-0.0845006
5	0xbcbecf91	-0.023292335
6	0x3d32ca63	0.043650042
7	0xbdd0751b	-0.10178586
8	0xbcee841b	-0.029115727
9	0x3d73198b	0.05935053
10	0x3d4655f4	0.048421815
11	0x3c6b6e2b	0.014369528
12	0xbdb81036	-0.08987467
13	0x3da4142a	0.080116585
14	0x3d96e52b	0.07367929
15	0x3da8c034	0.08239785
16	0xbc0afb86	-0.008482819
17	0x3cf501cf	0.029908089
18	0x3d7c5a5f	0.061609622
19	0xbd5b41c9	-0.053529534
20	0x3c03d09f	0.008045345
21	0x3b48ebee	0.0030658203
22	0xbda53617	-0.080669574
23	0xbc2d6f2c	-0.0105855875
24	0x3d44f3b3	0.048083972
25	0xbbc2280f	-0.0059251855
26	0xbd80e8b2	-0.06294383
27	0xbd96ffc0	-0.07372999
28	0x3c85ba4d	0.016324187
29	0x3cec30cc	0.028831862
30	0xbd916f19	-0.07101268
31	0x3cbd2a24	0.023091383
32	0x3d1e2ae0	0.038615108
33	0x3cb44c32	0.022008989
34	0xbd755676	-0.05989691
35	0xbca5121c	-0.020150237
36	0x3c0ef82c	0.008726161
37	0xbb83e7f3	-0.0040254532
38	0xbd3bff1b	-0.045897584
39	0xbd872eac	-0.06600699
40	0xbdabde33	-0.083919905
41	0xbc1f0098	-0.009704731
42	0xba82c0cc	-0.0009975671
43	0xbdebf124	-0.11520603
44	0x3cb49fb3	0.022048807
45	0x3da03d4d	0.07824192
46	0xbd957c62	-0.07299115
47	0x3d387282	0.04503108
48	0x3c191a57	0.009344659
49	0xbc1606a3	-0.009156856
50	0x3d13c9de	0.036081187
51	0x3cbb1e46	0.022841584
52	0xbca3c37a	-0.019990671
53	0x3cd93d8f	0.026518611
54	0xbcd5ce13	-0.02609924
55	0xbc2bb977	-0.01048123
56	0x3d9d7277	0.07687848
57	0x3d34dfc9	0.04415873
58	0xbd83826c	-0.064213604
59	0xbcabe7f9	-0.020984637
60	0xbe09991f	-0.13437317
61	0xbdb5ee7f	-0.0888338
62	0xbd4de5ea	-0.05026809
63	0x3d930bbd	0.07179973
64	0xbda5a051	-0.080872186
65	0xbd2ea53c	-0.04263805
66	0xbd1576c2	-0.03649021
67	0xbd85d72a	-0.0653518
68	0x3d1b8598	0.0379692
69	0xbdaf255f	-0.0855205
70	0xbd1e0266	-0.038576506
71	0x3cab8a46	0.020939957
72	0x3d946d7a	0.072474435
73	0xbccdd04c	-0.025123738
74	0xbd0cdd8d	-0.034390975
75	0xbd1be138	-0.038056582
76	0x3c1bcd64	0.009509418
77	0xbda03cc2	-0.07824089
78	0x3dcab8c9	0.09898526
79	0xbd2fc479	-0.04291198
80	0x3dbbbd3d	0.09166954
81	0xbcb4dc13	-0.022077596
82	0xbd571bd7	-0.052516785
83	0x3d7bdd32	0.061490245
84	0xbca32bb2	-0.019918296
85	0xbce8f397	-0.028436465
86	0x3d00309b	0.031296354
87	0x3d1ca0e3	0.03823937
88	0x3d8eafdf	0.069671385
89	0x3af4c837	0.0018675391
90	0x3d5ca08a	0.05386404
91	0x3daa3908	0.08311659
92	0x3d7fa06c	0.06240885
93	0x3d95cea2	0.07314803
94	0x3cc2fa96	0.02380113
95	0x3c887e61	0.016661825
96	0x3cd1369a	0.025538731
97	0xbc9ab0e3	-0.018883174
98	0xbd817e0f	-0.06322872
99	0x3d838a49	0.0642286
100	0x3d6a2067	0.057159808
101	0x3d1a0d96	0.037610613
102	0x3d81a97c	0.06331155
103	0xbd8b672c	-0.06806788
104	0x3dd14f24	0.10220173
105	0x3db8db57	0.09026211
106	0xbc35da98	-0.01109948
107	0xbd412213	-0.047151636
108	0x3dc23f5a	0.094847396
109	0x3d2cf8ab	0.042229336
110	0xbcbee027	-0.023300244
111	0x3c058050	0.008148268
112	0x3d61d94a	0.055138864
113	0x3cd67c9a	0.026182462
114	0x3dc4491d	0.09584258
115	0xbd0e32a5	-0.034716267
116	0x3d366626	0.04453101
117	0xbdcb7fca	-0.09936483
118	0x3cee44d2	0.02908555
119	0x3d381620	0.044942975
120	0xbce4e312	-0.027940307
121	0x3c7f5124	0.01558331
122	0x3c530da7	0.012881673
123	0x3da3e4ab	0.08002599
124	0x3cd80479	0.02636932
125	0xbcdd76d7	-0.027034206
126	0xbce35722	-0.02775151
127	0x3d274fa7	0.040847447

weight f4 [128, 128]
0	0x3dbe96f8	0.09306139
1	0xbc32b365	-0.010907029
2	0xbdcac21f	-0.09900307
3	0x3ada47f4	0.0016653524
4	0x3da6de3c	0.081478566
5	0xbd0320b4	-0.03201361
6	0xbd8ad17e	-0.06778239
7	0x3ca2aa87	0.019856704
8	0x3d23eb55	0.040019352
9	0xbd9776a5	-0.073956765
10	0xbdaf9753	-0.08573785
11	0x3c08e0ad	0.008354348
12	0xbcf1c8a5	-0.02951462
13	0x3b4ec8b5	0.0031552736
14	0x3d1fa641	0.03897691
15	0xbd06c446	-0.032902025
16	0xbd75d5bc	-0.060018286
17	0xbc5254cf	-0.012837603
18	0xbc06897f	-0.008211493
19	0xbd96f7c4	-0.07371476
20	0x3c336c17	0.010951064
21	0xbbea047f	-0.0071416493
22	0x3d08d4e5	0.033406157
23	0xbdac0987	-0.08400255
24	0xbceb2675	-0.028704861
25	0xbc9f51df	-0.019448219
26	0xbd10e482	-0.035374172
27	0x3d6de540	0.058079958
28	0xbd6f5dea	-0.058439173
29	0xbd977303	-0.073949836
30	0x3d9e9ece	0.07745133
31	0xbda8b2ee	-0.08237253
32	0x3d4628f7	0.04837891
33	0x3d7f05f9	0.062261555
34	0x3d47a9c2	0.048745878
35	0xbd80d5ea	-0.06290801
36	0xbd816660	-0.063183546
37	0xbd8643fb	-0.06555935
38	0x3d65ebf0	0.05613321
39	0x3dd7b908	0.10533339
40	0xbbf21224	-0.0073874164
41	0xbd922132	-0.07135238
42	0x3d5acf62	0.053420432
43	0xbac532c1	-0.0015045033
44	0xbd714de6	-0.05891218
45	0x3d7a6616	0.061132513
46	0x3cfb9be2	0.03071398
47	0xbdc72e33	-0.09725609
48	0xbd55d8fc	-0.052208886
49	0x3d5bda9e	0.053675286
50	0xbcdd2e26	-0.026999544
51	0xbdafa3e5	-0.08576182
52	0x3db802e5	0.08984927
53	0x3d05c47b	0.03265808
54	0x3dcafb65	0.09911231
55	0x3d9038cf	0.070420854
56	0xbdbac56c	-0.091196865
57	0xbd7931f0	-0.06083864
58	0x3d827d3f	0.06371545
59	0x3c356a33	0.011072683
60	0x3dc0f547	0.09421783
61	0x3d9eca92	0.07753481
62	0x3dbed51b	0.093179904
63	0x3ccb5c0f	0.02482417
64	0xbd893b31	-0.06700743
65	0xbda4aaf3	-0.080404185
66	0xbd810c1e	-0.06301139
67	0xbd9d505f	-0.07681345
68	0xbc2b754d	-0.010464978
69	0x3d9841a9	0.07434399
70	0xbd05861c	-0.0325986
71	0xbd814096	-0.06311147
72	0xbdaff7a4	-0.085921556
73	0xbd8a2f20	-0.0674727
74	0xbcee8d8b	-0.029120227
75	0xbd918b98	-0.071067035
76	0x3ddd8961	0.108172186
77	0xbc95dccb	-0.018293759
78	0xbd47ea59	-0.048807476
79	0x3ddf55cc	0.10905036
80	0xbc96f2de	-0.018426355
81	0x3cb92539	0.022600757
82	0x3d244dc8	0.04011324
83	0x3d579c70	0.052639425
84	0xbd5770d1	-0.052597824
85	0xbd8a0f1e	-0.067411646
86	0x3d99871b	0.074964724
87	0xbbaeb14f	-0.0053311954
88	0xbd12a84c	-0.03580503
89	0xbd9aefbe	-0.075652584
90	0x3db587af	0.0886377
91	0x3d4f3230	0.050584972
92	0xbbb0397a	-0.0053779455
93	0x3d34a479	0.044102166
94	0xbd2e8dcc	-0.042615697
95	0x3d97e172	0.07416047
96	0x3d8e956e	0.06962095
97	0x3cc25e6c	0.023726664
98	0x3d6888e6	0.05677118
99	0xbd03ea6e	-0.03220599
100	0x3d9d766c	0.07688603
101	0x3db65c7e	0.0890436
102	0xbc8e0d15	-0.017340222
103	0xbd54ae0c	-0.051923797
104	0xbc9da5f8	-0.01924418
105	0x3c24f4e8	0.010068156
106	0xbd217f1f	-0.039427873
107	0x3d8def5e	0.06930421
108	0x3c22c08a	0.0099336
109	0x3db3e317	0.08783548
110	0x3da56ed9	0.08077783
111	0xbcc5da44	-0.024151929
112	0xba81fce1	-0.0009917283
113	0x3d91ad7e	0.07113169
114	0xbd9d280e	-0.076736555
115	0xbcfce08a	-0.030868787
116	0xbd542885	-0.051796455
117	0x3ccf711d	0.025322491
118	0x3dbb7615	0.09153382
119	0xbb12374c	-0.0022310792
120	0xbd882f6c	-0.0664967
121	0xbd89d877	-0.067307405
122	0x3d2db262	0.042406447
123	0x3d4793e4	0.048725024
124	0x3d0c16ec	0.034201548
125	0xbd335252	-0.04377968
126	0x3d98e1c3	0.07464936
127	0xbcc3996f	-0.023876874
128	0x3da0ca3b	0.078510724
129	0x3d1cc230	0.03827113
130	0xbd28308a	-0.041061915
131	0xbcd9d55d	-0.026590997
132	0xbdd3c884	-0.1034098
133	0xbd0095ce	-0.031392865
134	0x3d962fe5	0.07333354
135	0xbd926b4b	-0.07149371
136	0xbd2fbccd	-0.042904664
137	0xbdb9711f	-0.09054779
138	0x3d313695	0.043264944
139	0xbc962fdc	-0.018333368
140	0x3d036247	0.032076146
141	0xbcedc2ad	-0.029023493
142	0xbd21b4ad	-0.039478946
143	0xbd2fe930	-0.042946994
144	0x3d874442	0.06604816
145	0xbd2623a5	-0.040561337
146	0x3d80483e	0.06263779
147	0xbd15e1ce	-0.036592297
148	0xbdc0c7dd	-0.09413121
149	0x3d75cd30	0.060010135
150	0xbd3e5c7a	-0.04647491
151	0x3d925610	0.07145321
152	0xbd9b7da7	-0.07592326
153	0x3d28cdf7	0.04121205
154	0x3cb55402	0.022134785
155	0xbce46ca2	-0.027883831
156	0x3d80447e	0.06263064
157	0xbc966681	-0.018359425
158	0xbda993f3	-0.08280172
159	0x3db9c195	0.09070126
160	0x3da1924b	0.07889231
161	0xbd4ca011	-0.04995734
162	0xbd7bd11e	-0.061478727
163	0x3c7752cf	0.015095427
164	0x3c16c58f	0.009202375
165	0x3dad2522	0.08454348
166	0x3d93cb1c	0.072164744
167	0x3c845eba	0.01615845
168	0x3d41fa9d	0.047358144
169	0xbc595ec8	-0.0132672265
170	0xbde66013	-0.112487935
171	0xbd8d82ec	-0.06909737
172	0xbc995c2d	-0.01872071
173	0x3d2f40e0	0.04278648
174	0xbdc3199f	-0.09526371
175	0xbd413a78	-0.0471749
176	0xbd6dc5d4	-0.05804999
177	0x3cc4b2c2	0.02401102
178	0xbccf01d9	-0.025269436
179	0x3d49ba17	0.049249735
180	0x3c59d4c9	0.013295361
181	0x3d37febc	0.044920668
182	0x3d454d2b	0.048169296
183	0xbccde30e	-0.025132682
184	0x3dc9b2d9	0.098485656
185	0x3d94582c	0.0724338
186	0x3c5af274	0.013363469
187	0x3c9fed7b	0.01952242
188	0xb9c06635	-0.00036697244
189	0xbd7c9e04	-0.061674133
190	0xbc9c9933	-0.01911602
191	0xbd9c8b2d	-0.07643733
192	0xbc321813	-0.010869998
193	0x3dba171a	0.090864375
194	0x3dc89f2e	0.09795986
195	0x3d22f504	0.039784446
196	0x3d46be26	0.048521183
197	0x3bb8bf6d	0.005638054
198	0xbcf4600b	-0.029830953
199	0xbcd249f4	-0.02567003
200	0x3d80bf38	0.06286472
201	0x3d66698a	0.056252994
202	0x3d61cf6d	0.055129457
203	0xbd292311	-0.041293208
204	0xbc727752	-0.014798956
205	0x386b0939	5.6036955e-05
206	0x3db8a635	0.090160765
207	0xbd9b9cb9	-0.07598252
208	0xbd97010f	-0.07373249
209	0x3da051fc	0.07828137
210	0xba9294df	-0.0011183283
211	0x3d977ee8	0.07397252
212	0xbbe717c3	-0.007052393
213	0x3ca3478e	0.01993158
214	0xbc298c22	-0.010348352
215	0x3d3a3605	0.045461673
216	0xbd204dbb	-0.03913663
217	0xbd539477	-0.05165526
218	0xbd897a8c	-0.06712827
219	0x3d2e53b4	0.042560294
220	0x3da71802	0.08158876
221	0xbcf9ab0f	-0.030477075
222	0x3dbc6c31	0.092003234
223	0x3c6075e3	0.013699981
224	0xbd9bfd20	-0.07616639
225	0x3d37d3c8	0.044879705
226	0x3cd97d95	0.02654914
227	0xbd47eece	-0.048811726
228	0xbd1f6521	-0.038914803
229	0x3c114fbc	0.008869108
230	0x3d34ba5a	0.04412303
231	0xbd062abb	-0.032755595
232	0x3d697bcd	0.05700283
233	0x3dae519f	0.08511662
234	0x3d84178e	0.06449805
235	0x3c7d86dc	0.0154740475
236	0x3d2191f0	0.039445817
237	0xbc4f784f	-0.012662961
238	0x3d75d3dc	0.060016498
239	0x3dc2717a	0.094943
240	0x3ae7bb6e	0.001767976
241	0xbdec5487	-0.1153956
242	0x3b8f1a30	0.0043671355
243	0xbdc406c8	-0.09571606
244	0x3d2768d8	0.04087147
245	0x3c37b629	0.011212864
246	0x3d5fdfba	0.05465672
247	0xbb820d6a	-0.0039688842
248	0xbd94645b	-0.07245704
249	0x3d46516e	0.0484175
250	0x3d4a5c0a	0.04940418
251	0xbc771812	-0.015081422
252	0x3d73a302	0.05948163
253	0xbdab8196	-0.08374326
254	0xbd3cee68	-0.0461258
255	0x3d933abc	0.07188937

bias f4 [128]
0	0x3d6cfeab	0.057860058
1	0x3dbeffdb	0.09326144
2	0x3d00cb5b	0.031443935
3	0xbca44970	-0.020054549
4	0x3da01a63	0.07817533
5	0xbd8d380a	-0.06895454
6	0x3d80fdf8	0.06298441
7	0xbb7619d8	-0.0037552025
8	0x3ce82175	0.028336266
9	0xbdb4ab23	-0.08821704
10	0x3c942598	0.018084332
11	0x3dbddbc7	0.09270435
12	0x3d7a6f75	0.06114145
13	0x3da0921d	0.07840369
14	0xbdb6464b	-0.08900126
15	0xbd63e38c	-0.055636927
16	0xba285148	-0.0006420803
17	0x3dadb9b5	0.084826864
18	0x3d67d81f	0.056602594
19	0x3d2c79c2	0.042108305
20	0x3da69744	0.081343204
21	0xbdbb363e	-0.09141205
22	0x3d3ff456	0.046863876
23	0xbdae15b1	-0.08500231
24	0x3ca97fe9	0.020690875
25	0xbd7cf31e	-0.061755292
26	0xbd486397	-0.0489231
27	0x3dc5d735	0.09660188
28	0xbd9102e6	-0.07080631
29	0xbd75669e	-0.059912317
30	0x3cbe446e	0.02322599
31	0xbd54477d	-0.05182599
32	0xbd26c63b	-0.04071639
33	0x3c211db0	0.009833738
34	0x3d9eb477	0.07749265
35	0xba94269c	-0.001130301
36	0xbd6d01ba	-0.057862975
37	0xbd32a1f1	-0.04361147
38	0x3da5aa9b	0.08089181
39	0x3dc63066	0.096772
40	0x3d53ae7b	0.05168007
41	0xbd1121e1	-0.0354327
42	0x3d364ef2	0.044508882
43	0x3d7db0bf	0.061936136
44	0x3c98da8f	0.018658904
45	0x3d8d9cf1	0.069147
46	0xbbd797ff	-0.0065793986
47	0x3cd239d6	0.025662344
48	0x3ca17f52	0.019714031
49	0x3d9f8023	0.07788112
50	0xbd1d5f88	-0.038421184
51	0x3d8b7fbc	0.06811473
52	0xbd6445a2	-0.05573047
53	0xbd6c8dee	-0.057752542
54	0x3b325b23	0.0027214966
55	0xbd9e4b62	-0.07729222
56	0x3cba17aa	0.022716362
57	0xbd89aa2d	-0.067219116
58	0x3d7500f6	0.05981537
59	0xbd9859a0	-0.074389696
60	0xbcf9409e	-0.03042632
61	0xbb6c200d	-0.0036029846
62	0xbd52fb07	-0.05150893
63	0x3c76f9b9	0.015074187
64	0x3d327d3e	0.04357647
65	0xbcf56f27	-0.029960228
66	0x3d8d855a	0.069102004
67	0xbd5911cc	-0.052995488
68	0x3dba1be6	0.090873525
69	0xbd96411b	-0.07336637
70	0xbd85faad	-0.06541953
71	0x3cf882b8	0.030335769
72	0xba56bb11	-0.0008191327
73	0xbd9858e0	-0.074388266
74	0xbd3937da	-0.04521928
75	0xbd0f2807	-0.034950282
76	0xbd7cbbda	-0.061702587
77	0xbd7413cf	-0.059589203
78	0xba0292f6	-0.00049810053
79	0xbd7b2d6b	-0.06132261
80	0xbcc76b52	-0.024343167
81	0x3d7a9143	0.06117369
82	0x3cfe7416	0.031061213
83	0xbd10dac9	-0.0353649
84	0xbbbcb35b	-0.0057586855
85	0x3d298971	0.04139084
86	0x3d9d437c	0.07678887
87	0x3d84e46e	0.06488882
88	0x3b944c86	0.004525724
89	0x3d91736d	0.07102094
90	0xbdc183e9	-0.09448988
91	0xbbc09832	-0.005877518
92	0xbcdb57c6	-0.026775252
93	0xbcb6710b	-0.0222707
94	0xbdced723	-0.10099628
95	0xbd5f4167	-0.054505732
96	0xbc368a56	-0.01114138
97	0x3d97d82c	0.074142784
98	0x3d2f3f53	0.042785
99	0xbd8d28f8	-0.0689258
100	0xbd16a8be	-0.03678202
101	0xbb725e36	-0.0036982424
102	0xbd417657	-0.047232
103	0x3ac38db3	0.0014919549
104	0xbb26dd2d	-0.002546142
105	0xbd16fb31	-0.03686065
106	0xbdc10fe5	-0.0942686
107	0x3cf0eb39	0.029409038
108	0x3d2460f3	0.04013152
109	0x3c974d95	0.018469611
110	0x3d40de6a	0.04708711
111	0xbd9d167a	-0.07670303
112	0xbd865c2c	-0.06560549
113	0xbd867a02	-0.0656624
114	0x3d96b53b	0.07358786
115	0x3ced155a	0.028940845
116	0xbd4ade35	-0.04952832
117	0x3c48ea3d	0.012262878
118	0xbdbfaa45	-0.09358648
119	0xbdacb710	-0.08433354
120	0xbc9fab4f	-0.019490866
121	0x3d8a76d8	0.06760949
122	0x3cefb9ea	0.029263455
123	0xbd8dcf11	-0.069242604
124	0xbcde912d	-0.027168835
125	0xbda37e05	-0.07983021
126	0xbd3c6208	-0.045991927
127	0xbaf5fa7f	-0.001876667

weight f4 [128, 128]
0	0x3d0efd8f	0.03490978
1	0xbc473be2	-0.012160273
2	0xbce81fc9	-0.028335469
3	0x3ba5f3a5	0.005064445
4	0x3c8a07b6	0.01684938
5	0xbd0be4dc	-0.034153804
6	0xbda33e5e	-0.0797088
7	0xbccbd55b	-0.02488201
8	0x3ce5d158	0.028053924
9	0x3db592ff	0.08865928
10	0xbcf8b19e	-0.030358132
11	0x3d50a34a	0.050936975
12	0xbd4eb7d2	-0.050468273
13	0xbc3fcb2c	-0.011706155
14	0x3d2c83f5	0.04211803
15	0xbd3fc7c3	-0.046821367
16	0x3d820479	0.06348509
17	0xbc0ca242	-0.008583607
18	0x3d8676b8	0.065656126
19	0x3da0411c	0.07824919
20	0xbd51d07f	-0.051224228
21	0x3c95e085	0.018295536
22	0xbd97ae1e	-0.07406257
23	0xbdbc6889	-0.09199626
24	0x3ddc7948	0.1076532
25	0xbc98ffed	-0.018676722
26	0xbd4a6a5f	-0.04941785
27	0x3c982c50	0.018575817
28	0xbafd353b	-0.0019318232
29	0xbd96aeac	-0.07357535
30	0x3d35a1df	0.044343825
31	0x3cca78b3	0.024715757
32	0xbd5df16d	-0.05418532
33	0x3cc9873c	0.024600618
34	0x3d6b802a	0.057495274
35	0xbdaeaad5	-0.085286774
36	0x3ce83e72	0.028350089
37	0x3d8500f7	0.06494325
38	0x3d81bcde	0.06334852
39	0x3d8de6de	0.069288
40	0xbda16e1b	-0.07882329
41	0xbc408618	-0.01175072
42	0x3d98c5bf	0.07459592
43	0xbbeef869	-0.0072927964
44	0x3decce52	0.1156279
45	0x3d3613ae	0.04445236
46	0xbde824ab	-0.11335119
47	0x3d2c595f	0.04207742
48	0xbd4f7281	-0.05064631
49	0xbda69468	-0.08133775
50	0x3d44253f	0.047887083
51	0x3c66a040	0.0140762925
52	0xbca63cbd	-0.020292634
53	0x3d73874b	0.059455197
54	0x3d8a3f49	0.06750352
55	0x3d097958	0.033562988
56	0x3ced2de1	0.02895254
57	0xbd0784aa	-0.033085503
58	0xbd187420	-0.03722012
59	0x3e3e5eee	0.185909
60	0xbdb91a2b	-0.09038194
61	0xbc468032	-0.012115525
62	0x3d98f57a	0.07468696
63	0xbc880e7c	-0.01660847
64	0xbda42375	-0.080145754
65	0xba1e4cbc	-0.0006038656
66	0xbbb72992	-0.0055896724
67	0xbd82ea01	-0.06392289
68	0xbd8a59e2	-0.06755425
69	0x3d54996f	0.05190414
70	0x3daed093	0.08535876
71	0x3dbd743b	0.09250685
72	0x3d208abf	0.03919482
73	0x3e07ebb4	0.13273507
74	0xbc2709cb	-0.010195206
75	0xbba5b020	-0.005056396
76	0xbb916ca2	-0.004437999
77	0xbb682557	-0.0035422647
78	0x3acdb3d6	0.0015693854
79	0xbb4cbe53	-0.0031241372
80	0x3d2a3351	0.041552845
81	0xbd1aef84	-0.037826076
82	0xbd93b093	-0.07211413
83	0x3dd08270	0.10181129
84	0x3dc77d81	0.09740735
85	0x3d515411	0.051105563
86	0x3ccc05c0	0.024905086
87	0xbe20b505	-0.15694053
88	0xbcde655c	-0.027147941
89	0xbd969859	-0.07353277
90	0x3d785c44	0.060634866
91	0xbc64e2fc	-0.013970133
92	0x3c51cfbd	0.012805876
93	0xbd6b4b8e	-0.0574451
94	0x3d93f5df	0.072246306
95	0xbc33d8f5	-0.01097702
96	0xbd11ad05	-0.035565395
97	0xbd9db29f	-0.07700085
98	0x3da3dd6c	0.08001217
99	0x3ce05027	0.02738197
100	0xbe4ad0a6	-0.19806156
101	0xbd4ac1b1	-0.049501125
102	0x3c1cbc37	0.009566358
103	0x3c1ffcc2	0.009764852
104	0xbdcbd7a5	-0.0995324
105	0x3a9e38c3	0.001207136
106	0xbdde834a	-0.10864885
107	0x3d344a42	0.04401613
108	0xbba9f77a	-0.005186972
109	0x3d04c6de	0.032416217
110	0xbc267589	-0.0101598585
111	0xbd7743bd	-0.060367335
112	0x3ca06cc0	0.019583106
113	0xbd777158	-0.060410827
114	0x3dd10d8a	0.102076605
115	0xbc8bc20d	-0.017060304
116	0xbcc3be1b	-0.02389436
117	0x3d297c40	0.04137826
118	0x3cb7a563	0.02241773
119	0xbd43c72e	-0.047797374
120	0xbde15c51	-0.11003936
121	0x3cd7715d	0.026299173
122	0x3d78d629	0.060751114
123	0x3dc55376	0.096350595
124	0xbdb65e78	-0.08904737
125	0xbdc33e45	-0.09533361
126	0x3c0fa6b0	0.008767769
127	0x3d65066c	0.055914328
128	0xbd48a7ae	-0.048988037
129	0x3d9b0085	0.075684585
130	0xbd623b3e	-0.05523228
131	0x3b46c36e	0.0030328888
132	0x3bb9f00d	0.0056743682
133	0xbd9b70dd	-0.07589886
134	0x3dad4ee5	0.084623136
135	0xbcd06e8a	-0.025443334
136	0x3d409103	0.047013294
137	0xbdab426c	-0.08362278
138	0xbd24aeab	-0.04020564
139	0xbc96e73b	-0.018420806
140	0x3c1f73b0	0.009732172
141	0x3d8b3f56	0.0679919
142	0x3d515de8	0.051114947
143	0xbdbf1deb	-0.09331878
144	0x3d520d29	0.05128208
145	0xbd471aec	-0.04860966
146	0xbd664fba	-0.056228377
147	0x3d87c592	0.066294804
148	0x3b38f10d	0.002821985
149	0x3c95230b	0.018205186
150	0x3d6e0062	0.058105834
151	0x3da19aec	0.07890877
152	0x3d6d36b9	0.057913516
153	0x3d094efd	0.033522595
154	0x3c2dd737	0.010610393
155	0x3db5b1c4	0.08871797
156	0xbd3f1adf	-0.046656486
157	0xbdad5e51	-0.08465255
158	0xbd573191	-0.052537505
159	0xbcb39260	-0.021920383
160	0x3cf57ba9	0.029966192
161	0xbd4d3a66	-0.05010452
162	0xbc0483b8	-0.008088045
163	0xbda78f9e	-0.0818169
164	0xbd2f656e	-0.04282134
165	0xbd426bab	-0.04746596
166	0xbc9d472b	-0.019198975
167	0x3dc8f1dc	0.09811756
168	0x3d75c467	0.060001757
169	0xbcd01824	-0.025402136
170	0x3d034f78	0.03205821
171	0xbd59dd0b	-0.05318932
172	0x3d520707	0.051276233
173	0xbd7f7b70	-0.06237358
174	0x3c2eeb67	0.0106762415
175	0x3d888df8	0.066677034
176	0xbd9985f8	-0.07496256
177	0x3c40bdc0	0.01176399
178	0x3a95f24b	0.0011440007
179	0x3dbee9ae	0.093219146
180	0xbdc5867f	-0.09644794
181	0xbbfaa450	-0.007648982
182	0xbb44e6b1	-0.003004473
183	0xbcee8645	-0.02911676
184	0xbd2a623f	-0.0415976
185	0xbd1f5679	-0.038900826
186	0x3d9f5183	0.07779219
187	0xbd2dee40	-0.04246354
188	0x3d152330	0.03641051
189	0xbd95f3a5	-0.07321862
190	0x3d3300f5	0.043702085
191	0x3c546e11	0.012965695
192	0xbdcb9578	-0.09940618
193	0xbbde418f	-0.0067827175
194	0x3cbe92d0	0.023263365
195	0x3d239b25	0.03994288
196	0x3c616522	0.013757022
197	0x3d89ab40	0.067221165
198	0xbcf5eb76	-0.030019503
199	0x3d95817d	0.073000886
200	0x3dc6b9ec	0.097034305
201	0x3d4f267e	0.05057382
202	0xbc84e4e3	-0.016222423
203	0x3ab55ce0	0.0013836883
204	0xbcb2ab16	-0.021810096
205	0x3d02e085	0.0319524
206	0x3d5de04f	0.054168995
207	0xbd984737	-0.07435458
208	0x3d60aa80	0.0548501
209	0xbdb04d4c	-0.08608493
210	0xbd9a1644	-0.07523778
211	0xbd5ebe20	-0.054380536
212	0x3cf43cfb	0.029814234
213	0x3d8c449d	0.068490244
214	0x3c02dd51	0.007987336
215	0x3d8bbb43	0.06822827
216	0xbd6728b9	-0.05643532
217	0x3d6ab7fb	0.057304364
218	0x3ce73e37	0.028227909
219	0x3cf12ab7	0.029439313
220	0xbcf70d98	-0.03015785
221	0xbd3fc00b	-0.046814006
222	0xbc93a0a0	-0.018020928
223	0x3c49f3a6	0.012326157
224	0x3d37b2c5	0.044848222
225	0x3d21e8fe	0.03952884
226	0xbcc57d0b	-0.024107477
227	0x3d498845	0.049202222
228	0x3beca514	0.0072218273
229	0xbb3d7eb0	-0.0028914623
230	0xbdbd12fe	-0.09232138
231	0xbcba3e52	-0.022734795
232	0x3d266eb9	0.040632937
233	0xbda51a36	-0.0806164
234	0xbdbb8776	-0.091566965
235	0xba66c19e	-0.0008802655
236	0xbd6fc20b	-0.058534663
237	0xbd59f462	-0.053211577
238	0x3d1c3ddd	0.038144935
239	0xbbcfde24	-0.00634362
240	0xbcd903da	-0.026491094
241	0xbbc41d7e	-0.005984961
242	0xba839680	-0.0010039359
243	0x3db17a33	0.08665886
244	0x3da250bd	0.07925556
245	0xbd19aedd	-0.03752028
246	0x3c969179	0.018379914
247	0xbca230d9	-0.019798683
248	0x3d9b4df2	0.07583226
249	0x3d5743fd	0.052555073
250	0x3ce55f88	0.027999654
251	0x3d496b4e	0.0491746
252	0xbdab2fbf	-0.08358716
253	0x3d8dac37	0.06917613
254	0x3d0d92e8	0.03456393
255	0xbb9d77d6	-0.0048055453

bias f4 [128]
0	0xbd7be329	-0.061495934
1	0x3d99c7dc	0.07508823
2	0xbd9b5600	-0.075847626
3	0xba286b45	-0.0006424676
4	0x3b9a2b03	0.0047048344
5	0xbc2da45e	-0.01059827
6	0xbc97ee93	-0.018546378
7	0x3d809d2c	0.06279978
8	0xbb3f8d58	-0.0029228535
9	0xbc40dc17	-0.0117712235
10	0xbce9b68e	-0.028529432
11	0xbb73c87f	-0.0037198362
12	0x3d8db9d6	0.06920211
13	0x3d1224e3	0.03567971
14	0x3d4bc7a8	0.049750954
15	0x3d49988d	0.04921775
16	0xbc5d3369	-0.013501027
17	0xbd7fe100	-0.062470436
18	0x3d83af92	0.06429972
19	0xbce7a234	-0.028275587
20	0x3d20add8	0.03922829
21	0xbc9889bc	-0.018620364
22	0x3db25b66	0.08708839
23	0xbd9af209	-0.07565696
24	0xbc62c1ed	-0.013840181
25	0xbda12455	-0.07868258
26	0x3d8ae80b	0.0678254
27	0xbd6ab155	-0.057298023
28	0xbc0f5653	-0.008748609
29	0x3d11814e	0.035523705
30	0x3d33b7f5	0.043876607
31	0xbd0ba6e5	-0.03409471
32	0x3ca5c990	0.020237714
33	0xbc8bde7e	-0.017073866
34	0x3cade7c3	0.021228677
35	0xbd18d417	-0.03731164
36	0x3d7fda99	0.06246433
37	0x3c101d29	0.008796015
38	0xbc09d6c9	-0.008413025
39	0xbcb352fe	-0.02189016
40	0x3d87eb18	0.066366374
41	0x3d3d0813	0.04615028
42	0x3b8b35d4	0.00424836
43	0x3d959686	0.07304101
44	0xbc588703	-0.013215783
45	0x3da4c422	0.08045222
46	0xbd47414f	-0.048646268
47	0x3d842cbd	0.06453846
48	0xbda37903	-0.079820655
49	0x3d2887e2	0.041145213
50	0xbd5a6f79	-0.053328965
51	0x3dbd0a91	0.09230531
52	0xbcea082f	-0.028568355
53	0x3de6b5e2	0.1126516
54	0x3d106df5	0.035261113
55	0x3da454db	0.080239974
56	0xbdc90526	-0.09815435
57	0xbda4b931	-0.08043135
58	0xbb1b8b3f	-0.002373412
59	0xbce11b3d	-0.027478809
60	0x3dbc42b9	0.09192414
61	0x3d7a4660	0.06110227
62	0x3bb3c2cc	0.005485868
63	0x3d6d5f99	0.057952497
64	0xbd30d5fc	-0.04317282
65	0xbd6158ff	-0.055016514
66	0x3d3196ee	0.04335683
67	0x3d9009e3	0.07033136
68	0x3d4a1e65	0.049345393
69	0x3d693dc4	0.05694367
70	0xbd35ddd9	-0.044401024
71	0xbd6a50a2	-0.057205804
72	0x3db6f970	0.08934295
73	0x3aba4120	0.0014210083
74	0xbd9669c5	-0.07344393
75	0x3d13ba77	0.0360665
76	0xbd8d9825	-0.06913785
77	0xbc9a4ad1	-0.018834503
78	0x3dac2a64	0.08406523
79	0x3cfb476a	0.030673701
80	0x3c7b5d5f	0.015342086
81	0x3d95042d	0.07276187
82	0xbc15b3c7	-0.009137101
83	0xbac0916e	-0.0014691779
84	0x3d5360a2	0.051605828
85	0x3d784275	0.060610253
86	0x3d0d19aa	0.034448303
87	0x3d40e941	0.04709745
88	0x3d375e77	0.044767823
89	0xbca48918	-0.020084903
90	0x3d280ee8	0.04102984
91	0x3c0a2068	0.008430578
92	0x3cb4d6b8	0.022075042
93	0x3dc925d7	0.098216705
94	0xbd290005	-0.041259784
95	0xbd0f1e2d	-0.034940887
96	0xbda4890c	-0.08033952
97	0xbd7d1428	-0.0617868
98	0xbc447ce9	-0.0119926715
99	0x3d8fcdb0	0.07021654
100	0xbc49f52b	-0.012326519
101	0x3d231794	0.039817408
102	0xbc46bed0	-0.012130454
103	0x3d5858bb	0.052818995
104	0xbd23f760	-0.040030837
105	0xbc02ba25	-0.007978951
106	0x3cbdeedd	0.023185188
107	0x3d12b5ba	0.03581784
108	0x3d8de504	0.06928447
109	0xbca8bedb	-0.02059882
110	0xbdb7f64a	-0.08982523
111	0xbd1c0456	-0.038090073
112	0xbda10eff	-0.078641884
113	0xbd8a96c3	-0.06767037
114	0xbd9a0a2f	-0.075214736
115	0x3bf65698	0.007517647
116	0xbd34349c	-0.043995485
117	0xbd956ccf	-0.07296144
118	0xbca48b14	-0.020085849
119	0xbc16ff75	-0.009216179
120	0xbd1a9843	-0.037742864
121	0xbd96a44d	-0.07355557
122	0x3d4c9bd9	0.049953315
123	0xbdc23eae	-0.094846115
124	0xbdc2c95d	-0.09511063
125	0x3cac9145	0.021065364
126	0xbd16b3e2	-0.036792643
127	0x3d65edc2	0.056134947

weight f4 [128, 128]
0	0xbcd94b64	-0.026525207
1	0xbdf22257	-0.11822956
2	0xbd445880	-0.047935963
3	0x3d745324	0.0596496
4	0xbc9c849c	-0.019106202
5	0x3be65885	0.0070295953
6	0x3df45460	0.11930156
7	0x3b552c3d	0.0032527589
8	0xbd3ee251	-0.04660255
9	0x3ddf8a8c	0.109150976
10	0x3d779960	0.060449004
11	0x3c63f08a	0.013912329
12	0xbd476b04	-0.048686042
13	0x3d954d66	0.07290153
14	0xbdd442ac	-0.10364279
15	0x3dfc7c72	0.123284236
16	0x3dae1259	0.08499593
17	0xbcb25389	-0.021768348
18	0xbcda352f	-0.026636688
19	0xbd1cb72b	-0.03826062
20	0x3c0bfb2c	0.008543771
21	0xbd518184	-0.051148906
22	0xbe088871	-0.13333298
23	0x3d64ce25	0.055860657
24	0xbd889086	-0.06668191
25	0x3d5934df	0.053028937
26	0xbdde8353	-0.10864892
27	0xbe009291	-0.1255591
28	0xbcf155b5	-0.029459814
29	0x3dd7bc53	0.10533967
30	0xbda41fea	-0.080138996
31	0xbd34108e	-0.0439611
32	0xbcc73e3e	-0.024321672
33	0x3dc76fab	0.09738096
34	0xbc95820a	-0.018250484
35	0x3d5c8a0b	0.053842586
36	0x3c71e572	0.014764177
37	0x3df3302e	0.11874424
38	0xbd20e93f	-0.03928494
39	0x3d7c08c6	0.061531805
40	0x3da3f85e	0.08006357
41	0x3e058bf5	0.1304167
42	0xbd6532cb	-0.055956643
43	0x3c2fda7f	0.010733246
44	0xbd76b911	-0.060235087
45	0xbd08384f	-0.033256825
46	0x3d3580d0	0.0443123
47	0x3c814dd2	0.015784178
48	0xbc5d515b	-0.013508166
49	0x3c733ea8	0.014846481
50	0xbb9a2754	-0.0047043953
51	0xbd927e37	-0.0715298
52	0x3dcca473	0.09992304
53	0xbd0e82a2	-0.03479255
54	0x3d5b9961	0.05361307
55	0x3d5916a5	0.05300011
56	0x3d6a5e91	0.05721909
57	0x3db531ab	0.08847364
58	0xbdef3864	-0.116806775
59	0xbd8c7328	-0.06857902
60	0xbd6e26d8	-0.058142513
61	0x3db19d30	0.08672559
62	0x3d2e67cc	0.042579457
63	0x3d019042	0.031631716
64	0x3d4ca074	0.049957708
65	0x3d55f266	0.052233122
66	0xbdeadb6c	-0.11467633
67	0x3d3861ea	0.045015253
68	0xbc81a97d	-0.015827889
69	0xbd845704	-0.064619094
70	0x3d33c498	0.04388866
71	0x3da3fa20	0.08006692
72	0xbdf600a3	-0.1201184
73	0xbcd96d81	-0.026541473
74	0x3dcce177	0.100039415
75	0xbc0d1e72	-0.008613216
76	0x3ce3ce54	0.027808346
77	0x3d30fdd7	0.04321083
78	0x3d644c9a	0.055737115
79	0x3bedfc53	0.0072627454
80	0x3c99fb02	0.018796448
81	0xbd873180	-0.06601238
82	0xbacf1232	-0.0015798269
83	0xbcfc46d0	-0.030795485
84	0x3cbfb0a0	0.023399651
85	0xbdbd35d6	-0.09238784
86	0x3d6a5fd7	0.057220306
87	0xbd150557	-0.036382046
88	0xbcb5fee6	-0.022216272
89	0x3d76d5cd	0.06026249
90	0xbd6d8515	-0.057988245
91	0x3da8f206	0.08249287
92	0x3d772b66	0.060344122
93	0xbdbf4a67	-0.09340363
94	0x3e79d282	0.24396709
95	0xbd47a31e	-0.048739545
96	0xbc53a530	-0.012917802
97	0x3d88670e	0.06660281
98	0xbd81441b	-0.06311818
99	0x3d8510c2	0.06497337
100	0x3dd88b20	0.10573411
101	0xbc8b1bd6	-0.016981047
102	0x3db6c7f2	0.08924855
103	0x3dd8784b	0.10569819
104	0x3de574fe	0.11203955
105	0x3df827eb	0.12116989
106	0xbcde7343	-0.02715457
107	0x3bb697ab	0.0055722794
108	0xbd7101de	-0.05883967
109	0xbb0758a8	-0.0020652208
110	0x3d273605	0.040823
111	0xbdcd09ba	-0.10011621
112	0x3c4204dd	0.01184198
113	0xbce1301f	-0.027488766
114	0x3c985d3c	0.018599145
115	0xbe0a8e72	-0.13530901
116	0xbd97da38	-0.07414669
117	0x3dad09c7	0.084491305
118	0x3c67495a	0.0141166095
119	0x3d744278	0.059633702
120	0xbdcdd4a2	-0.10050322
121	0xbd34e69a	-0.04416523
122	0xbdf2879f	-0.11842274
123	0x3dc87683	0.09788229
124	0x3dee83f6	0.11646263
125	0x3d020c94	0.031750277
126	0x3dabd0d1	0.08389438
127	0x3dbbbd88	0.091670096
128	0x3c9e1d9e	0.019301232
129	0x3c41745b	0.011807526
130	0x3b1e7e70	0.002418425
131	0x3d953863	0.072861455
132	0x3d88a183	0.06671431
133	0x3c5ebab6	0.01359432
134	0xbd058ee3	-0.03260697
135	0x3d3446db	0.044012886
136	0x3c5ac4aa	0.013352552
137	0xbc26272e	-0.010141177
138	0x3cb259fd	0.021771425
139	0xbd20e2a4	-0.03927864
140	0xbd91d7d7	-0.07121246
141	0x3c3619c6	0.011114543
142	0x3a71aa4b	0.0009218796
143	0xbdbec8b5	-0.093156256
144	0xbbd5626c	-0.006511977
145	0x3d40a132	0.047028728
146	0x3d1e0580	0.038579464
147	0xbd32473f	-0.043524977
148	0xbced0fe0	-0.028938234
149	0xbda89857	-0.082321815
150	0xbd8076f9	-0.06272692
151	0xbd61eabc	-0.0551555
152	0x3da3f630	0.08005941
153	0x3cb0faa6	0.021603893
154	0x3bc488cd	0.0059977532
155	0x3d106a1a	0.035257436
156	0xbc748f01	-0.014926673
157	0xbb8a856f	-0.0042273323
158	0xbd0d928b	-0.034563582
159	0x3e1bc3d0	0.15211415
160	0xbd85efa8	-0.065398514
161	0x3d6b5853	0.05745728
162	0x3cc0f99b	0.023556521
163	0x3da6573d	0.08122108
164	0x3d8f6066	0.070008084
165	0xbaaa3457	-0.0012985569
166	0xbdd601c9	-0.10449559
167	0x3d9519d8	0.0728032
168	0xbc40431e	-0.011734752
169	0x3d3014d6	0.04298862
170	0xbb1a9273	-0.0023585826
171	0x3d5b6036	0.05355855
172	0xbca54d26	-0.020178389
173	0x3cad5869	0.021160321
174	0xbb95fcbc	-0.0045772474
175	0xbac27f40	-0.0014838949
176	0xbc98a1aa	-0.018631775
177	0xbcdddd97	-0.027083201
178	0xbdab0b68	-0.08351785
179	0x3ca3f879	0.020015942
180	0xbe383aee	-0.1799123
181	0x3cc19ca3	0.02363426
182	0xbc81e80e	-0.015857723
183	0x3d233696	0.03984698
184	0xbd35614a	-0.044282235
185	0xbd6b5bc5	-0.057460565
186	0xbd88b509	-0.06675155
187	0x3db66622	0.08906199
188	0x3d5e7b6a	0.054316916
189	0xbd87c558	-0.06629437
190	0x3cfa0965	0.030522058
191	0xbda8be96	-0.082394764
192	0xbd9babeb	-0.0760115
193	0xbd3f7bd3	-0.046748947
194	0xbda38904	-0.07985118
195	0x3bd9185d	0.006625219
196	0x3b15b5a3	0.002284386
197	0xbc077c80	-0.008269429
198	0xbd9b6a59	-0.075886436
199	0x3de46656	0.111523315
200	0x3d96d4b3	0.07364788
201	0x3d025b88	0.031825572
202	0x3c24c78b	0.01005734
203	0xbda1e5a9	-0.07905132
204	0xbd4ead64	-0.050458327
205	0x3d03aff4	0.032150224
206	0xbdb9ac3a	-0.09066053
207	0xbd9af74e	-0.07566701
208	0xbd86beff	-0.06579398
209	0x3d93638a	0.0719672
210	0xbdb9cc62	-0.09072186
211	0x3cfd45b1	0.03091702
212	0xbda86b95	-0.08223645
213	0x3d30b66f	0.043142732
214	0xbdc2b8df	-0.095079176
215	0x3c9c141d	0.01905256
216	0xbd2260a0	-0.03964293
217	0xbb255701	-0.002522886
218	0x3c21052b	0.009827892
219	0xbce90bd9	-0.028448032
220	0xbd676d3c	-0.05650066
221	0xbd0aa059	-0.033844326
222	0xbe25936c	-0.16169518
223	0x3cdc8670	0.026919574
224	0xbd45bf29	-0.048278008
225	0x3da95d0a	0.08269699
226	0xbd99df95	-0.07513348
227	0x3d6b249f	0.05740797
228	0x3b899429	0.0041985703
229	0x3c272886	0.010202533
230	0x3bea875d	0.00715725
231	0x3dc78334	0.09741822
232	0xbdacae14	-0.0843164
233	0xbc475628	-0.012166537
234	0xbd88e0fa	-0.06683536
235	0x3d81718c	0.063204855
236	0xbd8bfe98	-0.06835669
237	0x3d449bf6	0.0480003
238	0x3d38df59	0.045134876
239	0xbdc34f4f	-0.09536611
240	0xbd2e6eb3	-0.04258604
241	0xbd36811c	-0.044556722
242	0xbbc1d82f	-0.0059156637
243	0x3c40f662	0.011777492
244	0xbd4ebee8	-0.05047503
245	0xbd24484a	-0.040108003
246	0x3d9db59c	0.07700655
247	0xbcd95796	-0.026531022
248	0x3d8943ce	0.06702386
249	0x3da86e77	0.082241945
250	0x3cbd34ae	0.023096409
251	0x3c9ba3e9	0.018999057
252	0xbd887337	-0.066626005
253	0x3d4ab0da	0.049485065
254	0xbd73e8f6	-0.05954834
255	0xbd864d73	-0.06557741

bias f4 [128]
0	0xbcb9bbf1	-0.022672625
1	0x3b1be060	0.002378486
2	0x3d315b35	0.043299872
3	0xbd5f4b9f	-0.054515477
4	0x3d40b907	0.047051456
5	0xbd68f02f	-0.056869682
6	0xbca249a0	-0.019810498
7	0x3d88a7b0	0.06672609
8	0xbcb022dc	-0.021500997
9	0x3d271f25	0.040801186
10	0xbd87607d	-0.066102006
11	0x3d2ef671	0.042715494
12	0xbbff17e0	-0.0077848285
13	0xbd32b5ef	-0.043630537
14	0xbd99f211	-0.07516874
15	0xbda8d12d	-0.08243022
16	0xbd45a1f7	-0.048250165
17	0xbda83b7b	-0.0821447
18	0xbd9d3b1c	-0.0767729
19	0x3d9ea157	0.07745617
20	0xbc920a64	-0.01782722
21	0xbd868b9e	-0.065695986
22	0x3caea10f	0.021317033
23	0xbbf078be	-0.0073386123
24	0xbcd6ee1d	-0.026236588
25	0xbdca869b	-0.09888955
26	0x3c3e8040	0.011627257
27	0xbda6a939	-0.081377454
28	0xbd32b3eb	-0.043628614
29	0x3d6bf520	0.057606816
30	0xbd24b6a0	-0.040213227
31	0xbda293b8	-0.07938331
32	0x3db35cdd	0.08757947
33	0xbd691083	-0.056900512
34	0x3cf3219d	0.029679114
35	0xbd95ca2e	-0.07313953
36	0x3da9b740	0.08286905
37	0x3d596bb2	0.053081222
38	0x3da28a1b	0.07936498
39	0xbd408291	-0.046999518
40	0x3d90362c	0.070415825
41	0xbcad6430	-0.021165937
42	0xbbdd8ed5	-0.0067614117
43	0xbc860bc7	-0.016363038
44	0xbd84df00	-0.064878464
45	0xbd7c86d3	-0.061652016
46	0x3cfec6df	0.031100689
47	0x3cc77557	0.024347944
48	0x3d4a23a0	0.04935038
49	0xbd0c88de	-0.034310214
50	0xbdb15231	-0.08658255
51	0xbdca810e	-0.098878965
52	0xbc5c2ac0	-0.013437927
53	0x3d534c4d	0.051586438
54	0x3d65e175	0.056123216
55	0xbcca488e	-0.0246928
56	0x3cd49a39	0.025952445
57	0x3d42bd4c	0.04754381
58	0x3d8fd265	0.070225514
59	0xbd5148ee	-0.05109494
60	0xbd96a149	-0.073549815
61	0xbd918d11	-0.071069844
62	0xbb09f84f	-0.0021052544
63	0xbd171df3	-0.036893796
64	0x3c072f1a	0.008250976
65	0x3cf85e9e	0.030318554
66	0x3d98ff78	0.07470602
67	0x3d8709b9	0.06593651
68	0xbdaf3603	-0.08555224
69	0xbda38c4f	-0.07985746
70	0x3ac13b44	0.0014742394
71	0xbadc7cbc	-0.0016821842
72	0x3d839322	0.06424548
73	0xbd82052d	-0.063486435
74	0x3daa9b02	0.08330347
75	0xbce4c417	-0.027925534
76	0x3d476fdf	0.048690673
77	0xbd8f6933	-0.07002487
78	0xbdb10eeb	-0.086454235
79	0x3c986910	0.018604785
80	0xbd911200	-0.07083511
81	0xbc63fca2	-0.013915213
82	0x3bbce810	0.0057649687
83	0x3d11a8d1	0.035561386
84	0xbd3fa9df	-0.04679286
85	0xbd4b3cc3	-0.049618494
86	0xbd3e1f9b	-0.04641686
87	0x3c92eb5d	0.017934496
88	0x3b88b13d	0.004171519
89	0xbdb561f5	-0.088565744
90	0xbcf72b60	-0.03017205
91	0x3d662896	0.05619105
92	0x3cd13244	0.025536664
93	0xbb06a0c6	-0.0020542606
94	0x3cb9c988	0.022679105
95	0xbcc61563	-0.02418012
96	0xbd7039b7	-0.05864879
97	0xbcfb4e78	-0.030677065
98	0x3ca1379d	0.019679839
99	0xbc872e73	-0.01650164
100	0x3d9e238c	0.07721624
101	0x3d620d75	0.055188615
102	0x3d343464	0.043995276
103	0xbd080042	-0.03320337
104	0x3b9934b5	0.0046754726
105	0xbdca35b1	-0.09873522
106	0xbd758b4a	-0.05994729
107	0x3b877619	0.0041339514
108	0x3c066a5e	0.008204071
109	0xbd07fc0f	-0.033199366
110	0xbd4e7440	-0.050403833
111	0xbd452cc4	-0.048138395
112	0xbdee4470	-0.11634147
113	0xbb9eaab1	-0.0048421253
114	0xbdc34ce6	-0.095361516
115	0xbc8bee9b	-0.01708155
116	0xbca12e1d	-0.019675309
117	0xbdd70a2b	-0.10499986
118	0x3d0c2497	0.034214582
119	0x3d9e1135	0.07718126
120	0x3dd2762a	0.10276444
121	0x3dce9423	0.100868486
122	0xbddb4cfc	-0.10708043
123	0x3d9b6bb2	0.075889006
124	0xbb9a69a1	-0.004712299
125	0x3d8980bc	0.06714007
126	0xbdbd646f	-0.09247672
127	0x3b8eecb5	0.004361714
