pinn_burgers2.pt (torch, 19239 bytes, 17 tensors)

weight f4 [20, 2]
00000000: c8b2 163d 2cf0 8d3e 6711 483f b7dc 20be
00000010: 78f1 e03e 88bb aa3e 627d c93d 6883 bf3e
00000020: df0b b33e 3c60 0a3e 78c9 2ebe d44d af3d
00000030: 29ad 033f 5d93 c83d de2d 1dbf fe9d c73e
00000040: 6945 d63e be44 44bf f368 16bf 9736 0abe
00000050: f681 d03e 82f8 18bf c5e7 dcbd 02eb bc3e
00000060: 7ce5 32be 3ce6 c13e fb6f 0ebf ce05 083f
00000070: a483 933e 8cbc e2bd 818e 1ebf ad07 2ebe
00000080: 2496 01bf 8d9f 2fbf d6f4 da3e ad7f 33bf
00000090: f30f 1d3f ecb2 a3bd 68a1 b5be 53ed 91be
0.036791593 0.277223 0.78151554 -0.15709196 0.43934226 0.333462 0.09838368 0.37404943
0.34969994 0.13513273 -0.17069042 0.085597664 0.51436096 0.09793732 -0.6139811 0.38987726
0.4184983 -0.7666739 -0.5875389 -0.13497387 0.40724152 -0.5975419 -0.10786394 0.36898047
-0.17470354 0.37870967 -0.5563962 0.5313386 0.2881137 -0.11071119 -0.61936194 -0.16995116
-0.5061972 -0.6860283 0.4276492 -0.7011669 0.6135246 -0.07993111 -0.35474706 -0.28501377

bias f4 [20]
00000000: 5bf1 a8be 2cbd 2c3f cc4e 23bf adc9 35bf
00000010: 3b20 133e 02d6 21be e7c9 5bbf 0b5f 8bbe
00000020: 9dff b2bd adde ddbd f3ae eabd 24b2 163f
00000030: c813 4d3e a561 9b3e f1b7 943d 16e5 5bbe
00000040: 0524 6e3c 7b00 7f3d 59f6 453f 123c 493f
-0.3299664 0.67476153 -0.6379211 -0.7101086 0.14367764 -0.15804294 -0.85854954 -0.2722095
-0.087401606 -0.10833488 -0.1145915 0.5886557 0.20027077 0.30347934 0.072616465 -0.21474108
0.014534955 0.062256318 0.7732902 0.78607285

weight f4 [20, 20]
00000000: 47ab 113e 62d3 023e 9f46 4e3e 943b 99be
00000010: 1d4c 333e f4d5 cdbd 14ce a43d abde 47bc
00000020: ce38 cebd 47c2 0fbc a182 0e3e cc43 7e3e
00000030: 213c 2c3e 88be a8bd 76e2 94bd 3c2d 56bc
00000040: 13d7 2a3c dec9 21be 2d32 1ebe 95a7 87bc
00000050: 4be7 8e3e a780 e33d 3f01 c7bd 1eee 423e
00000060: ae77 6b3d e015 3abd b0e8 fb3d 6f7e a0bd
00000070: 045d 983d 021f 5a3e 3d57 d5bd 1807 10bd
00000080: 4b0b 27be c56b 40be 6cb4 23be ace2 c53d
00000090: 3fa4 d23d e42a dc3d 219d 90bd 6e19 063d
000000a0: 6d47 503e 7b51 44bd 6e4e 09be 2808 e83c
000000b0: 1ea3 b2bd 5ca6 ec3d ffda 2fbe 7508 5fbe
000000c0: 880c 7b3d be9d 29be 3842 39bc 8dc6 50be
000000d0: eae8 493c c6ad 933d 2828 1c3e 3875 49bd
000000e0: 61aa 5d3d fbc1 0fbe a67f e73c 228e 543e
000000f0: 3fc1 c7bc 3599 f1bd 5a27 543e d169 123e
00000100: 7e86 d53d b85f bd3d db2b 9d3e 1eb2 803c
00000110: 7538 a53e 4f8f 20be 1de5 143e 667d 923d
00000120: aee4 7ebe 7dde 81be ea7e 4a3e 4f49 36be
00000130: 1098 39bd f187 5b3e 9ac1 4cbd 0bd5 99be
00000140: 80aa db3d 0ebd 19bd 1de9 c03d 765f 323b
00000150: ee9f 02be 8212 f7bd 79d8 323e d7af 51be
00000160: 6593 e9bd 241b 223e 1d51 f43d b8f9 afbd
00000170: 0a3a ecbc 21a8 653e aea2 0e3e 662c 35be
00000180: d020 6d3d 5cc4 05be bc9c efbd e106 90be
00000190: 552b a33c f503 3ebe 3caa 35bd cd58 91be
000001a0: 1d09 d9bd 0e32 7c3d 796c d8bd f299 553e
000001b0: 734c 023e 85fd 313e 5bb5 823d c54e 703e
000001c0: dcac a73e 6981 e2bd 6387 3a3e 5979 3bbe
000001d0: 47f3 04be f7a9 3ebe f262 0e3d cb3e 99bd
000001e0: 1f90 70bd 208f e739 6282 21be d5af 6c3e
000001f0: a729 0e3e 46c7 613c 61f5 ae3d 6023 2a3e
00000200: 41ae 89bd 3354 38bd 0b2f ed3d dd5b cbbd
00000210: d758 943d 93cc 4bbd f773 683d 39b1 70be
00000220: d5d8 83bd d817 7abe 8416 21bc 5a82 843e
00000230: 0071 843d 3e2e f23d ed45 28be 1f6e 9abe
00000240: ed4e 50bd 7711 653e 1f89 683e 6d19 1e3e
00000250: 45b8 1c3e 5d45 7a3d 658a 833d 62b9 203e
00000260: f888 a23e c4ef dcbd db6d 09bd 2ae3 13be
00000270: c18b 493d ecaf 2fbe bf2e 943e 8a93 933d
00000280: c194 78be 1589 98bd 4cee 2c3e 9565 09be
00000290: 17a9 2abe 0c60 0e3d d631 36be b1a8 0a3d
000002a0: 409d 8a3d 7ed3 b9bd 2cc1 9f3c 0329 053e
000002b0: 167e b1bd fd5a d03d 1200 353e a11b 0e3c
000002c0: 49d1 213e 0cdf 643e 1804 9bbd 8ec3 88be
000002d0: c6d7 1b3e c7cb c4ba fbb9 073d d42b edbd
000002e0: af09 8cb9 5cc4 0fbe 509f 8d3d 8e19 0bbe
000002f0: 6813 07be ceb9 babd 650c 183e 063f e0bd
00000300: a40d 063e 5753 0cbe dc1d 1ebd 8ce9 02be
00000310: 0a6c 26be b9f8 6cbe 70b9 5cbc e2ca 2d3d
00000320: b0df 323e 2b91 b4bd 047e a33d e763 873e
00000330: d341 e63b 73b5 46be dcc7 a03d c60d 49be
00000340: 74aa 3ebe 8981 1fbe 697a 74be 96f1 2fbe
00000350: 4a16 3dbc c3e9 253e 81a6 843c 2487 31be
00000360: 3110 153e 4b70 c23d 8b3b bf3d 1862 2b3e
00000370: 9871 e93c a67d 47be 5ea7 5e3d c0f9 d73c
00000380: ba1a 983d 3067 e1bd 39c2 b13d 0535 4bbe
00000390: ba65 c03d 9deb 393e 9d45 c3bc 8cd0 f43d
000003a0: b9d4 ebbd cabb f23c 3788 663e 4314 693e
000003b0: 3d79 85bd b926 22be fd55 70bd 535d 96be
000003c0: dc7c 5f3e 82a4 09be e6a4 33be a877 223e
000003d0: ce21 153e a94b 733d d203 003e 5727 953d
000003e0: caf0 73bc b082 8cbe 906c 04bd ae29 f5bd
000003f0: 21b1 a1bd d65a 763c 92d3 3cbe 2b8e b13b
0.14225493 0.12775949 0.20144127 -0.29928267 0.17509504 -0.10050574 0.08047119 -0.012199084
-0.100694284 -0.008774347 0.13917018 0.2483055 0.16819812 -0.08239466 -0.072697565 -0.013072308
0.010427254 -0.15799662 -0.15448828 -0.016559402 0.27910838 0.11108523 -0.097170345 0.19036147
0.057487182 -0.045431018 0.12300241 -0.07836615 0.07439616 0.21300891 -0.1041703 -0.035163015
-0.16312902 -0.18791111 -0.15986794 0.09662375 0.10285234 0.10750368 -0.0706122 0.032739095
0.20339747 -0.04792927 -0.13408825 0.028324202 -0.087225184 0.11555168 -0.17173384 -0.2178057
0.061291248 -0.1656408 -0.011307292 -0.20388241 0.012323597 0.07210879 0.15249693 -0.049184054
0.054117564 -0.14038841 0.02825911 0.20757344 -0.02438414 -0.117968 0.20718136 0.14298178
0.10426043 0.092467725 0.30697522 0.015709933 0.32269636 -0.15679668 0.14540525 0.07152824
-0.24891922 -0.25365058 0.19774976 -0.17801403 -0.045311034 0.21438576 -0.04998932 -0.3004535
0.1072588 -0.037533812 0.09419463 0.0027217544 -0.12756321 -0.12064077 0.1746539 -0.20477234
-0.114050664 0.15830666 0.11929534 -0.08592552 -0.028836269 0.22427417 0.13929245 -0.17692718
0.05789262 -0.13063186 -0.116998166 -0.28130248 0.019918123 -0.18556197 -0.0443518 -0.28388062
-0.10597441 0.061571173 -0.105675645 0.20859507 0.12724476 0.17381866 0.06382247 0.23467548
0.3274907 -0.11059839 0.18215708 -0.18308009 -0.12983428 -0.18619524 0.03476233 -0.0748268
-0.058731195 0.0004416639 -0.15772393 0.2311395 0.13883077 0.013780421 0.08542896 0.16615057
-0.067226894 -0.045002174 0.11581238 -0.09929631 0.07243507 -0.049755644 0.056751218 -0.23505105
-0.06437842 -0.24423158 -0.009832028 0.258807 0.064668655 0.11825226 -0.16432925 -0.3016214
-0.05085652 0.22369944 0.22708558 0.15439387 0.15304668 0.061101306 0.06422881 0.15695718
0.31745124 -0.10787919 -0.033552032 -0.14442125 0.049205545 -0.17156953 0.28941914 0.07205875
-0.24275495 -0.07448021 0.16887778 -0.13417657 -0.16666065 0.034759566 -0.17792448 0.033852283
0.06768274 -0.09073542 0.019501291 0.13003926 -0.08666627 0.10173605 0.17675808 0.008673579
0.15802492 0.2235071 -0.0756914 -0.26711696 0.1521903 -0.0015014344 0.03313635 -0.11580625
-0.00026710096 -0.14039749 0.06915152 -0.13583967 -0.13190997 -0.09117471 0.14848478 -0.10949521
0.13091141 -0.13703667 -0.038602695 -0.12784404 -0.16252151 -0.23141755 -0.013471946 0.042429812
0.17468143 -0.08816751 0.0798302 0.26443407 0.00702689 -0.19405155 0.0785062 -0.1963416
-0.1861971 -0.15576757 -0.23874821 -0.17182001 -0.011540959 0.16202454 0.016192676 -0.17336708
0.14556958 0.094940744 0.09337529 0.16736639 0.028496549 -0.19481525 0.054358833 0.026364207
0.07426973 -0.110060096 0.08679623 -0.19844444 0.09394403 0.18156286 -0.023836905 0.1195384
-0.11515183 0.02963056 0.225129 0.22761635 -0.06517265 -0.15835084 -0.058675755 -0.29368076
0.21824974 -0.13441661 -0.17543373 0.15865958 0.14563677 0.059398327 0.12501457 0.07282894
-0.014888952 -0.27443457 -0.032330096 -0.119708404 -0.07895113 0.015036305 -0.18440083 0.005418559

bias f4 [20]
00000000: cb22 81be 59e0 093c d5da 553e a3c8 31bd
00000010: 8c15 423d 2612 8d3e 862a 463e d6fd 613e
00000020: b761 d0bc 9800 59bd 770e debc 6c5c 2e3d
00000030: df33 06bd 2e24 273e e994 923e dd62 e33d
00000040: 5568 9a3d 86e2 c4bd ef18 7e3e 5cc5 4a3b
-0.25221857 0.008415305 0.20884259 -0.043404233 0.04738383 0.2755291 0.19352159 0.22069487
-0.025437219 -0.052979082 -0.027106507 0.04256861 -0.032764312 0.16322395 0.28629234 0.11102841
0.07539431 -0.096135184 0.24814199 0.003094039

weight f4 [20, 20]
00000000: bb61 c53d 5aec 72be 2860 86be 7071 023d
00000010: 9cb3 8a3d 80a7 953d a048 98be 11da 0a3e
00000020: 4e69 023e adaf 52be ccee 36bd e3e1 53bc
00000030: 5812 28bd cb7a a5bd f26c 143d 7e02 b9bc
00000040: 256c 1f3e c0b3 c13d ccb5 ae3d 7069 563e
00000050: 65e0 883d 2ea0 b5bd 3ba5 27be 2177 bc3d
00000060: ea64 ddbd 4acb b2be af63 b53d 92e9 3abe
00000070: 7529 bfbd 8643 183e 791f 573d 05bd 913d
00000080: 5a92 a93d f6da 043e bd79 5c3d b7fd 2dbe
00000090: 90a4 72bc 98b0 3ebe 5fb6 193e 8567 113d
000000a0: ba1a 82be 6149 10bd 2d69 6e3e afee 0f3e
000000b0: e25a 83bc 7266 0ebe 60c9 453e b498 2a3e
000000c0: 546b 3a3c 6661 13ba 62d7 b93c 4a33 bf3d
000000d0: f4cf 2e3e 9b46 e0bd ecf6 d53d 12e9 133e
000000e0: 184c 2b3e 0ac5 43bd a9ae d53c 6f71 003c
000000f0: d15f 4e3e 10de 4f3d 2184 d73d c6a1 273d
00000100: e05d 693e 9c8e e13d 2113 eabc 8ffd 6bbe
00000110: b956 cebd 3dcd 483d 104a a0be e699 023d
00000120: 5178 8bbe bb24 aebe da1e e0bc ea0c a6bd
00000130: c3fe 64be 767e 5c3d 0f1c 7fbe bdeb 03bd
00000140: 027b 7ebd dbbb ff3d 94af d7ba 2e48 2bbe
00000150: 40b7 4e3e 4ef4 f13d fbee 0ebe 113e d23c
00000160: f411 3d3e 34e7 273d fffd 0dbe ba67 4a3e
00000170: 3e6f 71be 799d 7cbe a41a 30be 5806 f33d
00000180: f700 b83c e8a2 25be 9858 f3bd 83cc d7bc
00000190: 68b7 13bd fa65 36be 083c f23d 6307 fb3d
000001a0: b310 323e 370a 393e ae63 da3e bfeb 35bc
000001b0: 9139 27be d790 433e 850a eb3d 8e89 e0bd
000001c0: cc56 8b3e 9891 8f3d 555a 6ebd 1abe eb3e
000001d0: ca0c 0a3e 15c4 dabc 6511 d1bc 4ce7 eabd
000001e0: fa65 64be 2028 35be af9c 05be c14a a5bd
000001f0: dc73 13bb 5575 d6bd 2047 073e bf12 65bd
00000200: 1ee9 a2be 536e 30be 02d7 8a3e 9050 21be
00000210: 5d8d 753e 6f51 813e b8ab e6bd df3a 593e
00000220: eb62 05be e2c8 d6bc 5b7d 153e b67b adbd
00000230: c257 acbd deef 82bd e0ae 41bd e114 8fbd
00000240: 39b3 6e3e 1e76 a8bd d400 b63b ef70 aa3d
00000250: 428b 0f3e 983e a73c 9f19 5a3d 9af5 e93d
00000260: 9346 2f3d 8e69 8cbd 1991 cc3d b424 aa3d
00000270: 4d0c 7dbe dc3e 10be 7867 4cbe a789 a03d
00000280: ee08 0fbe 95c1 bf3c fb82 563e ed00 893d
00000290: f4b7 443d 2666 2dbe f108 ca3d fdc6 95be
000002a0: fc08 f7bc 2ee5 5e3e ce29 c63d d336 c8bb
000002b0: d694 8c3e a94e bc3c ef19 8bbd ada2 a3bd
000002c0: 39e2 18be aa23 073e e8e5 39bc a4c0 2ebd
000002d0: 50b9 6fbd 2510 d0bd 0525 063e 5006 a03c
000002e0: 0586 943d 1a25 9ebe 16f8 37bd 2dfa 843d
000002f0: 4c15 43be c653 1ebe dac8 763e 1cc8 83be
00000300: 8c22 573e 9080 2bbc 48ce 3abc ffd0 27bd
00000310: 332a e63d 98c7 65be 29ba bd3d 77ea 9cbd
00000320: 8fc6 a2be eafe 2d3e 1b14 7bbd 11e7 913d
00000330: 1e75 26be c9d7 6bbe e282 68be d9d9 e4bd
00000340: 7a48 1f3e 984e b1bd d125 c73d 9f63 373e
00000350: 8477 b43c ec31 ffbd 4c60 5fbd 73c7 903d
00000360: 0bc3 8fbd b272 893e 376e 62be 643f bb3d
00000370: 5eea ff3d f042 d63d 2e26 803e dc5a 0fbe
00000380: 3bf1 583d 1469 713e c031 833e 12d1 3d3e
00000390: ba67 95be 7d82 15bc 8663 ad3e 962c 48be
000003a0: b47e 5f3e 25d1 f33d 5006 813d 12ac 5f3d
000003b0: fc59 06be dbdc 8cbe 3873 573d 73a0 6bbe
000003c0: 492c 0d3e f8e7 84be 60f5 88bc a856 2cbe
000003d0: f7a9 11be 955e 3b3e 9f89 203e d0e2 d63d
000003e0: d603 953d b8c5 e13c 267c 543d a300 de3c
000003f0: 2dba bfbd e1b2 c1bd f865 943d 105b f8bd
0.09637781 -0.23722973 -0.26245236 0.031846464 0.06772539 0.07307339 -0.29742908 0.13559748
0.12735483 -0.20574827 -0.04466133 -0.012932274 -0.04103312 -0.080800615 0.03623671 -0.022584196
0.15568598 0.09458113 0.08530769 0.20938659 0.06683425 -0.088684425 -0.16371624 0.092024095
-0.108102635 -0.34920722 0.08856904 -0.18253163 -0.09334079 0.14869508 0.05252025 0.07116131
0.082798675 0.12974152 0.053827036 -0.16991316 -0.014809743 -0.18622053 0.15010975 0.035499115
-0.25411016 -0.03522623 0.23282309 0.14055894 -0.016034547 -0.13906267 0.193151 0.16659814
0.011378128 -0.00056221185 0.02268571 0.093359545 0.17071515 -0.10950967 0.10447487 0.14444378
0.16728246 -0.047795333 0.026084261 0.007839545 0.20153739 0.050748885 0.105232485 0.040925764
0.22789717 0.11013529 -0.028573574 -0.23045944 -0.10075135 0.049023855 -0.31306505 0.03188505
-0.27240232 -0.34012398 -0.027358461 -0.08107932 -0.22362809 0.05383154 -0.24913047 -0.03220724
-0.06212903 0.124870025 -0.0016455525 -0.16726753 0.20187092 0.118141755 -0.13958351 0.025664361
0.1846388 0.040991977 -0.13866423 0.19766131 -0.23577592 -0.24669446 -0.17197663 0.11866444
0.022461398 -0.16175425 -0.11882132 -0.026342636 -0.03606358 -0.17812338 0.11827856 0.12257268
0.17389183 0.18070303 0.42654175 -0.0111035695 -0.16330554 0.19098221 0.11476616 -0.109637365
0.27214658 0.07010192 -0.058191616 0.46043473 0.13481441 -0.026704827 -0.02552099 -0.11469898
-0.22304526 -0.17691088 -0.13048051 -0.08070899 -0.0022499477 -0.10471598 0.13210726 -0.05592608
-0.3181848 -0.17229585 0.27117163 -0.15753388 0.23979707 0.2525744 -0.112632215 0.21213864
-0.13026015 -0.026218835 0.145986 -0.084708616 -0.08415176 -0.06393407 -0.047285914 -0.06986404
0.23310556 -0.08225654 0.005554298 0.083223216 0.14017966 0.02041559 0.05324709 0.11423798
0.042791914 -0.068560705 0.09988613 0.08307782 -0.24711724 -0.14086479 -0.19961345 0.07838755
-0.1396825 0.023407737 0.20948403 0.0668963 0.048026994 -0.16933498 0.09864987 -0.2925338
-0.030155651 0.21767113 0.09675942 -0.006110051 0.27457303 0.022986727 -0.06792056 -0.07990012
-0.14930047 0.13197199 -0.011346318 -0.042664185 -0.058526337 -0.10159329 0.1310006 0.01953426
0.07252125 -0.3088768 -0.044914328 0.0649303 -0.19051093 -0.15461645 0.24100056 -0.2573861
0.21009272 -0.010467663 -0.01140172 -0.0409708 0.112385176 -0.2243942 0.09264023 -0.07661908
-0.31792113 0.16991773 -0.06129847 0.071241505 -0.16255614 -0.23031534 -0.22706178 -0.11174364
0.15554991 -0.08657569 0.0972401 0.17909096 0.022029646 -0.12460694 -0.054535195 0.07069292
-0.07019623 0.26845318 -0.22112356 0.0914295 0.12495874 0.10461986 0.2502913 -0.13999504
0.05296443 0.2357524 0.25623894 0.18536785 -0.291807 -0.009125349 0.33864993 -0.19548258
0.21825677 0.119051255 0.06300032 0.05460746 -0.13120264 -0.2751225 0.052600116 -0.23010425
0.13786425 -0.25958228 -0.016718566 -0.16829932 -0.14224993 0.18297799 0.15677498 0.1049248
0.07276122 0.0275601 0.05187621 0.027099913 -0.09361682 -0.094579466 0.072460115 -0.12126744

bias f4 [20]
00000000: 4322 78bc 0f84 abbd 88bc 09be 0f45 ecbc
00000010: b084 4bbe ebdf 003d 2f56 8b3e c8eb 2b3e
00000020: 3859 5c3d 7100 ad3c 83e2 1abe 7dfd 8e3e
00000030: dd48 f4bd 6f74 053e 64c5 35be f7a8 97bd
00000040: da8e 19bd ecbb 4ebe cee9 a23d 84ba 5d3d
-0.015144887 -0.083747976 -0.13450825 -0.028841523 -0.19874835 0.031463545 0.2721419 0.16789162
0.053796023 0.021118375 -0.1512547 0.2792777 -0.1192796 0.13032697 -0.1775108 -0.07405274
-0.03748975 -0.20188874 0.07954751 0.054132953

weight f4 [20, 20]
00000000: fa8f 123e f7fb 21bd 99fe 223d ba36 883e
00000010: 0639 a33e 792a 98be 3bf7 c9bd b204 2e3e
00000020: 3795 2f3d 0dbc b1be 3f38 a33d 887f 32bd
00000030: 83f6 ffbd 8dd4 54be de4d a93d 43df 863d
00000040: 948d e33d fbf2 44be 0cc7 33bc 2c9b a63e
00000050: a4e4 673d aece 9ebd f9b4 a8bd ca5e 82bd
00000060: a8e6 19be 78ba 683c 90b1 313d d16c 22be
00000070: ffab 8bbd 5bdf 363e 7f0c 893d cb34 19bd
00000080: cc60 e2bd e7e0 30be 2092 2e3e a029 dfbd
00000090: 9439 f73d 5cd5 c63e cf64 ae3d 8b15 15be
000000a0: 45b9 bebd 889d 773e 4d32 1bbd 6286 9ebd
000000b0: 83d4 41be aaed 02bd 38d3 633e 1b64 e33d
000000c0: dc1d 843b bb19 2b3d aa68 cf3d 0df8 23be
000000d0: ff8a 5a3d d941 63bc 1514 983e 6e1a 283e
000000e0: 0a17 973d ed53 a63e 55e6 643e d4c4 8abe
000000f0: 91cc 853e 57a7 6fbe c6a9 49bd 0e1a b1bd
00000100: 60f8 11ba 72a1 753e 8ad5 5fbd 4cc4 bb3d
00000110: 501f 08be bdba a8bd 1ea3 e7bd 6f81 153d
00000120: a04a 8fbd c82f 043e a42d e5bd ff74 a2be
00000130: c578 cb3c 520a a2bc f1f3 e8bd 9d53 7a3e
00000140: 4d97 a2be 56ef 753d acb5 f73d e861 583e
00000150: 4592 71be dd0f 83be 30d1 b1bd 5ad7 f33d
00000160: 22d0 efbd e764 5d3e 0d3f 553e b0d3 1bbe
00000170: 4a65 63be ac43 89be 975a ab3e f384 773e
00000180: fad6 193d 98ef 043d 572d ae3e b562 19be
00000190: f568 1ebe fce8 bbbd a89c 5b3c e09d 1b3e
000001a0: 216f 6cbe e215 c43c 5af0 34bd 3ae6 28bd
000001b0: 7f1a 983e 0e76 90bd 5dbf f03d c8a1 de3c
000001c0: 7212 693d 3517 72be a30e 8e3e 603b 8b3e
000001d0: ec90 a03d 61f1 1e3d 9ab0 6b3d 5454 a43d
000001e0: 49d9 343e 0a8e 053e 5af2 43bd a773 9e3d
000001f0: a284 7d3e 7acb 33be 6fcd 38be e604 9ebd
00000200: b9da 24be cf1b 89be d9dd 9cbd 7178 4dbe
00000210: 7db8 4b3e 2b9d 5fbe 043a 84be 5289 33be
00000220: 31db 3a3e 9f49 39be 3594 13be 73bd 843e
00000230: 3d94 4dbe 9ac8 b53c ba38 c53d 94cd 5d3d
00000240: 4ddc 0abe 5239 c7bd f952 493e c573 f33d
00000250: 31a0 573d 2576 01be 9c38 693c cb0e 24be
00000260: 6bea d9bd e289 e83d 73e5 ab3e 1718 603e
00000270: fd4c 90bd 6fb6 a73e fde0 993e 2ce5 bb3a
00000280: 9f17 2fbe 2f77 5a3e ef7c 0b3e 2d31 93be
00000290: a2d3 94be 118d 7f3e 1d22 033e 738f 14be
000002a0: 0e82 743e 5d09 85bd 66a1 e23d f6b9 cf3d
000002b0: 903c a83c 69de 6e3d 769e 903e 71f5 c4bd
000002c0: 92f3 f5bd 60db 863e 6045 f8bd bb35 dbbd
000002d0: 70e0 133e a119 f3bd 1bf6 76be a6d7 763e
000002e0: ff78 923c 10c9 7fbe e876 9dbe 068b 693e
000002f0: 5e81 f13c 2e93 dcbd bdd8 353e e0f3 12be
00000300: 0faa eb3d bd4a a33c 1db1 babd d0b6 04be
00000310: e610 8a3e e8f6 16be 2fc8 14be 5da7 103e
00000320: 99ef 5d3e 08e2 4bbd 3ae5 4ebe d827 323e
00000330: 484d 003e 9226 aabe 2b84 59be 6476 4b3d
00000340: a295 96be 537f 97be 006a ad3d c2ba 24be
00000350: 5e6f 013e c1fd 4f3e 9423 80bd 5a00 203e
00000360: 7092 a13e 4caa ea3d ff70 7f3d f337 833e
00000370: bf93 b23d 01e4 ea3c aed9 bf3c f7b9 5f3e
00000380: 9a48 8b3e 2dc2 87bd cc21 f8bc 77c6 3a3e
00000390: cd48 02bf 1728 6dbe 9792 113e 8fbe e4bd
000003a0: d1f7 3abe 0793 e9bc 878b 1d3e 616f 6abd
000003b0: f49b 5b3e 2449 50be 02dd 5a3e 9a11 bebd
000003c0: f2b4 ddbd 9619 3a3e 3f3e b83d 5f43 08be
000003d0: 3f58 bebe 7cd5 463e 6d61 ee3b 9514 5abe
000003e0: b2da a43e 2eea 08bc e38b bbba 4272 a8bc
000003f0: a0a7 3dbe ce40 03be 7bdb f43d 3421 323e
0.14312735 -0.039546933 0.039793584 0.26604253 0.31879443 -0.29719904 -0.098616086 0.16993979
0.04286691 -0.34713784 0.079697125 -0.043578655 -0.1249819 -0.20784207 0.08266805 0.065855525
0.11110988 -0.19233315 -0.010972749 0.32540262 0.056614533 -0.07754265 -0.08237643 -0.06365736
-0.15029395 0.014204614 0.043382227 -0.15861823 -0.06819915 0.17858641 0.066918366 -0.037403863
-0.11053619 -0.17273293 0.1704793 -0.10896611 0.12071529 0.38834655 0.085153215 -0.14558999
-0.09312681 0.24181187 -0.037889767 -0.07740475 -0.18928723 -0.031964935 0.22248542 0.11103078
0.00403188 0.041772585 0.10127385 -0.16012593 0.053355213 -0.01387068 0.2970282 0.16416332
0.07377441 0.32485905 0.2235349 -0.27103293 0.26132634 -0.23403679 -0.049234174 -0.08647548
-0.0005568322 0.23987368 -0.054647006 0.091683 -0.13293195 -0.082387425 -0.11310409 0.03650039
-0.069966555 0.12908852 -0.11190346 -0.31729886 0.02483786 -0.019780312 -0.11374653 0.24445958
-0.31756058 0.0600427 0.12095198 0.21131098 -0.23590954 -0.2559804 -0.086824775 0.119063094
-0.1170962 0.21620522 0.20824833 -0.15217471 -0.22206607 -0.26809442 0.33467552 0.2417181
0.037558533 0.032455057 0.34018967 -0.1497906 -0.15469725 -0.091752976 0.013404049 0.15196943
-0.23089267 0.023936216 -0.04417453 -0.041235186 0.29707715 -0.07053767 0.1175525 0.027176753
0.056902356 -0.23641665 0.27745542 0.27193737 0.07840142 0.038804416 0.057541467 0.08023897
0.17661013 0.13042465 -0.047838546 0.07736903 0.24757627 -0.17558089 -0.18047117 -0.07715778
-0.16099061 -0.2677903 -0.076595016 -0.20065476 0.19894595 -0.21837299 -0.25825512 -0.17532852
0.18247677 -0.1809449 -0.14412005 0.25925788 -0.2007608 0.02219038 0.0962996 0.054151133
-0.135606 -0.0972773 0.19660558 0.11887316 0.052643005 -0.12642725 0.014234688 -0.16021268
-0.10640415 0.11354424 0.33573493 0.2188419 -0.07045934 0.32756373 0.30054465 0.0014335266
-0.17098854 0.21334527 0.13621877 -0.28748456 -0.29067713 0.24956156 0.12805982 -0.14507847
0.23877737 -0.064959265 0.110659406 0.10142891 0.020536691 0.058317576 0.28245896 -0.09617127
-0.12009348 0.26339245 -0.12122607 -0.10703608 0.14441085 -0.11870123 -0.2411732 0.24105701
0.017879961 -0.24979043 -0.3075478 0.2280694 0.029480632 -0.1077026 0.1775846 -0.14350843
0.115070455 0.019933099 -0.09115813 -0.12960362 0.26966017 -0.14742625 -0.14529489 0.14126344
0.2167343 -0.049776107 -0.2020463 0.17398012 0.1252948 -0.33232552 -0.21241824 0.049673453
-0.29411036 -0.29589328 0.084674835 -0.16086867 0.1264014 0.20311643 -0.06256786 0.15625134
0.31557035 0.11458263 0.06236362 0.25628623 0.087195866 0.028673174 0.023419227 0.21848284
0.27203828 -0.06628833 -0.030289553 0.18239771 -0.50892335 -0.23159824 0.14216076 -0.11169159
-0.18258597 -0.02851249 0.15385257 -0.057235125 0.2144621 -0.20340401 0.2137337 -0.09280701
-0.10825528 0.18173823 0.089962475 -0.1330695 -0.371767 0.19417375 0.0072747977 -0.21296914
0.321981 -0.008356614 -0.0014308657 -0.020562295 -0.18520975 -0.1281769 0.11955925 0.17395478

bias f4 [20]
00000000: 77ae 67be fadd b93d 8c03 0fbe bba8 7ebd
00000010: 3628 88be 3c62 16be 181f c5bd 795f a83d
00000020: c7e6 063e 5a83 23be 6c90 19be 35e9 d2bc
00000030: 8447 343e d971 473d caff bd3b 48fd 113e
00000040: e77a 8ebc 323a 1dbd 942d 2a3e 83b5 343e
-0.22625147 0.09075542 -0.13966197 -0.062172633 -0.2659318 -0.14685911 -0.09625071 0.08221335
0.13173972 -0.15968075 -0.14996499 -0.025745967 0.17605406 0.048692558 0.0057983147 0.14256775
-0.017392589 -0.038385577 0.16618949 0.17647366

weight f4 [20, 20]
00000000: 4abd 26be 6d13 aabd 162b c83c 4565 74be
00000010: 2b45 98bb a650 8c3e 0e75 7e3d 5573 8cbd
00000020: 6e91 6a3e e308 58bc 414c 7dbd 752e 073d
00000030: 5643 cfbd aab4 673d 52e2 b1bd 5610 e93d
00000040: 43da 9f3e a961 763d 7524 32be 7c25 133e
00000050: dcff 46bd 86f4 c0bd fc8d 8e3d 52b1 b3bd
00000060: 1d0e 04be 413d 063e 68d8 9cbd bb77 4cbd
00000070: ce8c cfbd 90db 86be 81da df3b 6709 26be
00000080: 4850 af3d 7427 55be 72bb 9cbe 4f7b 463e
00000090: 2977 5e3d 72df b8bd 075b 6abd a95e 6bbe
000000a0: 5dfe 103e ba5b 093e b45a efbd cbb6 3a3c
000000b0: 3a98 0c3e 74b0 de3c 5309 183e 15e9 e1bc
000000c0: b91d 83be 26ec ce3d f541 e03d 9780 173e
000000d0: b9a7 bfbd 77b8 423e e285 983b a55a 40be
000000e0: 0c27 3abd 7dc6 923e a365 913b d126 093d
000000f0: 5f53 20be 5953 d93d bfde 4a3c c39e 83be
00000100: e633 dabd 8ecb c3bd 75c8 86be 9c8b 7abc
00000110: 8cfe e63d 98b0 a53b 6c6a acbe f902 25be
00000120: 68a9 a13e acf8 70be 3f71 92be 47a2 343d
00000130: 3220 62bd ad9c 8dbe 7c7e bfbc a7e8 08bd
00000140: 460a 933e 606f f13d 2df8 133d 3ccb 833e
00000150: fc01 14be a476 30be 0da2 2b3d 1c0b 82be
00000160: 329f 823c ca5a b13d b8ab b03e a919 783e
00000170: 4da8 8fbe ce0d 8f3e 1c38 7b3e 89e4 2b3d
00000180: 7429 8f3d 6943 0f3e 0527 1dbe b954 883e
00000190: 5886 8dbe 384f 073d 3d4c 4abd 815f d8bd
000001a0: eea5 2f3e 0e16 b1bd 9084 8fbe ee8b 2f3e
000001b0: cf4a 4f3d fb5e 143e 310e 84be 068d 7abe
000001c0: eb60 233b 7651 c4bc 78d5 2cbc 2c02 56be
000001d0: 9c58 57be cc8d acbe 661a 4abd b0ba 96be
000001e0: 36ab f23d c22b 073e 8f90 a4bd 3a63 583d
000001f0: a5e2 1d3e 4cad f3bd 7c23 8cbd 75a9 ad3e
00000200: 9da9 d7bd fc23 24be d214 2ebe 9844 c73d
00000210: 8e6b ebbc 3b76 85bd 33c2 f5bd 498c a83e
00000220: 2388 1f3c d1b7 503c c1ea 8abd 2d10 bbbe
00000230: 5d47 ad3d 00d4 75be 539d 3fbe 60c6 833e
00000240: 52aa 093e d4de 80be aa3f 833e de39 e5bd
00000250: 0550 0ebe 6255 673d c14a ff3d 7719 0abe
00000260: 2639 583d 1880 663e 723d b23d 2b32 92bd
00000270: e662 24be 05e5 a03c f7d9 1a3e cc93 8fbd
00000280: 8efc 27be 60c1 1e3e dbdb cf3d ba08 13be
00000290: 746d 5a3e e674 e53d 1a09 3ebd 0731 0a3d
000002a0: eb71 0fbd dec0 42be 64e1 e2bd 3827 2ebe
000002b0: e5d8 453e 03fe 973d 7605 003d 3ce6 a33d
000002c0: 1bd8 b0bd d31a 5c3e 44f8 9abe f76b f5bc
000002d0: 6278 88be b1e6 7e3e f14d c23d 9955 b43d
000002e0: 4c29 b53d 8646 02be 0d5d 32be 95b7 683e
000002f0: 3a95 8f3e 7bf8 82be 447a 78be 28ab 7cbd
00000300: e4cd 173e e3e7 aabd 43f0 5cbe d1aa c83d
00000310: c6ba de3d b652 7bbe d792 903d 1426 93be
00000320: dfa2 e63d 6a5a 153e 56dd 32be 8ef0 793e
00000330: 4bf7 8fbe c84c dabd b9e8 cabd c6e7 27b9
00000340: e04d 243e c9a8 743e 65ca 8b3e dde2 7c3d
00000350: 41a2 a33d 8691 18be 22b9 3dbe 7d6c 88be
00000360: 59b1 99be d5b1 fbbd ec16 1cba 92a7 633e
00000370: c9c7 8c3d fb8b abbc 742f 11be dc60 6f3e
00000380: 800f 86be cbd1 80be af9d dc3c c124 7fbe
00000390: fc9b c0bd 5bbf 873d 005d 743d 3b5d bfbd
000003a0: b988 d33d 9569 c83d adfa aebd b3a4 5abe
000003b0: b131 22be 3abe 5bbe 4b92 a83d 4c48 8c3d
000003c0: 6ae7 e63d e3ae 71be 63ef 2d3e 5ba4 883e
000003d0: e6c0 b13c b3fc fdbd 378a 21bd e3aa f63d
000003e0: d793 1fbe 3ce6 2b3e b889 823d 8381 023e
000003f0: c9bd 53be 5638 333e 0631 8e3e b50c 0ebe
-0.16283146 -0.083044864 0.024434607 -0.23866756 -0.0046469173 0.2740528 0.06212335 -0.06857935
0.2290704 -0.0131857125 -0.0618403 0.03300329 -0.10120265 0.05656878 -0.08685745 0.11380069
0.31221208 0.06015173 -0.1739672 0.14369768 -0.04858385 -0.09421639 0.06960675 -0.087740555
-0.12896009 0.13109304 -0.07658464 -0.04991887 -0.10134278 -0.26339388 0.0068314676 -0.16214524
0.08560234 -0.20815831 -0.3061176 0.19382976 0.05431286 -0.09026994 -0.057215717 -0.22985329
0.14159532 0.13413897 -0.11687222 0.01139612 0.13729945 0.027183749 0.14847307 -0.027576962
-0.25608614 0.101036355 0.1095008 0.14795147 -0.093581624 0.1901568 0.004654632 -0.18784578
-0.045447394 0.2866706 0.004437165 0.033484284 -0.15656804 0.106116004 0.012382208 -0.25707063
-0.1065443 -0.09560309 -0.26324812 -0.0152920745 0.1127902 0.005056452 -0.33674943 -0.16114415
0.3157456 -0.23532361 -0.28602025 0.044100072 -0.055206485 -0.27658597 -0.023375742 -0.033425
0.28718776 0.11788821 0.03612535 0.25740993 -0.14453882 -0.17232758 0.04190259 -0.253991
0.01594505 0.08659895 0.3450601 0.24228539 -0.2805809 0.2794022 0.24533123 0.041965995
0.069903284 0.13990559 -0.15346916 0.26627138 -0.2764156 0.033034533 -0.049389113 -0.10565091
0.17153141 -0.08646785 -0.28030825 0.17143223 0.050608452 0.14489357 -0.25792077 -0.24467859
0.0024929594 -0.023964625 -0.010548942 -0.20899266 -0.21029896 -0.33701932 -0.04934158 -0.29439306
0.11849062 0.13200286 -0.08035385 0.052829005 0.1541849 -0.11898288 -0.068427056 0.33918348
-0.10530398 -0.16029352 -0.1700013 0.0972988 -0.02873781 -0.06516691 -0.11999931 0.3291953
0.009737047 0.012739138 -0.06783057 -0.3653578 0.08460877 -0.24006653 -0.18712358 0.25737286
0.13443878 -0.25170004 0.2563451 -0.11192678 -0.13897713 0.05647791 0.1246543 -0.13486277
0.052788876 0.22509801 0.08703126 -0.07138475 -0.16053352 0.019640455 0.1512221 -0.07010612
-0.16404936 0.15503454 0.10149356 -0.14358798 0.21330816 0.11203937 -0.0463954 0.033738162
-0.03502075 -0.19018885 -0.11078146 -0.17007148 0.1932102 0.07421496 0.031255208 0.08002898
-0.08634969 0.21494608 -0.30267537 -0.029958708 -0.26654345 0.2489269 0.094875224 0.08805389
0.088457674 -0.12722215 -0.17418309 0.22726281 0.28043538 -0.255802 -0.2426539 -0.061686665
0.14824635 -0.0834501 -0.21576028 0.09798206 0.10875468 -0.2454327 0.070592575 -0.2873999
0.11261534 0.14585271 -0.17467245 0.2440817 -0.28118357 -0.10659176 -0.099076696 -0.00016012703
0.16045332 0.23892511 0.27302852 0.06173979 0.07989932 -0.14899263 -0.18527654 -0.2664527
-0.30018118 -0.12289778 -0.00059543434 0.22231892 0.068740435 -0.020940771 -0.14178258 0.23376793
-0.261837 -0.2516006 0.026930658 -0.24916364 -0.09404752 0.06628295 0.059659004 -0.09343954
0.10328812 0.09785763 -0.08543906 -0.2135189 -0.15839268 -0.21459284 0.08231028 0.06849727
0.112746075 -0.2360187 0.1698585 0.26687893 0.021698426 -0.12401714 -0.039438453 0.12044313
-0.1558374 0.16787046 0.06373924 0.12744717 -0.20677866 0.17501959 0.27771777 -0.13872035

bias f4 [20]
00000000: 0b6e bfbd 8087 733e 9e26 26be 84c0 2d3e
00000010: 7f3f 60be e976 433d e3c7 2e3d bf18 7c3d
00000020: af00 85bd d5b7 113e 4f6a 173e 1cb4 4d3e
00000030: 1b71 d43d 729d 263d 8b23 17be 2843 ac3d
00000040: 3fca 3b3e 18b8 143e fc4f ecbd 8f22 60be
-0.09347161 0.23782158 -0.16225669 0.1696797 -0.21899222 0.047720823 0.042671096 0.061547037
-0.06494271 0.14230283 0.14786647 0.20088238 0.10373136 0.040677495 -0.14759652 0.084112465
0.1833887 0.14523351 -0.11538693 -0.21888183

weight f4 [20, 20]
00000000: 3299 753e bfee 043e b33a ccbd e330 36bd
00000010: 7be2 e8bc 2efe febd 2d26 8d3e fa79 25be
00000020: 39e7 943c ad50 743e 1a00 843d 993a 38bd
00000030: d331 0fbd 3edd 75be ab73 043e 94b9 4c3e
00000040: 6c69 e5bc 1574 883e 64ca 623e 0e29 283e
00000050: 5975 65bd 3154 1c3e d0a9 48be 0c68 833d
00000060: bdfe a3be 22ed 6b3e 2418 fdbd 8a6c 97be
00000070: 5770 e03d 3815 5e3e e817 55be 64a8 073e
00000080: 792a 48be a2d7 273d 9669 18be 8152 ba3d
00000090: 98e3 a63e 5a44 2a3e d2bc 783e 0268 2cbe
000000a0: 9ef8 17bc 8a3e f23d b086 6abe 205b 213e
000000b0: a45e 14be ef62 7e3d 4fb6 12bd 5124 9f3d
000000c0: 4003 26bb 477a a43e f888 de3d b3d8 4fbe
000000d0: 72dd 85bd 93d1 b93d bf10 193e 1a16 65bd
000000e0: b825 fb3d fe5c 983d ae7d 2f3d 7cf7 09be
000000f0: 0b52 763e f2d3 ddbc d495 30be 9b0e fe3d
00000100: 3867 11be bf53 f4bd 69e9 f2bd a425 093e
00000110: 8ae4 993e c6fb cbbd 8dac 8cbe 49bb 99be
00000120: 43fb 0fbe 5810 1ebd 51f5 253e cc6a 5c3e
00000130: 1aa3 a4bd 82e3 253d b602 703e 0715 033b
00000140: a896 6b3e 4d57 b4bd be57 bbbd f042 00bd
00000150: 7459 77be 65bc 2bbe d004 c9bd 3324 35be
00000160: 360d 093e 84a9 c43d 0a08 e0bd 3304 12be
00000170: c384 b23d cd73 3cbe 10dc 503e 847b 1b3e
00000180: 6d69 babd 7626 493a c144 9cbb 0ad4 1b3e
00000190: 5125 9c3d 2b0b fb3c 9be1 e9bd eafc 353d
000001a0: 03ea 2a3e 52bb c93d 6aa7 073e ed4f 9f3d
000001b0: 2fd9 d2bc 8704 57be 3e31 3d3e ec2a b03d
000001c0: 5f41 823d e43f 2dbe 0f96 b1bd 8e33 583d
000001d0: 47fa 96bc e51f ae3c 8397 6cbe c7eb 2c3e
000001e0: 97d1 14be fcc7 c73d 67a1 2bbe c566 cd3d
000001f0: 8957 60be b3e8 813e b3e8 2e3e 8daa c33d
00000200: 72ce 45b8 6568 6a3e eddc fdbd 42eb bf3d
00000210: bcf3 a1be 5cac 933d be15 8c3d e3a5 283e
00000220: 942d 9f3e 2399 633e a3a8 6a3d e289 a43d
00000230: 17d8 05be e047 9bbd d58b e53d eee7 abbd
00000240: 782e 5a3c 2e36 2abe 33ad 0a3e 7246 3d3e
00000250: 682a 8abe 37cd 203e 51ed a1bd 4b5f 443d
00000260: 1ee5 2fbe e57e 083e 9e12 02be b80e 5abd
00000270: 7297 82be ec0e d6bd 4764 ea3c 2b55 58be
00000280: d2d3 87be be0e 6abe 9e5f 24be 02d5 df3d
00000290: 9a4a 473e 2723 4dbe bce8 143c 10d8 84bd
000002a0: a9fe 04be 21df 03bc 359c 673d 0fbb ca3d
000002b0: cdeb 413e 5589 473e 09d7 b2bc db33 c43d
000002c0: 9f45 ac3b 45cb 3cbe 3b0c 96be 27db f4bd
000002d0: dee5 5ebe 8a5e 293d 7cd9 e53d fe4d 453e
000002e0: b1ea 53be 21d4 a63d a48b ec3d 394e b93d
000002f0: 2017 44be 4c37 953d aace 1bbd 58b6 7a3e
00000300: a850 b73d 481c c03d d45f f2bd 2f26 68be
00000310: e1cb 4cbe 4496 703e 6d66 9a3b 0a44 36be
00000320: a953 94bd 5408 a7bd ca54 3cbe 6ba9 dd3c
00000330: dc03 84be a55f c7bd 7952 833e 5e12 83be
00000340: 0303 c9bc 8734 893e 1641 d0bd ce6e 0abe
00000350: 23f3 0fbe ec44 89be 611b b9bc 5faf 6c3e
00000360: 4297 89bd 934a 5d3e e4e5 553e e2b5 a9bc
00000370: d571 053e 0ee8 32be 48c3 a5bd cc04 b3bc
00000380: f727 b73d 85f7 20be eb62 2ebe 4813 1fbe
00000390: c410 053e 7bba a7bc 2097 95be b18a 45be
000003a0: a78f 26be 5571 c73d 5f16 883e 440e 913d
000003b0: d314 ddbc 93b4 8c3e 40d0 273e 3a03 243e
000003c0: 5a0d 82be f0cd 84be 1ea7 fd3d 1e00 84be
000003d0: 17de 283c e937 67be d3b5 05bd 8a03 883e
000003e0: fd6a 38bd d5df e43c 8af5 8c3e 97cf 0c3e
000003f0: dd7e a13b 093d b3bd f4d8 143d adb7 29be
0.2398422 0.129817 -0.099721335 -0.044480216 -0.028428307 -0.12450825 0.27568188 -0.16159812
0.018176662 0.238589 0.06445332 -0.044977758 -0.034959625 -0.24010178 0.12934749 0.19992667
-0.02800437 0.26651064 0.22147518 0.16421911 -0.056020115 0.15266491 -0.19596028 0.0641633
-0.32030287 0.23039678 -0.1235812 -0.29574996 0.10958927 0.21687782 -0.20809901 0.1324783
-0.19547452 0.040977128 -0.14884028 0.090977676 0.32595515 0.16627637 0.24290779 -0.16836551
-0.009275584 0.11828335 -0.22902942 0.15757418 -0.14489228 0.06210607 -0.035818394 0.07770599
-0.0025331527 0.3212454 0.108659685 -0.20297508 -0.06536378 0.09073176 0.14947794 -0.05592928
0.12263054 0.07439612 0.042844467 -0.13473314 0.24054734 -0.027078602 -0.17244655 0.124051295
-0.14199531 -0.11930036 -0.11860926 0.13393265 0.30057174 -0.09960131 -0.27475396 -0.300257
-0.14060692 -0.038589805 0.16206862 0.21525115 -0.08038922 0.04050017 0.23438534 0.0020001547
0.2300669 -0.08805714 -0.09147595 -0.031313837 -0.24155217 -0.16771086 -0.09815371 -0.1768959
0.13383946 0.09602645 -0.10939033 -0.14259414 0.087167285 -0.1840355 0.20396447 0.15183836
-0.091021396 0.00076732726 -0.0047689383 0.15217605 0.07624305 0.030644974 -0.11419984 0.04443065
0.16690831 0.09850182 0.13247457 0.077789165 -0.025738327 -0.20997821 0.18475816 0.08601937
0.06360125 -0.16918904 -0.086711995 0.05278354 -0.018429888 0.021255443 -0.23104672 0.16886817
-0.14533077 0.09754941 -0.16760789 0.10029367 -0.21908392 0.25372848 0.17080955 0.09554014
-4.7160727e-05 0.22891386 -0.12395654 0.09371044 -0.31631267 0.07210609 0.068400845 0.16469531
0.3108946 0.22226386 0.05728973 0.080341116 -0.13070713 -0.075820684 0.112083115 -0.083938465
0.013316743 -0.1662223 0.13542633 0.18483904 -0.26985478 0.15703283 -0.07906593 0.04794244
-0.17177245 0.13329656 -0.12702414 -0.053236693 -0.2550617 -0.10452065 0.02861227 -0.21126239
-0.26528794 -0.22857186 -0.160521 0.109293 0.19462052 -0.20032941 0.009088691 -0.06486523
-0.1298777 -0.008048804 0.056545455 0.0989896 0.18937607 0.19485982 -0.021831052 0.09580203
0.005257323 -0.18436916 -0.29306206 -0.119558625 -0.21767375 0.041349925 0.112231225 0.19268033
-0.20694996 0.08145929 0.11550072 0.09048123 -0.19149446 0.07285938 -0.038038887 0.24483621
0.08950931 0.09380394 -0.11834684 -0.22670816 -0.19999649 0.23494822 0.004711917 -0.17799392
-0.072425194 -0.08155885 -0.1839172 0.027058324 -0.25784194 -0.097350396 0.2564886 -0.2559995
-0.024537569 0.26797888 -0.10168664 -0.13518831 -0.14057593 -0.26810396 -0.022596063 0.23113774
-0.06718303 0.21610479 0.20888478 -0.020716611 0.13031705 -0.17471334 -0.080938876 -0.021852873
0.089431696 -0.15719421 -0.17029922 -0.15534699 0.12994677 -0.020474663 -0.29216862 -0.19291188
-0.16265737 0.09738413 0.26579568 0.07082799 -0.026987469 0.27481517 0.16388035 0.16016856
-0.2540081 -0.25938368 0.12385391 -0.2578134 0.010306857 -0.22579922 -0.032644104 0.265652
-0.045023907 0.027938763 0.2753108 0.13751064 0.0049284534 -0.08751876 0.036339715 -0.16573973

bias f4 [20]
00000000: 2da3 0dbe 4f32 8d3d 6a21 183d 2d97 54bd
00000010: 4a4d a23d eddc f83d 6471 1d3e 3d05 f63d
00000020: 4dce 94bd d9c4 f4bc fec8 ffbd 7f75 413e
00000030: 3092 8a3b da40 44be 941d 393e eb38 9b3c
00000040: f5b3 5f3d 1dab 613e ccec 8bbd 03f8 2c3d
-0.13831778 0.06894361 0.03714124 -0.051901985 0.07924898 0.12151513 0.15375286 0.12012718
-0.07265911 -0.02987902 -0.12489508 0.18892477 0.0042288527 -0.19165364 0.1807769 0.018948039
0.05461498 0.22037931 -0.06832275 0.04222871

weight f4 [20, 20]
00000000: a5e2 2e3e f712 983c b126 43be e42a 7f3e
00000010: 6aa5 563e a24f ac3d 8c90 6b3e 6adf bcbd
00000020: 0d63 90bc 87bc 5bbe 0051 393e ada9 033e
00000030: e85a d13d 06e3 5dbe 3a96 12be 9429 313e
00000040: 6479 7dbe 1ce5 09be 63c7 713e 7f4b 20be
00000050: 70d8 bebd baf1 f5bc 4ae0 33be 96d7 2abe
00000060: c783 df3d 1172 86bd c612 003e 942d 153c
00000070: a61d 9d3e 4f46 1abe f53b a33d 2077 3cbe
00000080: fc8e 053e eaa3 143e d924 ef3d da8d e83d
00000090: 7426 643e 1bcc 193e 4e0b aa3c 40c7 0cbe
000000a0: 26da 813d 6813 0fbe 9220 cdbd 0773 7a3e
000000b0: da43 cc3d f404 dbbd b4a1 143e e35d a43d
000000c0: 8975 19be 3faf d93b 2bbc 973d be82 06be
000000d0: ee8d 52be a196 f93c 1fa3 5e3e bac8 7a3e
000000e0: 4d1d bd3d d155 923c 5e45 c3bd f81d 40be
000000f0: fbe2 643e 82f3 a63e 816b 733e a744 193b
00000100: 8cb4 2bbc 9f05 51be 8146 6b3e 9d52 abbc
00000110: 47d1 f03d 94cd 29be 7a33 df3c d33d b8bd
00000120: 9ebc 44be 0195 82be 5113 bb3d 4b01 933e
00000130: 3722 2b3e a888 953c 35e1 263e 7f7e 1dbe
00000140: 0544 babd 0afc a5bd fd3d 253e d8b9 77be
00000150: 52c7 85be 738e 013e 3739 4fbe 352f 6a3e
00000160: 0061 acbd 360c 353c ca6c 24be b097 38be
00000170: 8644 8e3e 0adb 1fbe 08e3 b3bd 8a8a 0a3e
00000180: 18a7 553e b529 423d 485e 33be d6e3 953e
00000190: dab7 303e fafb b63d d5be 16be 1ab9 a93d
000001a0: 118e b23d 6c79 27be b669 0ebe ef6f acbd
000001b0: 30c2 2d3c 8149 38be 43ae a2bd 6fb8 033e
000001c0: e7b2 743d 8476 3cbe c322 f1bd 24b1 1c3e
000001d0: b24f 39be 89c8 31be 91db 07ba 9b58 10be
000001e0: 1a0c 8a3c 74a0 70be d729 69bd 6f40 a13d
000001f0: 3fa1 dcbc 6d5a 49bd ac36 b9be 86f8 503e
00000200: f970 c83c 566b 2bbe f339 95bd a4d9 75be
00000210: 55e1 06bd 9483 eebc 0d44 85be 0d50 97be
00000220: 9e0a f8bd 31c7 86be 81fb 01be 1a14 8b3e
00000230: 2370 633d db73 733d 85a7 bdbc 9c9f 0c3d
00000240: e50d a93d edf3 643d ceba 6cbd 48cb 34be
00000250: bfea 723d a731 d3bc 167b 443e 9017 803d
00000260: ad15 473c 14cf 3dbe 39a5 f3bd b5c7 abbb
00000270: 8389 bebd be54 023e f795 863e 72cc 07bd
00000280: 1d80 2e3d e8d7 4e3d 27d3 853e 8d75 2a3e
00000290: 9fa0 0dbe c469 3dbe 82d7 5d3e a84e 19bd
000002a0: 7fb9 093e 4a38 f3bd 1a12 733e 8ba6 053e
000002b0: 0d23 6ebe 75e8 4ebe 7048 833e 2742 6bbd
000002c0: f587 37be 57c2 34bb 92b0 ac3c 2b06 7ebd
000002d0: be0b 4fbe 8008 38be 6165 3fbe 33fa bc3d
000002e0: ac56 68be 5b02 5ebe e55d 0ebe 81a8 5f3e
000002f0: 034c 363d 2fac 1fbe 56c6 25be fd56 68be
00000300: d9eb 903d 9321 6f3c 4a31 643d 175a c0bd
00000310: b795 4dbd 3ac7 25be d41b 79be f0e3 743e
00000320: f815 19be f10d ce3d 966a 56be 43e8 8ebd
00000330: 0374 68be 7259 f63d 7883 e23d 17f8 eabd
00000340: 559d 9d3e 0d09 00bd b490 f53d fb62 04be
00000350: 394e dcbd 6fa1 2bbe b8d3 adbd f520 d03c
00000360: 5c04 c43d 8cea 91bd 5183 e3bd 7ed1 1ebe
00000370: c1c9 02be 71ee 033e 80d7 833e 6b9f 313d
00000380: 9882 393e eb31 64be 1125 653e a648 44bc
00000390: 70b0 b83d ae96 0e3e 75b6 07bc bdaf 843e
000003a0: c81a 0abd 6166 24bb ccf9 3abe 333f 8c3e
000003b0: 364a a2bd 2fed c93d 598e 533d 741f 66be
000003c0: 1427 ed3a c0ac f6bb d0cb 993c 0d55 96be
000003d0: 56fc 86be db18 b2bd eb5d 4ebe d76b 7b3d
000003e0: f079 823e 2fdd 8c3d 8b08 8dbe a142 02be
000003f0: c831 513e a082 5d3e 338a 89bd c30e 84be
0.17078646 0.01856373 -0.19057728 0.24918705 0.20961538 0.08413626 0.23004359 -0.092223
-0.017625356 -0.21458636 0.18097305 0.12857695 0.10222417 -0.21668634 -0.1431512 0.17301017
-0.24753338 -0.13466305 0.23611216 -0.156538 -0.09318626 -0.03002249 -0.17566028 -0.16683802
0.109138064 -0.06564725 0.12507161 0.009105105 0.30686682 -0.15065883 0.0797042 -0.18404818
0.13042825 0.14515653 0.1167695 0.11355181 0.22280294 0.15019266 0.020757344 -0.13747883
0.06340437 -0.13972247 -0.10015978 0.24457942 0.09973879 -0.10694304 0.1451481 0.0802572
-0.14986242 0.0066432054 0.07408937 -0.13135812 -0.20561954 0.030467333 0.21741913 0.24490634
0.09234104 0.017863186 -0.09534715 -0.18761432 0.22352211 0.32607657 0.23771478 0.0023386867
-0.010480057 -0.204123 0.22976114 -0.020913417 0.117586665 -0.16582328 0.027246226 -0.08996167
-0.19212577 -0.25504306 0.09134544 0.28711924 0.1671227 0.01825364 0.16296847 -0.15380286
-0.09095005 -0.08104713 0.16136928 -0.24191988 -0.26128632 0.12651996 -0.2023667 0.2286957
-0.08416939 0.011050275 -0.16057125 -0.18026614 0.27786654 -0.156109 -0.08783537 0.13529411
0.20864522 0.047403056 -0.17516434 0.29275388 0.17257634 0.089347795 -0.14721234 0.082872584
0.08718503 -0.16354913 -0.13907513 -0.08419787 0.01060538 -0.1799679 -0.07943394 0.12863325
0.059740927 -0.18404585 -0.117742084 0.15301949 -0.18096808 -0.17361654 -0.0005182559 -0.140963
0.016851474 -0.23498708 -0.056924667 0.07873618 -0.026932357 -0.049158502 -0.36174524 0.20407304
0.024467932 -0.16740164 -0.072864436 -0.24008805 -0.032929737 -0.029115476 -0.2602848 -0.2955326
-0.121114 -0.26323846 -0.12693597 0.27163774 0.055526864 0.05943666 -0.023151169 0.034331903
0.08254603 0.05589669 -0.05779534 -0.1765567 0.059305903 -0.025780512 0.19187579 0.06254494
0.012151164 -0.18536025 -0.11896748 -0.005242313 -0.09303572 0.12727639 0.2628629 -0.03315396
0.042602647 0.050498873 0.2613766 0.16646405 -0.13830803 -0.18497378 0.21664241 -0.037428528
0.13449667 -0.11875971 0.23737374 0.13051812 -0.23255558 -0.20205863 0.25641203 -0.057436135
-0.17922957 -0.0027581656 0.021080289 -0.0620176 -0.20219323 -0.17971992 -0.18691017 0.09227409
-0.22689313 -0.21680586 -0.13903005 0.21841623 0.044506084 -0.15593027 -0.1618894 -0.22689433
0.07076234 0.014595407 0.05571107 -0.09392183 -0.050191607 -0.1618928 -0.24327022 0.23915076
-0.14949787 0.10061253 -0.20939097 -0.06977894 -0.22700505 0.12028779 0.11060232 -0.11473101
0.30784097 -0.03125863 0.119904906 -0.12928383 -0.10757107 -0.16760801 -0.08487648 0.02540634
0.09571144 -0.071248144 -0.11109031 -0.15509602 -0.12772276 0.12883927 0.2575035 0.043364923
0.18116224 -0.22284667 0.22377421 -0.011980211 0.09018028 0.13924667 -0.008283247 0.25915328
-0.033716947 -0.0025085437 -0.18259352 0.27391967 -0.07924311 0.09859692 0.051649425 -0.22472936
0.0018093311 -0.0075279176 0.018773943 -0.29361764 -0.26364392 -0.08696147 -0.20153014 0.06138214
0.25483656 0.06878125 -0.2754558 -0.1272073 0.20429146 0.2163186 -0.067158125 -0.25792512

bias f4 [20]
00000000: b849 733d 02f4 443e 7b33 e13d 328c 8abc
00000010: beaf 4dbe 729d 1d3d 032e 76bd 4e0d fbbd
00000020: 480c fd3d 828b 7f3d caf1 f93d ea0b 26be
00000030: 30af 2db8 71ad 9e3c f5e1 ebbd f423 40be
00000040: 2e3a cbbd 8035 ac3d e6d0 05bd 5faf eb3d
0.059396476 0.19233707 0.10996147 -0.016912553 -0.20086572 0.03848023 -0.060102474 -0.12258397
0.12355858 0.062388904 0.12204321 -0.16215482 -4.140957e-05 0.019369813 -0.11517707 -0.18763715
-0.09923206 0.08408642 -0.032669924 0.11508059

weight f4 [20, 20]
00000000: 32bc b43d 36d7 1fbe 5466 a93c 220c da3d
00000010: 2913 68be 8052 00be f8bf 46be c63a 10be
00000020: d059 e23d 363f 8fbb c493 d5bd 5365 8d3e
00000030: ad1e 43be 5f3b 813d f711 5dbe c668 d9ba
00000040: a8d3 19bd bd1f 29be e35d 043e ac5d f23c
00000050: 8110 8fbe 2fa1 0b3d f342 39be c4e1 9abd
00000060: 0a98 503e 9743 1bbe 2a35 9d3d 46a2 81bd
00000070: 1570 81be d68b 863e c4bf 263e c8bc 97bd
00000080: 8af4 c0bd 4822 4e3e 2194 d83d 7e5e 453d
00000090: 7a69 793e 0389 963e 9a18 8f3d 02ea 73be
000000a0: f29a ebbd 18e5 263d 6508 38be 1084 bcbc
000000b0: c08b b2bd 93f3 3ebe d30d 283e 2aba 80be
000000c0: 9d57 35be 73c2 503e 8a9e 1cbe 3330 cbbd
000000d0: 1020 8b3e 0a44 953e cacc 783d 1110 93bc
000000e0: 83f0 e03c c42d 71bd 650d 143d 91a6 57be
000000f0: f4e7 bcbc 434c 103e 1fa7 96bc 7afa 1f3e
00000100: a5dc 26bd a609 443e 2203 8b3d 017f cb3d
00000110: eba4 66bd 2939 53be 5906 10be d852 c53b
00000120: b245 55be 802d 96be 7019 473d 20a6 56be
00000130: 0d08 033e 0d32 6abe a95b 893e 749f 113d
00000140: 837b 55be 3a3d 453e 7a43 3cbe ed56 56bd
00000150: 7f20 2a3e d108 8a3d 9714 d2bd 7325 953d
00000160: 7338 66bc 63a7 a4bc 3902 9139 dd41 03be
00000170: 1640 503e 2b9b bc3d 5650 e93c 290e aa3d
00000180: 930b 0b3e 2d1e 66bd 22c0 01be 2c10 6b3d
00000190: bad2 94bd 6048 4cbe e0f5 973c 091b ee3b
000001a0: c864 b53c 4d0d 58be cf7a 693e aa04 edbd
000001b0: 58bb d23c a37e 083e 048c b83d 6c2b 193e
000001c0: 734b 11bc 6a9b 703e 1ed0 913d 1cdd 90bd
000001d0: afb2 443e f671 893e 0a5c 123d b7f5 d03c
000001e0: 1b55 f0bd a28a 923d 12eb 42bd 8cf7 1a3e
000001f0: b3cf 833e 1c4a 80bd b7a1 dfbd 2145 21be
00000200: cf31 943d b758 90bd 1191 2cbd ce8f 283e
00000210: 338a 393e a42f 4b3e baae 063c d28d 4c3e
00000220: a234 e83d 7cfc ca3d 61a6 78be 5cca bcbd
00000230: 92b3 62be 65f9 503d f196 003e 0f4a f73d
00000240: 59b2 cabd f300 49be 8ca2 3fbe 7954 81be
00000250: b855 b6bd bef6 7c3e 5e73 30be 7ad8 a6bd
00000260: b07f f1bd 191e 3b3e ad9e 943d c5bf 373e
00000270: 1fdc cfbd ef19 1a3e d0f2 4fbe 4d53 1f3e
00000280: 7eb7 27be 8166 673e 5aff 993c c2f2 a53d
00000290: f88e b8bb 415a 1d3e bf3f 183e b5f8 a13d
000002a0: a252 b23d f71b 7d3e 0860 a3bd 0ee8 e13d
000002b0: 0588 083e cb7c 6dbc d4eb 8e3d 543a dc3d
000002c0: 3ed1 ec3d 1b9f 9c3e 0319 8abe d230 203d
000002d0: ee52 983d 7994 c0bd c8bf be3c 21f6 f8bd
000002e0: 2af5 013e b96a cf3d 0e22 05bd b24a 75bd
000002f0: 2a27 f43d 3936 4dbe 9a78 a63c ae8e 6a3e
00000300: 3c61 08be 6e72 72be ed3b 7f3d 3a03 b33d
00000310: 67bd 453d 7579 ed3d c419 febc 4e1f fc3d
00000320: 861e 293d 3a7d 8bbd 3606 d53c 12dc 06be
00000330: adb1 c7bd b220 2fbe 4364 873c c067 1dbe
00000340: fb94 8b3d 4d84 27be 7426 e43d 6f88 b33d
00000350: 02d1 90be d073 82be ecb7 77bd 85e1 6a3e
00000360: a041 263e a530 ddbb 9aea 04be c84c 8ebd
00000370: 3355 59be b005 9d3d 950a ef3d ce3e 59bd
00000380: af0e af3d a4ff 67be 0432 17be 46ff fb3d
00000390: 6130 b6bd 4fcd 203e e491 3e3e 4013 e1bb
000003a0: ad59 e7bc 9976 ccbd eb5d 9f3d 33cc 093e
000003b0: 7190 45be cb98 6f3e 7dcb 6bbd ae10 2dbe
000003c0: 0f62 98be 3485 22be 2286 21be 1126 80bd
000003d0: 8b0e 0abd 154c 7bbe 989d 11be e984 91bd
000003e0: f113 5dbd b904 473e 31db 223e 9772 40be
000003f0: 9e30 273e c6c9 883e 09d8 083e 3a3b 423d
0.08824958 -0.1560944 0.020678677 0.106468454 -0.22663559 -0.12531471 -0.19409168 -0.1408492
0.110522866 -0.004371549 -0.10428575 0.27616367 -0.1905467 0.06310152 -0.21588884 -0.0016587011
-0.037555367 -0.16516013 0.1292644 0.029585682 -0.2794228 0.034089264 -0.18091945 -0.075625926
0.20370498 -0.15162502 0.07676156 -0.06329779 -0.25280824 0.2627856 0.1628409 -0.07409054
-0.09421642 0.20130265 0.10575128 0.048185818 0.24356642 0.29401407 0.06987114 -0.23819736
-0.11504163 0.040745825 -0.17971952 -0.023012191 -0.087180614 -0.18647604 0.16411524 -0.25142032
-0.17709203 0.20386676 -0.15294853 -0.09921303 0.271729 0.29153472 0.060742177 -0.017951997
0.027458435 -0.058881536 0.036145587 -0.21059634 -0.023059823 0.14091592 -0.018390236 0.15622893
-0.040737767 0.19144306 0.06787707 0.099363334 -0.05630962 -0.20627274 -0.14064921 0.0060218386
-0.20827368 -0.2933159 0.048608243 -0.20961809 0.1279604 -0.22870655 0.26827744 0.035552457
-0.20847897 0.19261637 -0.18385115 -0.052328993 0.16613959 0.06739963 -0.102578335 0.072825335
-0.0140515445 -0.020099347 0.0002765821 -0.12818094 0.20336947 0.092092834 0.02848069 0.08303482
0.13578634 -0.05618112 -0.12670949 0.05738847 -0.072667554 -0.19949484 0.01854986 0.0072664064
0.022142783 -0.21098824 0.22800754 -0.11573155 0.025724098 0.13329558 0.09011081 0.1495797
-0.008868086 0.23496786 0.07119773 -0.07073423 0.19208787 0.26844758 0.035732307 0.025507791
-0.117349826 0.07155348 -0.04758746 0.15133494 0.257444 -0.06264135 -0.109195165 -0.15749027
0.07236063 -0.07048171 -0.042130534 0.16461107 0.18119125 0.19842392 0.008220369 0.19975975
0.11338164 0.09911439 -0.24282219 -0.092182845 -0.22138813 0.05101909 0.1255758 0.120746724
-0.09897298 -0.19629268 -0.1871435 -0.2525976 -0.08903068 0.247035 -0.17231509 -0.081467584
-0.117919326 0.182732 0.072568275 0.17944248 -0.10149407 0.15048955 -0.2030747 0.1555912
-0.1637859 0.22597696 0.018798519 0.08102943 -0.0056322776 0.1536646 0.14868067 0.07908765
0.08707167 0.24717699 -0.07977301 0.11030589 0.13333137 -0.014495085 0.069785744 0.10753313
0.11563347 0.30590138 -0.26972207 0.03910906 0.074376926 -0.09403319 0.023284808 -0.1215632
0.12691179 0.101277776 -0.03250318 -0.059885688 0.119215325 -0.20040216 0.02032118 0.2290599
-0.13318342 -0.23676464 0.06231301 0.0874085 0.04827633 0.11595432 -0.031018145 0.123106584
0.041288875 -0.068109944 0.026003938 -0.13169888 -0.09750686 -0.17102316 0.0165273 -0.15371609
0.06815525 -0.16359062 0.11140147 0.08766257 -0.2828446 -0.25478983 -0.060478136 0.22937591
0.16235971 -0.0067501836 -0.12980118 -0.069482386 -0.21223907 0.076671004 0.1167194 -0.05303841
0.085477225 -0.22656113 -0.14765173 0.12304549 -0.08895946 0.15703319 0.1861034 -0.00686875
-0.028241003 -0.09983558 0.07781585 0.13456802 -0.19293381 0.2339813 -0.05756711 -0.16900894
-0.29762313 -0.15871125 -0.15773824 -0.062572606 -0.033705276 -0.24540742 -0.14220273 -0.07105429
-0.053974096 0.19435395 0.15903927 -0.18793713 0.1632714 0.2671644 0.13363661 0.047419764

bias f4 [20]
00000000: 41ee e5bc e59e be3d 4d15 0f3e 828f 9bbd
00000010: 5441 35bd 252a 523e 7e03 703e bd98 013e
00000020: 0b88 213e d3ef b5bd 0bf7 08be ccad 563e
00000030: 2bb7 c4bd d5a9 763c a115 b43c e51a 833d
00000040: 664e 03be 4f9c 01bc 0459 d33d 4457 ae3d
-0.02806771 0.093076505 0.1397297 -0.07595731 -0.044251755 0.2052389 0.23438832 0.12655921
0.15774553 -0.088836335 -0.1337549 0.20964736 -0.09605249 0.01505514 0.02198297 0.06401614
-0.12822875 -0.007910802 0.10319713 0.08512738

weight f4 [1, 20]
00000000: d127 923e a1d7 98be 573a 6fbe 2a47 7c3e
00000010: 2c0d 56be a95d 8bbe 39c3 7cbe 02fa fdbd
00000020: fe75 21be d8c8 a73d 705e f83c 5ab6 08be
00000030: 56a0 08be 9d10 c7be 0b28 bd3d 973b 93be
00000040: c4e3 673e e32a 76be 335e 9abe e93d 06be
0.28546003 -0.29852012 -0.23362099 0.24636522 -0.20903462 -0.27219895 -0.24683847 -0.12401201
-0.15767667 0.08192605 0.030318469 -0.13350812 -0.13342413 -0.38879862 0.09236153 -0.287564
0.2264548 -0.24039797 -0.30149993 -0.13109554
