pinn_lorenz_16k_iter.pt (torch, 472191 bytes, 18 tensors)

weight f4 [128, 1]
0	0x3ea11964	0.31464684
1	0xbf2ba1da	-0.6704384
2	0x3f390d4c	0.72285914
3	0xbe62e1cc	-0.22156447
4	0xbe1d6fa5	-0.1537462
5	0xbf4d2406	-0.8013309
6	0x3e6fe2f7	0.23426424
7	0x3e13d2e5	0.14435919
8	0x3f04426d	0.5166386
9	0x3f5b7b69	0.85735184
10	0xbf801472	-1.000624
11	0x3f84a8db	1.0364031
12	0xbec5be49	-0.3862174
13	0xbf2585c7	-0.64657253
14	0x3ed66586	0.4187433
15	0x3e3e9884	0.18612868
16	0x3f52c769	0.82335526
17	0xbec19c81	-0.37814716
18	0xbda35b5f	-0.07976412
19	0x3d444725	0.04791941
20	0xbf69bcba	-0.913036
21	0xbf17d6ce	-0.5931214
22	0x3e4508fe	0.19241711
23	0x3f190f6c	0.59789157
24	0xbf5d1b6a	-0.86369956
25	0xbe9c70c1	-0.30554774
26	0x3f560b77	0.83611244
27	0x3eb53ef7	0.353996
28	0x3e146d7c	0.1449489
29	0x3f4bf625	0.7967246
30	0xbf448bed	-0.7677601
31	0x3e95e290	0.29274416
32	0xbf5ee3f1	-0.8706656
33	0x3f5e797f	0.8690414
34	0x3bc26e45	0.0059335553
35	0x3f81225b	1.008861
36	0x3eb52533	0.35379943
37	0x3f2bfdc6	0.671841
38	0x3ef4b8df	0.47797295
39	0xbf2f0dcc	-0.6838043
40	0xbf638354	-0.88872266
41	0xbf86efa2	-1.054188
42	0x3ebe8311	0.3720937
43	0xbce8c56e	-0.028414454
44	0xbda8c70d	-0.08241091
45	0xbef90c52	-0.48642212
46	0xbf05e692	-0.5230495
47	0x3f28de87	0.6596455
48	0x3f74510a	0.95436156
49	0x3e323cbd	0.17405982
50	0xbe4bf41d	-0.1991734
51	0x3eb88b20	0.36043644
52	0xbf27be96	-0.65525186
53	0x3f7e1feb	0.9926745
54	0x3f07caab	0.5304362
55	0x3d8ff9b1	0.07030047
56	0x3f74ed10	0.9567423
57	0xbc5c2561	-0.013436646
58	0xbf093083	-0.5358965
59	0xbebd0476	-0.36917466
60	0x3f02f5e3	0.51156443
61	0x3eeea205	0.46607986
62	0x3e017fe0	0.12646437
63	0xbe48fa34	-0.19626695
64	0xbf38c228	-0.7217126
65	0x3ea4af92	0.321652
66	0x3f82a881	1.0207673
67	0xbf503d7c	-0.8134382
68	0x3d2e1d5e	0.042508475
69	0x3f7cdf3f	0.98778147
70	0x3f11a772	0.56896126
71	0xbf744a71	-0.9542609
72	0xbe36e42b	-0.17860477
73	0x3e5019e2	0.20322374
74	0x3dbe8d23	0.093042634
75	0xbf6464f2	-0.8921653
76	0xbf7e61b9	-0.9936786
77	0xbe45d5fa	-0.19319907
78	0x3f24d7f8	0.6439204
79	0x3f594130	0.84865093
80	0xbe70a256	-0.23499426
81	0x3f559664	0.834326
82	0x3d403d85	0.04693367
83	0x3e43b45b	0.19111769
84	0x3f28f1c6	0.65993917
85	0xbf7c9f00	-0.98680115
86	0xbf821e11	-1.0165426
87	0xbbbe33d0	-0.0058045164
88	0xbf4cf431	-0.80060107
89	0xbf758675	-0.9590829
90	0x3e7c8525	0.24660166
91	0x3e861503	0.26187906
92	0x3f570cec	0.8400409
93	0xbf46e854	-0.77698255
94	0xbf0bc012	-0.5458995
95	0xbe8f34a6	-0.27969855
96	0x3d90ad82	0.07064344
97	0xbf73619b	-0.9507081
98	0x3d82af8b	0.063811384
99	0x3f7f1e23	0.9965536
100	0xbf0f2c23	-0.5592672
101	0xbf4cb6bf	-0.7996635
102	0x3efbc7bc	0.49175823
103	0xbf3270fd	-0.69703656
104	0x3ec330cc	0.38123167
105	0x3f609cf7	0.8773951
106	0x3ef9f0c5	0.48816505
107	0xbf7977b1	-0.9744826
108	0x3db9f1e6	0.090793416
109	0xbe0a059c	-0.13478702
110	0x3f38577c	0.7200849
111	0xbf84ef05	-1.0385443
112	0xbe0832f9	-0.13300695
113	0x3efb767a	0.49113828
114	0x3e84c526	0.25931662
115	0xbf115752	-0.56773865
116	0xbe07ad3d	-0.13249679
117	0xbe0bb9cc	-0.13645095
118	0x3f20ac64	0.6276305
119	0x3e9c91b0	0.305799
120	0x3ef61173	0.48060188
121	0xbf4db038	-0.80347013
122	0xbedcc459	-0.4311855
123	0x3eb4b585	0.35294738
124	0xbf0d9ddb	-0.55318993
125	0x3d20bdbd	0.03924345
126	0xbf3602ce	-0.7109803
127	0x3f703c55	0.9384206

bias f4 [128]
0	0xbdc0c587	-0.09412675
1	0xbf1c1672	-0.6097175
2	0xbf546bb1	-0.82976824
3	0x3f482ea3	0.7819616
4	0x3f5910b3	0.84791106
5	0xbef82ffb	-0.48474106
6	0xbf75b189	-0.9597402
7	0xbf11149a	-0.5667206
8	0xbf65bf93	-0.89745444
9	0xbf3978ca	-0.72449934
10	0x3e8ac4d8	0.27103305
11	0xbef272a3	-0.47353086
12	0x3f3cd683	0.7376482
13	0xbe962293	-0.29323253
14	0xbf5f9c56	-0.87347925
15	0x3f1a8d07	0.6037144
16	0x3a6c62e4	0.00090174214
17	0x3eefc75d	0.4683179
18	0xbedb9d6e	-0.42893547
19	0x3f78a0ba	0.9712025
20	0xbf385ee0	-0.7201977
21	0xbf2ec8aa	-0.6827494
22	0xbf3b9657	-0.73276275
23	0x3ec1becf	0.37840888
24	0xbf627b3d	-0.88469297
25	0xbe3e49a6	-0.18582782
26	0xbf165edf	-0.5873851
27	0x3f535b84	0.82561517
28	0x3f4bd4ac	0.79621387
29	0x3c9f7b7d	0.019468063
30	0x3f23f009	0.6403814
31	0xbf5e0848	-0.86731386
32	0x3f44d1b3	0.76882476
33	0x3d471495	0.048603613
34	0x3e444fdb	0.19171087
35	0x3e54e69f	0.207911
36	0x3e2c1eef	0.16808675
37	0x3e4e2e55	0.20134862
38	0x3eb7a534	0.35868227
39	0xbebc19f8	-0.36738563
40	0xbf0862fb	-0.5327603
41	0x3f45e86e	0.77307785
42	0xbf0805b3	-0.53133696
43	0xbe699a72	-0.22812822
44	0xbe23b6b3	-0.15987663
45	0xbf2b0ca3	-0.6681616
46	0x3f01631d	0.5054186
47	0xbf1b4424	-0.6065085
48	0xbebf69f2	-0.37385517
49	0xbf091dc1	-0.53561026
50	0xbe4393e7	-0.19099389
51	0xbd79ac58	-0.060955375
52	0x3e0a86c2	0.13527969
53	0x3d2abd89	0.04168466
54	0x3f343fb9	0.70409733
55	0xbdf41fb3	-0.11920109
56	0xbf43a04f	-0.76416487
57	0x3f3c9141	0.7365914
58	0x3ee9534d	0.45571366
59	0xbf23708e	-0.6384362
60	0xbeed3703	-0.46331033
61	0x3ecf2558	0.4045818
62	0xbf707254	-0.9392445
63	0xbf435f32	-0.7631713
64	0xbf474059	-0.7783256
65	0x3f2ba804	0.67053246
66	0xbeefaa20	-0.46809483
67	0x3e8e9c7c	0.27853763
68	0x3f479826	0.77966535
69	0xbece0192	-0.40235573
70	0x3e13cf9a	0.14434662
71	0xbedcdc63	-0.43136892
72	0xbf47dbd4	-0.78069806
73	0xbe95b090	-0.2923627
74	0x3f13db3c	0.577564
75	0xbee2c781	-0.44292834
76	0x3e111f2e	0.1417205
77	0xbf06282a	-0.52405035
78	0x3f3a5007	0.7277836
79	0xbf0a6160	-0.5405483
80	0x3efbf982	0.49213797
81	0xbe87e493	-0.26541576
82	0x3e8163af	0.25271365
83	0xbd204cf8	-0.039135903
84	0xbea533d6	-0.3226611
85	0xbeab768c	-0.33488882
86	0x3e86d8fa	0.26337415
87	0xbf752527	-0.95759815
88	0xbeaf9f09	-0.34301022
89	0xbefb5fe7	-0.49096605
90	0xbf2c0090	-0.6718836
91	0xbf38fe0a	-0.7226263
92	0xbed92f76	-0.42419022
93	0x3ec5b2f2	0.38613087
94	0xbe32e329	-0.17469467
95	0xbf178220	-0.5918293
96	0x3f061d68	0.5238862
97	0xbee932ae	-0.45546478
98	0x3f1a69b8	0.60317564
99	0xbf03c58c	-0.5147331
100	0x3f5a64f8	0.85310316
101	0x3e89621c	0.26832664
102	0x3d8235f7	0.06357949
103	0x3ec26017	0.37963936
104	0xbe42c4d1	-0.19020392
105	0xbe95a80f	-0.2922978
106	0x3efb6c1a	0.49105912
107	0xbf414143	-0.75490206
108	0x3ec80a17	0.39070198
109	0xbf650ce7	-0.8947281
110	0xbf3011ee	-0.6877736
111	0x3f49d736	0.7884401
112	0xbf67e07b	-0.90576905
113	0x3f177b39	0.591724
114	0xbf2e5a4e	-0.68106544
115	0x3f4725ff	0.7779235
116	0x3eae3c62	0.34030443
117	0x3ecad6aa	0.396169
118	0xbeee979b	-0.4660004
119	0x3f67cd7b	0.90547913
120	0xbea51b63	-0.32247457
121	0x3ef284b2	0.47366863
122	0x3e86663f	0.26249883
123	0xbd7a5794	-0.061118677
124	0x3f399d5b	0.7250573
125	0xbe35bba9	-0.17747368
126	0x3f4b4a62	0.79410374
127	0x3eb7a35f	0.3586683

weight f4 [128, 128]
0	0x3d5ca0f3	0.05386443
1	0xbd82fc27	-0.063957505
2	0x3d1852d2	0.03718836
3	0x3d16a0de	0.03677451
4	0x3d8e41a8	0.06946117
5	0x3be4989c	0.0069762003
6	0xbd011e51	-0.031523053
7	0x3d67a091	0.056549612
8	0x3cf4aba9	0.02986701
9	0x3d518dd9	0.051160667
10	0x3d9f7ef9	0.0778789
11	0xbda899a0	-0.08232427
12	0x3dbef462	0.09323956
13	0xbd5de65e	-0.054174773
14	0x3c6202b2	0.013794588
15	0xbcf1f790	-0.029536992
16	0xbbd3a793	-0.0064591854
17	0xbc57a9a7	-0.013163007
18	0xbba91660	-0.005160138
19	0xbd9f434b	-0.07776507
20	0x3cce291d	0.025166089
21	0x3bfc039d	0.0076908604
22	0x3d8f3ae8	0.06993657
23	0xbb245974	-0.0025077732
24	0x3d1ef1da	0.038804866
25	0x3d2a152d	0.0415241
26	0x3ccb4670	0.02481386
27	0xbd265b4e	-0.04061442
28	0x3d72b939	0.059258673
29	0xbbc4d503	-0.0060068383
30	0x3d7d030c	0.061770484
31	0xbc69f853	-0.0142803965
32	0x3d7ef165	0.06224193
33	0xbdca3b6b	-0.09874614
34	0xbd0d5f9b	-0.034515005
35	0xbc7d3e5a	-0.01545676
36	0x3d941f4d	0.07232533
37	0xbca3bebb	-0.019988408
38	0x3da9e3da	0.08295412
39	0xbca1cb66	-0.019750308
40	0xbbdc7e89	-0.0067289514
41	0x3c756a63	0.014978978
42	0xbdbd35d8	-0.092387855
43	0x3d1484aa	0.03625933
44	0x3d8f1201	0.06985856
45	0x3d68cc46	0.056835435
46	0x3d56abf8	0.052410096
47	0xbd108852	-0.035286255
48	0x3d894cdb	0.06704112
49	0x3d88ceb8	0.066800535
50	0x3c675b3a	0.014120871
51	0xbdc2f7bb	-0.09519907
52	0xbda3fecd	-0.08007584
53	0xbce1f9b8	-0.027584895
54	0x3cdd3e83	0.027007347
55	0x3a489aa6	0.0007652439
56	0xbbff2430	-0.0077862963
57	0xbd75fde8	-0.060056597
58	0xbd4b5077	-0.049637284
59	0xbcf01c36	-0.029310327
60	0xbd5f8062	-0.054565795
61	0x3c6704ca	0.014100263
62	0x3d82bce3	0.063836835
63	0xbd810aea	-0.0630091
64	0xbcf63045	-0.030052314
65	0xbd4ab81a	-0.04949198
66	0x3c909924	0.017651148
67	0xbd29b6fb	-0.04143427
68	0xbdb8f3fa	-0.0903091
69	0xbce1f8b6	-0.027584415
70	0x3d2c95ab	0.042134922
71	0xbd607837	-0.054802146
72	0xbdbf5bdf	-0.09343695
73	0x3d8c7256	0.06857745
74	0x3cedbd18	0.029020831
75	0xbc853834	-0.016262151
76	0xbd6c7619	-0.057729814
77	0x3bc4b1ff	0.006002664
78	0xbd80c03c	-0.06286666
79	0x3d8de442	0.06928302
80	0xbba28480	-0.004959643
81	0x3d2294ef	0.039692815
82	0x3ced511f	0.028969346
83	0x3d8d0b03	0.06886866
84	0x3d868de8	0.06570035
85	0x3db658f2	0.08903684
86	0xbd27cd30	-0.040967166
87	0xbd323f96	-0.04351767
88	0x3d26d122	0.04072679
89	0x3c5ceea8	0.013484634
90	0x3dae75b5	0.085185446
91	0x3c894fdb	0.01676171
92	0xbd9af00e	-0.07565318
93	0x3d87a9da	0.066241935
94	0x3d2cf8d9	0.042229507
95	0x3c7a1d8a	0.015265832
96	0xbd9bd9c7	-0.07609897
97	0xbd47eb3e	-0.04880833
98	0x3d3f780e	0.046745352
99	0xbd121713	-0.035666537
100	0x3b4dd813	0.0031409308
101	0x3c9e3a40	0.019314885
102	0x3d16ceec	0.03681843
103	0xbc16c0db	-0.009201254
104	0x3d628f3b	0.055312376
105	0xbcbee26b	-0.023301324
106	0x3b97a13c	0.004627375
107	0x3ca51312	0.020150695
108	0xbdc5da5c	-0.09660789
109	0x3d2f8988	0.04285577
110	0xbd06b22f	-0.032884773
111	0x3d8d6382	0.06903745
112	0x3d163af2	0.03667731
113	0xbcd8a4ea	-0.026445825
114	0x3d9ce50e	0.07660876
115	0xba220698	-0.0006180792
116	0xbcff5b49	-0.031171458
117	0x3d93b06f	0.072113864
118	0xbda42cda	-0.08016367
119	0xbda0e756	-0.07856624
120	0x3d6076fd	0.054800976
121	0x3d0146dc	0.031561717
122	0xbca0faed	-0.0196509
123	0xbdb3fc59	-0.08788366
124	0x3d50ae29	0.050947342
125	0xbdbccfae	-0.09219299
126	0xbd5e90fd	-0.05433749
127	0xbd245bb0	-0.040126503
128	0xbd029290	-0.031878054
129	0x3ca040c2	0.019562129
130	0xbdb3feb6	-0.08788817
131	0x3dacaaf7	0.084310465
132	0xbd8158d6	-0.06315772
133	0x3dbe30e0	0.09286666
134	0xbc03c26e	-0.008041961
135	0xbd8d93da	-0.06912966
136	0x3ce921e1	0.028458538
137	0x3d35e1c1	0.04440475
138	0xbd11fe54	-0.035642937
139	0x3dac0f8a	0.08401401
140	0x3e0284a5	0.12745912
141	0x3a925caf	0.0011166538
142	0xbd61ced6	-0.055128895
143	0x3da0a1f9	0.07843394
144	0x3d643e93	0.055723738
145	0x3da5c08c	0.08093366
146	0xbd884ead	-0.06655631
147	0xbc85afc6	-0.016319167
148	0xbd4247fb	-0.047431927
149	0xbdaea223	-0.08527019
150	0x3d017a49	0.03161076
151	0xbcfe90a7	-0.031074835
152	0x3d27c395	0.040958006
153	0x3db67bc8	0.08910328
154	0x3d9d7b0d	0.07689486
155	0xbcf6861e	-0.030093249
156	0x3d3e32b2	0.046435066
157	0x3cc49e4a	0.02400126
158	0x3dec0ce5	0.11525897
159	0x3c753882	0.014967086
160	0xbd5b0975	-0.053475816
161	0x3d05d179	0.03267047
162	0xbd05d6d6	-0.032675587
163	0x3d8cae2c	0.06869158
164	0x3c5c266d	0.013436896
165	0x3bfb3c96	0.0076671345
166	0xbc23db69	-0.010001042
167	0x3db21512	0.08695425
168	0xbdada87e	-0.08479403
169	0x3d1cf3f1	0.03831858
170	0xbc1228c6	-0.008920854
171	0xbd01782b	-0.03160874
172	0xbc4d0628	-0.012513675
173	0xbd6f8bad	-0.058482815
174	0xbd65adce	-0.056073956
175	0xbd5df7c3	-0.054191362
176	0x3c9a400f	0.018829374
177	0x3c536940	0.0129035115
178	0x3da05abf	0.078298084
179	0xbcebaa30	-0.028767675
180	0xbb63bd62	-0.0034750332
181	0x3cfab0f5	0.030601958
182	0xbc931dfe	-0.017958637
183	0xbc93c4a0	-0.018038094
184	0xbdab816f	-0.08374297
185	0x3d62b27e	0.055346005
186	0x3d48ef64	0.049056426
187	0x3d7c5030	0.06159991
188	0xbd3337ac	-0.043754265
189	0x3d4f0230	0.050539196
190	0xbdade41b	-0.08490773
191	0xbcb46bb9	-0.022024022
192	0xbd34a936	-0.044106685
193	0x3c7fadf4	0.0156054385
194	0xbd58086f	-0.052742418
195	0x3dccccab	0.09999975
196	0xbcb566d5	-0.02214376
197	0x3c81b8c7	0.015835179
198	0xbccda226	-0.025101732
199	0xbdaa1ca6	-0.083062455
200	0x3d7a474b	0.061103147
201	0x3c8eae20	0.017417014
202	0xbdc36b0e	-0.095419034
203	0xbda7ad49	-0.081873484
204	0xbc921275	-0.017831067
205	0x3d466d05	0.048443813
206	0xbd8b8134	-0.06811753
207	0xbdb093a0	-0.08621907
208	0x3d16a01a	0.03677378
209	0xbd524594	-0.051335886
210	0x3bbdb51e	0.005789413
211	0x3d962a20	0.073322535
212	0x3d04e947	0.032449033
213	0xbcd9890f	-0.026554612
214	0xbcae6cdd	-0.021292144
215	0xbd3ca2b9	-0.046053622
216	0x3d9aaa7d	0.07552049
217	0xbc80e116	-0.01573233
218	0x3cc76d2b	0.024344048
219	0xbd187bd9	-0.037227485
220	0xbda35a85	-0.079762496
221	0xbd1c4742	-0.038153894
222	0x3c9d717e	0.019219156
223	0x3dc21d06	0.09478192
224	0x3c2cb891	0.010542051
225	0xbd96dbea	-0.07366164
226	0xbca8c9ba	-0.020604003
227	0x3dbe2776	0.0928487
228	0xbd5b3e2c	-0.05352609
229	0xbd20722b	-0.03917138
230	0xbd47df67	-0.048797037
231	0xbcb5e007	-0.022201551
232	0xbdcbc646	-0.09949927
233	0x3cde4091	0.027130397
234	0x3dadea1b	0.08491918
235	0xbc071b20	-0.008246213
236	0xbd71a425	-0.05899443
237	0x3dafcda8	0.08584148
238	0x3d18c0ca	0.037293233
239	0x3cb23ea5	0.021758387
240	0x3d9f1d22	0.077692285
241	0x3dce7195	0.10080258
242	0x3d1704f9	0.036869977
243	0xbda15777	-0.07878011
244	0x3cbddfe0	0.023178041
245	0x3c865403	0.016397482
246	0x3d68a6ca	0.056799687
247	0xbd87d79c	-0.06632921
248	0xbddec801	-0.108779915
249	0x3d1f399e	0.038873307
250	0x3c45217a	0.012031907
251	0xbd3465e9	-0.0440425
252	0x3c19e1cc	0.009392213
253	0xbd92fdc7	-0.071773104
254	0x3da02720	0.078199625
255	0x3d1d591b	0.038415056

bias f4 [128]
0	0xbdb1f23f	-0.08688783
1	0xbd6fd746	-0.05855491
2	0x3dd85fd9	0.105651565
3	0xbdc38b6d	-0.09548078
4	0xbdac6c79	-0.08419127
5	0xbccce605	-0.025012026
6	0x3d308f2d	0.043105293
7	0xbdd0024d	-0.10156689
8	0xbcf1804b	-0.02948012
9	0x3d74971b	0.059714418
10	0x3d453fe9	0.048156653
11	0x3c64f677	0.013974777
12	0xbdb60160	-0.08886981
13	0x3da3413f	0.07971429
14	0x3d95f9aa	0.0732301
15	0x3da88bf3	0.08229818
16	0xbc084daf	-0.008319302
17	0x3cf17002	0.029472355
18	0x3d7b389b	0.06133328
19	0xbd5e67e4	-0.054298297
20	0x3c052f82	0.0081290025
21	0x3b29082b	0.0025792222
22	0xbda62987	-0.081133895
23	0xbc31ffef	-0.010864242
24	0x3d44b131	0.048020545
25	0xbbd86c37	-0.006604697
26	0xbd807922	-0.06273104
27	0xbd970471	-0.07373894
28	0x3c822d99	0.015890883
29	0x3ce9c5bb	0.028536668
30	0xbd9280ce	-0.07153474
31	0x3cbaa411	0.022783311
32	0x3d21f5e9	0.03954116
33	0x3cae20f0	0.02125594
34	0xbd76b194	-0.060227945
35	0xbca670fa	-0.020317543
36	0x3c15620d	0.009117615
37	0xbb947832	-0.00453093
38	0xbd37dc00	-0.044887543
39	0xbd86e02c	-0.06585726
40	0xbdab3b49	-0.08360917
41	0xbc23b237	-0.00999122
42	0xba1ebe60	-0.000605559
43	0xbdeacdf7	-0.11465066
44	0x3cb60d0b	0.022223016
45	0x3da0b57f	0.07847118
46	0xbd93d579	-0.07218451
47	0x3d367459	0.04454455
48	0x3c29905d	0.01034936
49	0xbc1453be	-0.009053169
50	0x3d12530f	0.035723742
51	0x3cb81a90	0.022473603
52	0xbcab054c	-0.02087655
53	0x3cd31712	0.025767837
54	0xbcd7da20	-0.026349127
55	0xbc26dd7b	-0.010184641
56	0x3d9cde92	0.076596394
57	0x3d362a43	0.044473898
58	0xbd834690	-0.06409943
59	0xbcae065b	-0.021243265
60	0xbe08e38e	-0.13368055
61	0xbdb577f7	-0.08860772
62	0xbd4cc612	-0.049993582
63	0x3d94b379	0.07260794
64	0xbda72717	-0.08161753
65	0xbd2f9740	-0.042868853
66	0xbd148532	-0.036259837
67	0xbd8576cc	-0.06516799
68	0x3d1969b9	0.03745434
69	0xbdaeb72c	-0.08531031
70	0xbd1d227e	-0.038362972
71	0x3cb85676	0.022502165
72	0x3d94f642	0.072735325
73	0xbcd4621b	-0.025925687
74	0xbd0e399b	-0.034722906
75	0xbd1c99d0	-0.038232625
76	0x3c27008f	0.010193004
77	0xbd9f758f	-0.077860944
78	0x3dc9cc10	0.09853375
79	0xbd2f316e	-0.04277175
80	0x3dba88c5	0.09108118
81	0xbcb4d0db	-0.022072246
82	0xbd57a7d2	-0.05265028
83	0x3d7bb5cb	0.06145267
84	0xbca70fc8	-0.020393267
85	0xbce9da40	-0.028546453
86	0x3cfb3e14	0.03066925
87	0x3d1b9ec8	0.037993222
88	0x3d8c64d2	0.068551674
89	0x3afc17c3	0.0019233156
90	0x3d61b34b	0.055102628
91	0x3daa01bf	0.08301114
92	0x3d7deef7	0.061995473
93	0x3d951963	0.07280233
94	0x3cc0bb28	0.023526743
95	0x3c8597e5	0.01630778
96	0x3cd22bd4	0.025655665
97	0xbc9fce91	-0.019507678
98	0xbd827a4b	-0.06370982
99	0x3d847663	0.06467893
100	0x3d680b68	0.056651503
101	0x3d175df8	0.03695485
102	0x3d81e22d	0.06341968
103	0xbd8bc9ad	-0.06825576
104	0x3dd0ccd6	0.10195319
105	0x3db906fa	0.09034534
106	0xbc340966	-0.010988569
107	0xbd3c6a7e	-0.045999996
108	0x3dc1b3ea	0.09458144
109	0x3d2ee8a0	0.042702317
110	0xbcbacfd5	-0.02280418
111	0x3b5e4d6d	0.003392066
112	0x3d611ca9	0.054958973
113	0x3cdeb093	0.027183807
114	0x3dc41160	0.095736265
115	0xbd0daa59	-0.034586284
116	0x3d350395	0.04419287
117	0xbdca8b09	-0.098898
118	0x3cf0dfb5	0.029403547
119	0x3d374e92	0.044752665
120	0xbcdf200e	-0.027236965
121	0x3c7a6b18	0.015284322
122	0x3c7915d8	0.015202962
123	0x3da21339	0.07913823
124	0x3cdb0f43	0.026740676
125	0xbcd9c86f	-0.026584832
126	0xbcddd36a	-0.02707835
127	0x3d284523	0.04108156

weight f4 [128, 128]
0	0x3dbe1fa2	0.09283377
1	0xbc38167e	-0.011235831
2	0xbdcb50cc	-0.0992752
3	0x3aeb357c	0.0017945017
4	0x3da741ae	0.08166824
5	0xbcfdc22e	-0.030976381
6	0xbd8a0a2f	-0.067402236
7	0x3c9fb033	0.019493198
8	0x3d228069	0.039673243
9	0xbd987ab5	-0.074452795
10	0xbdaecb94	-0.08534923
11	0x3bec621d	0.0072138445
12	0xbcf9624a	-0.030442376
13	0x3ba4ce4b	0.005029475
14	0x3d2254cb	0.039631646
15	0xbd04764e	-0.032339387
16	0xbd73d28a	-0.059526958
17	0xbc59636c	-0.013268333
18	0xbc076fa2	-0.008266361
19	0xbd973d5f	-0.073847525
20	0x3c3517fa	0.01105308
21	0xbbe76ad5	-0.007062296
22	0x3d0b684c	0.034035012
23	0xbda8fe5a	-0.08251639
24	0xbceb9f09	-0.028762357
25	0xbca1ab5d	-0.019735033
26	0xbd1b5be6	-0.037929438
27	0x3d5c5aef	0.05379766
28	0xbd6f9c47	-0.058498647
29	0xbd983dfb	-0.07433697
30	0x3d9fbcdf	0.07799696
31	0xbda8b352	-0.08237328
32	0x3d488353	0.048953366
33	0x3d7bc20a	0.061464347
34	0x3d473991	0.048638884
35	0xbd80f29d	-0.06296275
36	0xbd81835e	-0.063238844
37	0xbd85e66e	-0.065380916
38	0x3d619699	0.05507526
39	0x3dd8b581	0.10581494
40	0xbbebf65f	-0.0072010006
41	0xbd92b227	-0.07162886
42	0x3d6af9e6	0.057367228
43	0xbb27d70d	-0.0025610358
44	0xbd7139d7	-0.05889305
45	0x3d7bfc79	0.061520074
46	0x3cf55dde	0.029951986
47	0xbdc66c49	-0.096886225
48	0xbd542865	-0.051796336
49	0x3d5ebbeb	0.05437843
50	0xbcdddc23	-0.027082508
51	0xbdac488e	-0.08412276
52	0x3db71e7b	0.089413606
53	0x3d0688ae	0.03284519
54	0x3dc6cf53	0.09707513
55	0x3d9001d6	0.070316
56	0xbdb9d723	-0.09074237
57	0xbd75ac83	-0.059978973
58	0x3d82ec55	0.06392733
59	0x3c328c79	0.010897749
60	0x3dc0b5d7	0.09409683
61	0x3d9d3732	0.07676543
62	0x3dbf86f4	0.09351912
63	0x3cccb666	0.024989318
64	0xbd88afab	-0.06674131
65	0xbda36098	-0.07977408
66	0xbd82338d	-0.06357489
67	0xbd9cff3d	-0.0766587
68	0xbc270df8	-0.0101962015
69	0x3d9824ca	0.07428892
70	0xbd05b0d5	-0.032639343
71	0xbd816238	-0.06317562
72	0xbdafb72c	-0.08579859
73	0xbd8a5bae	-0.06755768
74	0xbcee088b	-0.029056808
75	0xbd92ab9f	-0.071616404
76	0x3ddb34b0	0.10703409
77	0xbc96a2fe	-0.018388268
78	0xbd48ac0c	-0.0489922
79	0x3ddf43e3	0.1090162
80	0xbc975e8e	-0.018477704
81	0x3cbcec40	0.023061872
82	0x3d278be5	0.0409049
83	0x3d58078f	0.052741583
84	0xbd58104d	-0.05274992
85	0xbd86e16b	-0.06585964
86	0x3d990982	0.074725166
87	0xbbb41653	-0.0054958253
88	0xbd0c21bd	-0.034211863
89	0xbd9a893a	-0.07545705
90	0x3db52d87	0.08846574
91	0x3d52f7cc	0.05150585
92	0xbbb04d61	-0.005380318
93	0x3d387354	0.04503186
94	0xbd2f614f	-0.04281741
95	0x3d972c20	0.07381463
96	0x3d8ed9a6	0.06975107
97	0x3cc284b6	0.023744922
98	0x3d66338b	0.0562015
99	0xbd091da4	-0.033475533
100	0x3d9bab70	0.076010585
101	0x3db5efdb	0.088836394
102	0xbc8d859c	-0.017275624
103	0xbd556926	-0.05210223
104	0xbc9ba1b7	-0.01899801
105	0x3c28df39	0.010307127
106	0xbd1e42e5	-0.038638014
107	0x3d8d03ff	0.06885528
108	0x3c2236f2	0.009900795
109	0x3db3b5da	0.0877492
110	0x3da50788	0.08058077
111	0xbcc0b35f	-0.02352303
112	0x39d262a4	0.00040127814
113	0x3d91c38a	0.07117374
114	0xbd9d059e	-0.07667087
115	0xbd03a54b	-0.032140058
116	0xbd4f3d25	-0.05059542
117	0x3cc7b521	0.024378361
118	0x3db6baf9	0.08922381
119	0xbade8b6e	-0.0016978809
120	0xbd8746b6	-0.06605284
121	0xbd88917f	-0.06668376
122	0x3d2eb85c	0.042656288
123	0x3d48f819	0.04906473
124	0x3d0a7729	0.033805046
125	0xbd344c7f	-0.044018265
126	0x3d993d04	0.07482341
127	0xbcc576c7	-0.024104489
128	0x3da0c7e3	0.07850625
129	0x3d1e1b7f	0.03860044
130	0xbd281c28	-0.041042477
131	0xbcd912bd	-0.026498193
132	0xbdd45768	-0.10368234
133	0xbd0036c1	-0.031302217
134	0x3d96c013	0.07360854
135	0xbd8f3374	-0.06992236
136	0xbd30e170	-0.043183744
137	0xbdb93f31	-0.09045256
138	0x3d31e3d5	0.04343017
139	0xbc8f5b45	-0.017499575
140	0x3d033f9d	0.03204309
141	0xbcec2589	-0.028826492
142	0xbd236c96	-0.039898477
143	0xbd3127b3	-0.04325075
144	0x3d8826a5	0.06647996
145	0xbd21a6e7	-0.03946581
146	0x3d7f74fb	0.06236742
147	0xbd15553a	-0.03645823
148	0xbdc1a285	-0.09454826
149	0x3d77889b	0.06043301
150	0xbd4399d4	-0.047754124
151	0x3d8ea4e4	0.06965044
152	0xbd9aab3d	-0.07552192
153	0x3d27e768	0.04099217
154	0x3cc1013e	0.023560163
155	0xbcdf7e9b	-0.02728205
156	0x3d8092b0	0.062779784
157	0xbc988994	-0.01862029
158	0xbda9f030	-0.08297765
159	0x3db9b10e	0.090669736
160	0x3da08cce	0.07839356
161	0xbd4cd9ec	-0.050012514
162	0xbd7cd302	-0.06172467
163	0x3c757727	0.014982021
164	0x3c1c88e7	0.009554124
165	0x3dad7bd9	0.08470888
166	0x3d93c50a	0.072153166
167	0x3c820f31	0.015876384
168	0x3d4262c6	0.04745748
169	0xbc4edefa	-0.012626404
170	0xbde5fd30	-0.11229932
171	0xbd8d1bf6	-0.06890099
172	0xbc999ea8	-0.018752411
173	0x3d2bb717	0.041922655
174	0xbdc2d963	-0.095141195
175	0xbd407f93	-0.046996664
176	0xbd6d3584	-0.057912365
177	0x3cc63cce	0.024198916
178	0xbcce3963	-0.025173848
179	0x3d444b43	0.047923338
180	0x3c5b494d	0.0133841755
181	0x3d3a53f9	0.04549024
182	0x3d44b73b	0.048026305
183	0xbcd04778	-0.025424704
184	0x3dc9341d	0.09824393
185	0x3d9396b1	0.072064765
186	0x3c5cac63	0.013468835
187	0x3ca0941d	0.019601876
188	0x39465135	0.00018913003
189	0xbd7bb7bf	-0.06145453
190	0xbca00b59	-0.019536661
191	0xbd9d9f5b	-0.0769641
192	0xbc337807	-0.01095391
193	0x3dba599f	0.09099125
194	0x3dc89245	0.09793524
195	0x3d222cbe	0.03959345
196	0x3d47d879	0.04879043
197	0x3bbb25b3	0.005711281
198	0xbcf03afd	-0.029325003
199	0xbcd4c4e1	-0.025972785
200	0x3d7c3e62	0.06158293
201	0x3d682916	0.056679808
202	0x3d6337c2	0.055473097
203	0xbd26e9fc	-0.04075049
204	0xbc66e64e	-0.014092995
205	0xb7e181e5	-2.6882577e-05
206	0x3db81669	0.089886494
207	0xbd9d4290	-0.076787114
208	0xbd972a45	-0.07381109
209	0x3d9fe614	0.07807556
210	0xba973faa	-0.0011539359
211	0x3d98218d	0.07428274
212	0xbbf5d080	-0.007501662
213	0x3ca4737e	0.020074602
214	0xbc2b0487	-0.010438091
215	0x3d3b09a2	0.045663483
216	0xbd20ebd3	-0.0392874
217	0xbd543613	-0.05180938
218	0xbd89ae5b	-0.06722709
219	0x3d2bedc5	0.0419748
220	0x3da7707d	0.08175752
221	0xbcf9e13e	-0.030502912
222	0x3dbdf1e7	0.09274655
223	0x3c61111d	0.01373699
224	0xbd9c9195	-0.07644955
225	0x3d36f62b	0.044668358
226	0x3cdc2f3a	0.026877988
227	0xbd45c8ff	-0.048287388
228	0xbd1faad4	-0.038981274
229	0x3c137421	0.008999855
230	0x3d35d052	0.044388123
231	0xbd05487d	-0.032539833
232	0x3d686341	0.05673528
233	0x3dadb500	0.08481789
234	0x3d83c703	0.06434443
235	0x3c7f6bcb	0.015589665
236	0x3d24cb47	0.040232923
237	0xbc4d16be	-0.012517629
238	0x3d75ba25	0.059991974
239	0x3dc1b5e3	0.0945852
240	0x3af95dbd	0.0019025129
241	0xbdebc2f9	-0.115117975
242	0x3b8ca24e	0.004291809
243	0xbdc3586e	-0.09538351
244	0x3d256c45	0.040386457
245	0x3c3bd8ec	0.011465292
246	0x3d631eca	0.055449285
247	0xbb7ab162	-0.00382527
248	0xbd95e641	-0.07319308
249	0x3d44bc04	0.04803087
250	0x3d47695b	0.04868446
251	0xbc78ff05	-0.01519752
252	0x3d760742	0.060065515
253	0xbdab4dab	-0.08364423
254	0xbd3dc25f	-0.046327945
255	0x3d92a7f3	0.0716094

bias f4 [128]
0	0x3d6ea650	0.058264077
1	0x3dbe3a4b	0.09288462
2	0x3d04e4f9	0.032444928
3	0xbca30310	-0.019898921
4	0x3da02444	0.07819417
5	0xbd8ced59	-0.06881208
6	0x3d80b8a6	0.06285219
7	0xbb6613fd	-0.0035107129
8	0x3cfbacc5	0.030722031
9	0xbdb444ce	-0.08802186
10	0x3c92daa3	0.01792652
11	0x3dbd6f9d	0.09249804
12	0x3d79dd3a	0.061001994
13	0x3da01275	0.078160204
14	0xbdb6aa46	-0.08919196
15	0xbd60a8f6	-0.054848634
16	0xba842b8b	-0.0010083778
17	0x3dac972a	0.0842727
18	0x3d67865e	0.056524627
19	0x3d2b0e10	0.041761458
20	0x3da74ed6	0.08169334
21	0xbdb99357	-0.09061306
22	0x3d402864	0.04691352
23	0xbdad8616	-0.084728405
24	0x3cac6e4c	0.021048687
25	0xbd7b6ffa	-0.061386086
26	0xbd46b439	-0.048511717
27	0x3dc4a623	0.096020006
28	0xbd8e12c4	-0.06937173
29	0xbd75fa79	-0.060053322
30	0x3cbebec0	0.023284316
31	0xbd5663c3	-0.052341234
32	0xbd270b99	-0.040782545
33	0x3c249d55	0.0100472765
34	0x3d9e3e28	0.07726699
35	0xba48da4d	-0.0007661924
36	0xbd6c2a94	-0.057657793
37	0xbd3197be	-0.043357603
38	0x3da73f88	0.081664145
39	0x3dc41bf4	0.09575644
40	0x3d5190d0	0.051163495
41	0xbd1078de	-0.035271518
42	0x3d35f033	0.044418525
43	0x3d7c52dd	0.061602462
44	0x3c982d7d	0.018576378
45	0x3d8d213e	0.06891106
46	0xbbd48682	-0.006485761
47	0x3ccb55ad	0.024821127
48	0x3ca49037	0.020088298
49	0x3d9ef945	0.07762388
50	0xbd1a82fd	-0.037722576
51	0x3d899028	0.06716949
52	0xbd6594c7	-0.05605009
53	0xbd6b35b3	-0.05742426
54	0x3b38854f	0.002815563
55	0xbd9e766a	-0.077374294
56	0x3cc1a87e	0.023639914
57	0xbd88cded	-0.06679902
58	0x3d73d0d4	0.059525326
59	0xbd980e78	-0.07424635
60	0xbcfe0731	-0.031009289
61	0xbb6fcd5e	-0.0036590914
62	0xbd5450d9	-0.051834915
63	0x3c71596d	0.014730793
64	0x3d3486c1	0.044073824
65	0xbcf33a37	-0.029690845
66	0x3d8e4120	0.06946015
67	0xbd59368b	-0.05303053
68	0x3db96e87	0.090542845
69	0xbd961a12	-0.07329191
70	0xbd86dab1	-0.06584681
71	0x3cf91424	0.030405112
72	0xba5493e7	-0.00081091974
73	0xbd98b882	-0.07457067
74	0xbd3b094b	-0.04566316
75	0xbd08311b	-0.033249956
76	0xbd79ed5c	-0.06101738
77	0xbd703b0c	-0.05865006
78	0xba1384aa	-0.00056273735
79	0xbd7ac061	-0.061218623
80	0xbccb6b35	-0.024831394
81	0x3d7d0f6d	0.06178229
82	0x3d01d21c	0.031694517
83	0xbd0ff76a	-0.03514806
84	0xbbcb33e2	-0.0062012533
85	0x3d28a2af	0.041170772
86	0x3d9e827b	0.07739731
87	0x3d84b71c	0.06480238
88	0x3b9019a3	0.0043975874
89	0x3d90aa7b	0.070637666
90	0xbdbfa4df	-0.093576185
91	0xbbc87859	-0.006117862
92	0xbcd8f15d	-0.026482278
93	0xbcb5e1c8	-0.022202387
94	0xbdcd7cc3	-0.10033562
95	0xbd61663e	-0.055029146
96	0xbc387473	-0.011258232
97	0x3d981d15	0.07427422
98	0x3d2c5f04	0.0420828
99	0xbd8d17ac	-0.06889281
100	0xbd15f24b	-0.03660802
101	0xbb57bfac	-0.0032920642
102	0xbd3f8f3f	-0.04676747
103	0x3ad5706e	0.0016284117
104	0xbaf77ca0	-0.0018881746
105	0xbd133570	-0.035939634
106	0xbdbec19b	-0.09314271
107	0x3cf7e4da	0.030260492
108	0x3d243691	0.0400911
109	0x3c929da4	0.017897435
110	0x3d420c81	0.047375206
111	0xbd9b4a69	-0.07582552
112	0xbd83606d	-0.06414876
113	0xbd850411	-0.06494916
114	0x3d964ba1	0.07338644
115	0x3ceb750f	0.028742341
116	0xbd4ca786	-0.04996445
117	0x3c3da0b6	0.011573961
118	0xbdbf9071	-0.09353722
119	0xbdabd283	-0.08389761
120	0xbca14c8b	-0.019689819
121	0x3d8af115	0.06784264
122	0x3ce90c08	0.02844812
123	0xbd8f9770	-0.07011306
124	0xbcd5e52b	-0.026110252
125	0xbda30f08	-0.07961851
126	0xbd3ef5d0	-0.046621144
127	0xba30f4c7	-0.0006750342

weight f4 [128, 128]
0	0x3d108858	0.035286278
1	0xbc485a90	-0.012228623
2	0xbce5558d	-0.027994895
3	0x3bb5b0dd	0.0055447654
4	0x3c89b982	0.01681209
5	0xbd0dc536	-0.034611903
6	0xbda33a23	-0.07970073
7	0xbcd19071	-0.02558157
8	0x3cdc0b35	0.026860813
9	0x3db56481	0.0885706
10	0xbcfbd5bc	-0.030741565
11	0x3d4fc609	0.05072597
12	0xbd4d4c9b	-0.050121885
13	0xbc3d57cb	-0.011556576
14	0x3d2b1ac6	0.04177358
15	0xbd3f3a73	-0.0466866
16	0x3d802933	0.06257858
17	0xbc101ad9	-0.0087954635
18	0x3d86281d	0.0655062
19	0x3da05ad6	0.078298256
20	0xbd518757	-0.05115446
21	0x3c9707c4	0.01843632
22	0xbd96db90	-0.07366097
23	0xbdbc2290	-0.0918628
24	0x3ddd124a	0.10794504
25	0xbc96c947	-0.018406523
26	0xbd490fad	-0.049087215
27	0x3c936cb3	0.017996168
28	0xba95cd19	-0.0011428922
29	0xbd96dd70	-0.073664546
30	0x3d389f88	0.045074016
31	0x3ccbc7fd	0.024875635
32	0xbd5ee668	-0.05441895
33	0x3cc34257	0.023835344
34	0x3d6a55f0	0.057210863
35	0xbdaf219d	-0.08551333
36	0x3ce49381	0.027902367
37	0x3d84ae1f	0.064785235
38	0x3d7e536b	0.062091272
39	0x3d8daf4d	0.069182016
40	0xbda14581	-0.07874585
41	0xbc49f84b	-0.012327264
42	0x3d993bac	0.07482085
43	0xbbf27994	-0.007399747
44	0x3ded4525	0.11585454
45	0x3d2f714f	0.04283267
46	0xbde969e9	-0.11397154
47	0x3d2cc313	0.042178225
48	0xbd4fe6a9	-0.050757084
49	0xbda6f2aa	-0.08151753
50	0x3d4625ca	0.048375882
51	0x3c65cc89	0.014025816
52	0xbca0738a	-0.019586343
53	0x3d71c739	0.059027884
54	0x3d8a72c0	0.06760168
55	0x3d0a32c2	0.033739813
56	0x3ceb40c4	0.028717406
57	0xbd0a8e9c	-0.03382741
58	0xbd18bbcf	-0.037288483
59	0x3e3d9a2f	0.18515848
60	0xbdb9b60f	-0.09067928
61	0xbc4ca06d	-0.01248942
62	0x3d9874e7	0.07444172
63	0xbc874648	-0.016513005
64	0xbda39600	-0.079875946
65	0xba42eab9	-0.0007435489
66	0xbbb33a9d	-0.0054696337
67	0xbd821807	-0.06352239
68	0xbd8a3084	-0.06747535
69	0x3d54d0dd	0.051957
70	0x3db039b3	0.08604755
71	0x3dbcfa16	0.092273876
72	0x3d202a15	0.039102633
73	0x3e076895	0.13223489
74	0xbc1d164f	-0.009587838
75	0xbb86a9d8	-0.0041096024
76	0xbb716bfd	-0.0036838048
77	0xbb2cf3eb	-0.0026390504
78	0x3acd6fad	0.0015673541
79	0xbb3a494c	-0.0028425036
80	0x3d29b980	0.041436672
81	0xbd1aec74	-0.037823156
82	0xbd9318a0	-0.07182431
83	0x3dd0e61e	0.10200141
84	0x3dc7de67	0.09759217
85	0x3d5120d1	0.051056687
86	0x3ccb6027	0.024826122
87	0xbe20e31b	-0.15711634
88	0xbcdbcf3a	-0.026832212
89	0xbd971087	-0.07376199
90	0x3d75be14	0.059995726
91	0xbc6439e6	-0.01392982
92	0x3c4f196d	0.012640339
93	0xbd63dd63	-0.055631053
94	0x3d94137d	0.072302796
95	0xbc30f956	-0.010801634
96	0xbd11e654	-0.03562005
97	0xbd9ff9b5	-0.078113
98	0x3da3f3e2	0.08005501
99	0x3ce5f578	0.02807115
100	0xbe49e0bc	-0.19714636
101	0xbd46f5af	-0.048574146
102	0x3c1d4db7	0.009601048
103	0x3c2734b7	0.010205439
104	0xbdccad30	-0.099939704
105	0x3ad0a7b7	0.0015919124
106	0xbdde0ce4	-0.108423024
107	0x3d337c4d	0.043819714
108	0xbb7a0ebe	-0.003815576
109	0x3d02eeeb	0.03196613
110	0xbc2bcc65	-0.010485743
111	0xbd784425	-0.060611863
112	0x3c9db0e3	0.019249385
113	0xbd763266	-0.060106657
114	0x3dd17a6f	0.102284305
115	0xbc8d5a97	-0.01725511
116	0xbcc2c224	-0.023774214
117	0x3d2b7706	0.041861556
118	0x3cb22a86	0.021748792
119	0xbd436ce0	-0.047711253
120	0xbde1f1e8	-0.11032468
121	0x3cd4ae07	0.025961889
122	0x3d77c805	0.060493488
123	0x3dc34da9	0.09536297
124	0xbdb74b20	-0.08949876
125	0xbdcb46e6	-0.09925632
126	0x3c0215e8	0.007939793
127	0x3d651737	0.055930343
128	0xbd4e29d4	-0.05033286
129	0x3d9be542	0.07612087
130	0xbd64dc72	-0.055874296
131	0x3b30178e	0.0026869508
132	0x3bf0fa4e	0.0073540574
133	0xbd9bf50e	-0.076151
134	0x3dabf0c1	0.083955295
135	0xbcd3a5a8	-0.025835827
136	0x3d42682e	0.047462635
137	0xbdabe346	-0.08392958
138	0xbd2378a7	-0.039909985
139	0xbc8b0f1e	-0.016974982
140	0x3c3a601b	0.011375452
141	0x3d8b7125	0.0680869
142	0x3d53c5c4	0.051702276
143	0xbdbfa014	-0.09356704
144	0x3d4f8659	0.050665233
145	0xbd460a74	-0.048349813
146	0xbd675eb5	-0.056486804
147	0x3d8a8594	0.06763759
148	0x3b0be825	0.0021348086
149	0x3c93adbe	0.018027183
150	0x3d6c1923	0.05764116
151	0x3d9ff7a1	0.07810903
152	0x3d6ce2d2	0.0578335
153	0x3d08eb22	0.033427365
154	0x3c2aea4b	0.010431836
155	0x3db1ee5a	0.0868804
156	0xbd3885ac	-0.045049354
157	0xbdad0f40	-0.08450174
158	0xbd4e863e	-0.050420992
159	0xbcaca862	-0.021076385
160	0x3cfdaa20	0.030964911
161	0xbd4d3ea9	-0.050108586
162	0xbbe94513	-0.00711883
163	0xbda84751	-0.082167275
164	0xbd2ca562	-0.04214991
165	0xbd3d52a5	-0.046221394
166	0xbcac8c8c	-0.021063112
167	0x3dc76019	0.09735126
168	0x3d7b0c22	0.061290868
169	0xbcd45b3e	-0.025922414
170	0x3d084f74	0.033278897
171	0xbd5d50f5	-0.054032285
172	0x3d508c56	0.050915085
173	0xbd810603	-0.06299975
174	0x3c312cca	0.010813901
175	0x3d8a2081	0.06744481
176	0xbd9ca4d9	-0.0764863
177	0x3c4295e0	0.011876553
178	0x3ac1d29a	0.0014787496
179	0x3dbf7bcc	0.09349784
180	0xbdc48616	-0.09595887
181	0xbc00294f	-0.007822349
182	0xbb5e52a7	-0.0033923776
183	0xbce8fc78	-0.028440699
184	0xbd2f0809	-0.042732272
185	0xbd1da5fe	-0.03848838
186	0x3da004d4	0.07813421
187	0xbd30c46e	-0.04315608
188	0x3d18bd72	0.037290044
189	0xbd93178e	-0.07182227
190	0x3d378fe6	0.044814967
191	0x3c63698e	0.013880147
192	0xbdcd86d8	-0.10035485
193	0xbbce50e9	-0.0062962663
194	0x3cbb5b03	0.022870546
195	0x3d21116c	0.039323255
196	0x3c627b0e	0.013823284
197	0x3d8a118c	0.06741628
198	0xbcf59c53	-0.029981768
199	0x3d972fef	0.073821895
200	0x3dc61bd6	0.09673278
201	0x3d4d1983	0.050073158
202	0xbc73117d	-0.0148357125
203	0x3ab17209	0.0013538013
204	0xbcb66487	-0.022264732
205	0x3d0d52be	0.034502737
206	0x3d5ee766	0.054419897
207	0xbd9a056c	-0.075205654
208	0x3d61d1b5	0.055131633
209	0xbdb465dd	-0.088084914
210	0xbd9eff6c	-0.077635616
211	0xbd5b4c55	-0.053539593
212	0x3cf3689b	0.029712966
213	0x3d8b2009	0.067932196
214	0x3c1d7d74	0.00961243
215	0x3d8c6fc1	0.06857253
216	0xbd6fff8b	-0.058593314
217	0x3d6a60cc	0.05722122
218	0x3ce39006	0.027778637
219	0x3cf04fd5	0.029334942
220	0xbcf311c1	-0.029671552
221	0xbd3f3b70	-0.046687543
222	0xbc9523fd	-0.018205637
223	0x3c5a0160	0.013305992
224	0x3d335dcf	0.043790635
225	0x3d255f42	0.040374048
226	0xbcbf5bba	-0.023359168
227	0x3d444c16	0.047924124
228	0x3bf067d1	0.0073365946
229	0xbb543ce0	-0.0032384917
230	0xbdbc2be0	-0.09188056
231	0xbcbaec4d	-0.022817755
232	0x3d23d68c	0.03999953
233	0xbda526e6	-0.0806406
234	0xbdba558d	-0.09098349
235	0xba7c0f91	-0.00096153567
236	0xbd6fef34	-0.05857773
237	0xbd5c3d74	-0.053769544
238	0x3d1f9046	0.03895595
239	0xbbe5486b	-0.0069971583
240	0xbce374c3	-0.027765637
241	0xbbaed93e	-0.005335956
242	0x3a38ae07	0.0007044975
243	0x3db15b41	0.086599834
244	0x3da2bf6d	0.07946668
245	0xbd0d1704	-0.034445778
246	0x3c92274c	0.017841004
247	0xbc98f209	-0.018670099
248	0x3d9c4f08	0.076322615
249	0x3d58d034	0.052932933
250	0x3cf1ecfb	0.029531946
251	0x3d4af48a	0.049549617
252	0xbdad249c	-0.08454248
253	0x3d8aeb25	0.067831315
254	0x3d0dafbc	0.03459142
255	0xbbb49eff	-0.005512118

bias f4 [128]
0	0xbd7d4403	-0.06183244
1	0x3d97b389	0.074072905
2	0xbd9c38c2	-0.07628013
3	0xbb106dd1	-0.0022038112
4	0x3b1b1294	0.0023662196
5	0xbc1c8d18	-0.009555124
6	0xbc9511fb	-0.01819705
7	0x3d7c6ad3	0.061625313
8	0xbaeb32ec	-0.0017944253
9	0xbc3d7180	-0.011562705
10	0xbce1dae6	-0.0275702
11	0xbb823431	-0.003973507
12	0x3d8d2e53	0.06893601
13	0x3d143762	0.03618563
14	0x3d4c3d24	0.049862996
15	0x3d48419f	0.048890706
16	0xbc575016	-0.013141653
17	0xbd7dd087	-0.061966445
18	0x3d868c5d	0.06569741
19	0xbce0139f	-0.027353106
20	0x3d218970	0.03943771
21	0xbca0d2f7	-0.019631846
22	0x3db05d17	0.086115055
23	0xbd99c2f2	-0.07507886
24	0xbc6b0001	-0.014343263
25	0xbd9fbdad	-0.0779985
26	0x3d883221	0.06650186
27	0xbd6e5af8	-0.058192223
28	0xbc187bf6	-0.009306898
29	0x3d124bbd	0.03571676
30	0x3d31014f	0.04321414
31	0xbd0429bb	-0.03226636
32	0x3ca93caa	0.02065881
33	0xbc832c4a	-0.01601233
34	0x3ca7cec9	0.020484345
35	0xbd1a6938	-0.037698
36	0x3d8096ca	0.06278761
37	0x3c10c79b	0.008836652
38	0xbc02d808	-0.007986076
39	0xbca4cd2b	-0.020117363
40	0x3d8a3d0b	0.06749924
41	0x3d437a68	0.047724158
42	0x3b8151bc	0.003946511
43	0x3d9414ab	0.072305046
44	0xbc505836	-0.012716344
45	0x3da4ceb5	0.08047239
46	0xbd45bb33	-0.04827423
47	0x3d841b02	0.06450464
48	0xbda10594	-0.07862392
49	0x3d2a9929	0.04164997
50	0xbd59e43b	-0.053196173
51	0x3dbc9f58	0.0921008
52	0xbceef186	-0.029167902
53	0x3ddec9ba	0.1087832
54	0x3d0ff1b3	0.03514261
55	0x3da3f409	0.080055304
56	0xbdc65122	-0.096834436
57	0xbda44c0c	-0.08022317
58	0xbb3526da	-0.0027641566
59	0xbcdcdc96	-0.026960652
60	0x3db9e494	0.09076801
61	0x3d7cb26b	0.06169359
62	0x3bd2d87e	0.0064344993
63	0x3d6a971f	0.057273027
64	0xbd2f91bb	-0.04286359
65	0xbd626871	-0.055275384
66	0x3d331766	0.043723486
67	0x3d8acc19	0.0677721
68	0x3d452823	0.04813398
69	0x3d6d4116	0.0579234
70	0xbd37e986	-0.04490044
71	0xbd6aff69	-0.057372484
72	0x3db6d38c	0.08927068
73	0x3a5c1a08	0.0008396213
74	0xbd947191	-0.072482236
75	0x3d129bdc	0.03579317
76	0xbd8cde06	-0.06878285
77	0xbc916e62	-0.01775283
78	0x3dacab34	0.08431092
79	0x3cef5d1e	0.029219206
80	0x3c736c45	0.014857356
81	0x3d93c7c3	0.07215836
82	0xbc01405e	-0.0078888815
83	0xb72698e7	-9.929971e-06
84	0x3d50c10c	0.050965354
85	0x3d756e27	0.059919503
86	0x3d0edeac	0.034880325
87	0x3d4307df	0.04761493
88	0x3d37da19	0.04488573
89	0xbca27cbb	-0.019834867
90	0x3d243428	0.040088803
91	0x3c1da9eb	0.009623031
92	0x3cb6a147	0.0222937
93	0x3dc6721b	0.09689733
94	0xbd2cd010	-0.04219061
95	0xbd0def6b	-0.034652155
96	0xbda4bcc7	-0.08043819
97	0xbd7970b6	-0.060898505
98	0xbc3c524a	-0.011494229
99	0x3d8f162f	0.06986653
100	0xbc32adff	-0.010905742
101	0x3d21420e	0.039369635
102	0xbc41b7a2	-0.011823567
103	0x3d5458b4	0.051842406
104	0xbd214758	-0.03937468
105	0xbbe6d503	-0.007044436
106	0x3cb64f9a	0.022254754
107	0x3d172e4f	0.036909398
108	0x3d8d4c48	0.06899315
109	0xbcaaeccf	-0.020864872
110	0xbdb61591	-0.08890832
111	0xbd1cf9d2	-0.038324185
112	0xbda16159	-0.07879896
113	0xbd89feb8	-0.06738037
114	0xbd9ac81b	-0.07557698
115	0x3bde0265	0.006775188
116	0xbd2dfc98	-0.04247722
117	0xbd95a127	-0.07306128
118	0xbca5df23	-0.020248001
119	0xbc054233	-0.008133459
120	0xbd1e07a5	-0.03858151
121	0xbd9744a5	-0.0738614
122	0x3d49e745	0.04929282
123	0xbdc0999e	-0.094043
124	0xbdc0b196	-0.09408872
125	0x3caa8e92	0.020819936
126	0xbd16fedb	-0.036864143
127	0x3d63d78e	0.05562549

weight f4 [128, 128]
0	0xbce7e3e0	-0.028306901
1	0xbdf1f3b4	-0.11814061
2	0xbd3fd570	-0.04683441
3	0x3d64d95b	0.05587135
4	0xbc996372	-0.018724177
5	0x3bcd0d49	0.006257687
6	0x3df60b4a	0.12013872
7	0x3b14b021	0.0022687989
8	0xbd396bf3	-0.045268964
9	0x3ddf6620	0.10908151
10	0x3d7a9c8c	0.06118445
11	0x3c4ca61d	0.012490776
12	0xbd407cb1	-0.046993915
13	0x3d95ece8	0.07320577
14	0xbdd6a55d	-0.10480759
15	0x3dfe4c5a	0.12416907
16	0x3dae0277	0.08496564
17	0xbcad023e	-0.021119233
18	0xbce4396c	-0.027859412
19	0xbd1bca81	-0.03803492
20	0x3c042cf2	0.008067356
21	0xbd4d171f	-0.050070878
22	0xbe082ca9	-0.13298286
23	0x3d67245a	0.056431152
24	0xbd89aeea	-0.06722815
25	0x3d600614	0.054693297
26	0xbddc9bd4	-0.10771909
27	0xbe01a6e0	-0.12661314
28	0xbce8d40f	-0.02842143
29	0x3ddaa8be	0.10676716
30	0xbda47990	-0.08030999
31	0xbd39e5a4	-0.045385018
32	0xbca3f8db	-0.020016124
33	0x3dc6ef2b	0.097135864
34	0xbca1f89f	-0.019771872
35	0x3d5f9923	0.054589402
36	0x3c766ab5	0.015040089
37	0x3df41ae6	0.11919193
38	0xbd2ac309	-0.041689906
39	0x3d7c894e	0.06165438
40	0x3da388a8	0.079850495
41	0x3e058998	0.13040769
42	0xbd621669	-0.055197153
43	0x3c184cd1	0.009295658
44	0xbd7b553b	-0.06136058
45	0xbd083653	-0.033254933
46	0x3d369748	0.044577867
47	0x3c8b6640	0.01701653
48	0xbc4eb88e	-0.012617243
49	0x3c9414ad	0.018076265
50	0xbbc34245	-0.0059588277
51	0xbd912797	-0.07087629
52	0x3dceaff6	0.10092156
53	0xbd093c3c	-0.03350471
54	0x3d4c6aa7	0.0499064
55	0x3d5bc9db	0.0536593
56	0x3d6b80ff	0.057496067
57	0x3db996ca	0.09061964
58	0xbdf113c7	-0.1177135
59	0xbd8e7b4f	-0.06957113
60	0xbd6f7c1c	-0.05846797
61	0x3db2d5c9	0.087321825
62	0x3d38be45	0.04510333
63	0x3d04978b	0.032371085
64	0x3d4c50ba	0.049881674
65	0x3d56003f	0.05224633
66	0xbde9b032	-0.1141056
67	0x3d4193d5	0.047260124
68	0xbc7c4bbd	-0.015398917
69	0xbd851c50	-0.06499541
70	0x3d32ecc2	0.04368282
71	0x3da4cdfd	0.08047102
72	0xbdf4fd06	-0.11962323
73	0xbce0184b	-0.027355334
74	0x3dcb6564	0.09931448
75	0xbc0f4b87	-0.0087460345
76	0x3cdb99dc	0.026806764
77	0x3d381777	0.044944253
78	0x3d67432c	0.056460544
79	0x3be9cd6a	0.007135083
80	0x3c8e48b7	0.017368658
81	0xbd85ebb7	-0.065391
82	0xbab2aa21	-0.0013631025
83	0xbcfbc6fb	-0.03073453
84	0x3cbdd956	0.023174923
85	0xbdba8954	-0.091082245
86	0x3d671fa6	0.056426667
87	0xbd0985f5	-0.033575017
88	0xbcb48a1e	-0.022038516
89	0x3d792829	0.060829315
90	0xbd7678f6	-0.06017395
91	0x3da9eccb	0.08297118
92	0x3d7954ad	0.06087177
93	0xbdba78f8	-0.09105104
94	0x3e7b3067	0.24530183
95	0xbd4231d7	-0.047410812
96	0xbc746dea	-0.014918784
97	0x3d89698f	0.06709587
98	0xbd802a42	-0.0625806
99	0x3d841196	0.06448667
100	0x3dd62d64	0.10457876
101	0xbc93dc82	-0.018049482
102	0x3db5c262	0.08874966
103	0x3dd70f80	0.10501003
104	0x3deaa7e6	0.11457805
105	0x3dfa7938	0.12230152
106	0xbcd4d3ec	-0.025979958
107	0x3be08e37	0.006852891
108	0xbd6c920e	-0.057756476
109	0xb9fed144	-0.0004860257
110	0x3d2976a8	0.041372925
111	0xbdc9f2a1	-0.09860731
112	0x3c3f000d	0.011657727
113	0xbce98838	-0.028507337
114	0x3c89f656	0.016841095
115	0xbe0a1fe9	-0.13488735
116	0xbd967d25	-0.07348088
117	0x3dada063	0.08477857
118	0x3c7f68f8	0.015588991
119	0x3d720fd8	0.05909714
120	0xbdd03232	-0.10165824
121	0xbd397d90	-0.04528576
122	0xbdf0358a	-0.11728962
123	0x3dc99f3f	0.09844827
124	0x3deb211e	0.11480926
125	0x3cf9e340	0.030503869
126	0x3dad0090	0.08447373
127	0x3db9c620	0.090709925
128	0x3c9f57a6	0.019450974
129	0x3c3dae8e	0.011577262
130	0x3b116db2	0.0022190628
131	0x3d94344e	0.07236539
132	0x3d8849da	0.06654711
133	0x3c5bd66f	0.013417824
134	0xbd04fe4c	-0.03246908
135	0x3d335bb4	0.043788627
136	0x3c6326b3	0.013864207
137	0xbc240da1	-0.010013015
138	0x3cb5bc0e	0.022184398
139	0xbd22dbd7	-0.039760437
140	0xbd919aaa	-0.07109578
141	0x3c39b8c2	0.011335554
142	0x3a0f3112	0.0005462329
143	0xbdbfccbe	-0.09365223
144	0xbbe0bfc6	-0.0068587987
145	0x3d3f8798	0.04676017
146	0x3d1c4907	0.03815558
147	0xbd375182	-0.044755466
148	0xbce6f41b	-0.02819257
149	0xbda92431	-0.08258856
150	0xbd80e7b7	-0.06294196
151	0xbd65b79e	-0.056083314
152	0x3da2c3e6	0.07947521
153	0x3ca601af	0.020264475
154	0x3bbbc8de	0.0057307323
155	0x3d107284	0.03526546
156	0xbc7afa15	-0.015318413
157	0xbb5109d9	-0.0031896739
158	0xbd0daaae	-0.0345866
159	0x3e1c15c4	0.15242678
160	0xbd8581cc	-0.065188974
161	0x3d6bd9c2	0.057580717
162	0x3cc75925	0.0243345
163	0x3da6e9c1	0.08150054
164	0x3d8e312c	0.069429725
165	0xba727f33	-0.00092505215
166	0xbdd73b57	-0.10509365
167	0x3d94353f	0.072367184
168	0xbc3e41c8	-0.011612363
169	0x3d2e01ff	0.042482372
170	0xbb39208f	-0.0028248166
171	0x3d5d9469	0.054096613
172	0xbcaa3a06	-0.02077962
173	0x3ca8fe80	0.020629168
174	0xbb9107fb	-0.004426
175	0xbad5113f	-0.001625575
176	0xbc9fbcd0	-0.019499213
177	0xbcd838b7	-0.026394231
178	0xbdabaa23	-0.083820604
179	0x3ca38939	0.019962894
180	0xbe386d67	-0.18010484
181	0x3cc43c82	0.023954634
182	0xbc747854	-0.014921267
183	0x3d25265f	0.040319797
184	0xbd35850c	-0.044316337
185	0xbd6ae2df	-0.057345267
186	0xbd894824	-0.06703213
187	0x3db6e894	0.089310795
188	0x3d5da0c2	0.05410839
189	0xbd86f95d	-0.06590531
190	0x3ce9aad3	0.028523838
191	0xbda89cc2	-0.08233024
192	0xbd9ae2f2	-0.07562818
193	0xbd3f38e4	-0.046685115
194	0xbda461a8	-0.08026439
195	0x3c0048d8	0.007829867
196	0x3b3fc388	0.0029260833
197	0xbc0692af	-0.008213683
198	0xbd9af826	-0.07566862
199	0x3de8a259	0.1135909
200	0x3d95a494	0.073067814
201	0x3d077cb7	0.03307792
202	0x3c22cfca	0.009937236
203	0xbda2ec0c	-0.079551786
204	0xbd517970	-0.051141202
205	0x3d0450d0	0.03230363
206	0xbdba3fb5	-0.090941824
207	0xbd9998ab	-0.07499822
208	0xbd877c2e	-0.06615482
209	0x3d9352db	0.07193538
210	0xbdba8c2b	-0.09108766
211	0x3cfe37e2	0.031032506
212	0xbda86330	-0.082220435
213	0x3d2fef0d	0.042952586
214	0xbdc403c9	-0.095710345
215	0x3c9d274c	0.019183777
216	0xbd243a02	-0.040094383
217	0xbb1af79a	-0.0023646117
218	0x3c1fa602	0.009744169
219	0xbcecb44a	-0.028894562
220	0xbd67696e	-0.05649703
221	0xbd0c6a78	-0.034281224
222	0xbe26b281	-0.16279031
223	0x3cd7d7f2	0.026348088
224	0xbd43307b	-0.047653656
225	0x3daa05fe	0.08301924
226	0xbd9b7abb	-0.07591768
227	0x3d6cfa3c	0.05785583
228	0x3b8ded0a	0.004331236
229	0x3c1eb378	0.009686343
230	0x3beaad09	0.0071617407
231	0x3dc887c2	0.09791519
232	0xbdac54c0	-0.08414602
233	0xbc45a35d	-0.012062875
234	0xbd892080	-0.06695652
235	0x3d816bc3	0.06319382
236	0xbd8bafcf	-0.06820642
237	0x3d473ede	0.04864394
238	0x3d3a9ee6	0.045561694
239	0xbdc446eb	-0.09583839
240	0xbd2db691	-0.042410437
241	0xbd3432b6	-0.043993674
242	0xbbc2aae0	-0.00594078
243	0x3c3f0000	0.011657715
244	0xbd53fe24	-0.05175604
245	0xbd228fe0	-0.03968799
246	0x3d9c2da1	0.076258905
247	0xbcd9e990	-0.02660063
248	0x3d88de0e	0.066829786
249	0x3da8bfeb	0.082397304
250	0x3cbc8d06	0.023016464
251	0x3c9920ca	0.018692393
252	0xbd880a2c	-0.06642565
253	0x3d52d198	0.051469415
254	0xbd726af0	-0.059184015
255	0xbd85b654	-0.06528917

bias f4 [128]
0	0xbcbecce2	-0.023291055
1	0x3b392429	0.0028250313
2	0x3d2ec9ac	0.042672798
3	0xbd5e8fde	-0.05433642
4	0x3d3db855	0.04631837
5	0xbd67941a	-0.056537725
6	0xbc9cc56a	-0.019137103
7	0x3d869405	0.06571201
8	0xbcca410c	-0.02468922
9	0x3d1dea69	0.03855363
10	0xbd8393eb	-0.064246975
11	0x3d2b6c67	0.041851427
12	0xbc008527	-0.007844246
13	0xbd32368d	-0.043509055
14	0xbd996dbd	-0.07491634
15	0xbda515d1	-0.08060802
16	0xbd488094	-0.048950747
17	0xbdaa522f	-0.083164565
18	0xbd9adf50	-0.07562125
19	0x3da5836e	0.08081709
20	0xbc98aaa3	-0.018636053
21	0xbd869f12	-0.06573309
22	0x3cc7b030	0.024376005
23	0xbbb9e529	-0.00567307
24	0xbccde6a0	-0.025134385
25	0xbdca81c0	-0.09888029
26	0x3c4c3899	0.012464666
27	0xbda4e7a5	-0.08051995
28	0xbd2aa5a2	-0.041661866
29	0x3d72c416	0.059269033
30	0xbd225b49	-0.039637838
31	0xbd9ef53b	-0.07761618
32	0x3db0f6ad	0.086408
33	0xbd673590	-0.056447566
34	0x3cf603ac	0.030031048
35	0xbd940e7d	-0.07229326
36	0x3da6ac15	0.08138291
37	0x3d5af204	0.05345346
38	0x3da028a9	0.07820255
39	0xbd2aac47	-0.041668203
40	0x3d8fb624	0.070171624
41	0xbca6c4b7	-0.020357473
42	0xbbf7ba25	-0.007560032
43	0xbc90ca92	-0.017674718
44	0xbd8151ce	-0.06314431
45	0xbd7b6f62	-0.06138552
46	0x3cf1e3f9	0.029527651
47	0x3cc6916e	0.024239268
48	0x3d475319	0.048663232
49	0xbd07122a	-0.032976307
50	0xbdae1148	-0.0849939
51	0xbdc66d3b	-0.09688803
52	0xbc67937c	-0.014134284
53	0x3d5a92c8	0.053362638
54	0x3d5e746b	0.054310244
55	0xbccdf9a9	-0.025143461
56	0x3cd2774e	0.025691655
57	0x3d43249d	0.04764234
58	0x3d926a40	0.07149172
59	0xbd5a74a4	-0.053333893
60	0xbd93c233	-0.07214775
61	0xbd910e57	-0.07082813
62	0x39cdd2e0	0.0003925776
63	0xbd0f61d6	-0.035005413
64	0x3c13b6e5	0.009015773
65	0x3d013de5	0.031553168
66	0x3d99e809	0.0751496
67	0x3d80672b	0.06269678
68	0xbdaafc2f	-0.083488815
69	0xbda30632	-0.07960166
70	0xb9cffa57	-0.00039668634
71	0xbb0031ff	-0.001956105
72	0x3d819cea	0.06328757
73	0xbd813ba0	-0.06310201
74	0x3dab4435	0.08362619
75	0xbcee5dff	-0.029097555
76	0x3d451976	0.048119985
77	0xbd812673	-0.06306162
78	0xbdabe38f	-0.08393013
79	0x3c96add2	0.01839343
80	0xbd9335a4	-0.071879655
81	0xbc49016e	-0.012268407
82	0x3bc1fb96	0.005919884
83	0x3d12a3e7	0.03580084
84	0xbd320b08	-0.04346755
85	0xbd5003d4	-0.0507849
86	0xbd43cff0	-0.047805727
87	0x3c9025d3	0.017596161
88	0x3b9e5a53	0.004832545
89	0xbdb4ccfb	-0.088281594
90	0xbcee92d8	-0.029122755
91	0x3d6a8154	0.057252243
92	0x3ccb67e9	0.024829822
93	0xbafd7a4f	-0.0019338819
94	0x3ca5c0f3	0.020233607
95	0xbcc932b7	-0.024560316
96	0xbd714a4a	-0.05890874
97	0xbd09d859	-0.03365359
98	0x3cabb886	0.020962011
99	0xbc935b20	-0.017987788
100	0x3d98d7c7	0.07463031
101	0x3d5bc09f	0.053650495
102	0x3d303f7f	0.043029305
103	0xbd0d2c0a	-0.034465827
104	0x3b83674a	0.0040101158
105	0xbdc8f5ab	-0.098124824
106	0xbd727355	-0.05919202
107	0x3bc0961e	0.0058772704
108	0x3bf54bf7	0.0074858624
109	0xbd00806d	-0.031372476
110	0xbd5041c2	-0.05084396
111	0xbd447b4a	-0.04796914
112	0xbdedec20	-0.11617303
113	0xbb9ca60e	-0.0047805374
114	0xbdc3c1c8	-0.09558445
115	0xbc815007	-0.01578523
116	0xbca65f13	-0.020309007
117	0xbdd51ff2	-0.10406484
118	0x3d0701f6	0.032960854
119	0x3d9d7ee7	0.0769022
120	0x3dcd58c6	0.10026698
121	0x3dca7042	0.09884693
122	0xbddc6514	-0.107614666
123	0x3d9a523d	0.07535217
124	0xbbbda6dd	-0.005787714
125	0x3d89035e	0.06690095
126	0xbdbcaa9d	-0.092122294
127	0x3ba645a0	0.005074218
