pinn_burgers.pt (torch, 19219 bytes, 17 tensors)

weight f4 [20, 2]
-0.24494676 0.22763222 0.37273476 0.037760645 -0.2985128 0.22676724 -0.17147507 0.7266418
0.2973512 -0.5228051 -0.44805863 -0.52362585 -0.36382106 0.11006822 0.082291685 0.13516009
-0.22040449 0.49438304 -0.48691255 -0.617329 -0.5959028 -0.37402445 -0.18639201 0.075546704
0.18009786 0.56806606 -0.36582285 0.30191877 -0.61693496 -0.07451489 -0.37200028 0.033307925
0.14245929 0.31279406 0.5251761 -0.3887056 0.5352503 -0.94335544 -0.94510615 -0.45742804
00000000: 53d3 7abe 6c18 693e 17d7 be3e e8aa 1a3d
00000010: abd6 98be ac35 683e 2997 2fbe 3205 3a3f
00000020: 6b3e 983e 8ed6 05bf f167 e5be 580c 06bf
00000030: c146 babe 726b e13d 8b88 a83d 6867 0a3e
00000040: b7b1 61be c61f fd3e 9a4c f9be 4609 1ebf
00000050: 168d 18bf 2280 bfbe 8cdd 3ebe 3bb8 9a3d
00000060: 936b 383e c76c 113f 224d bbbe 1995 9a3e
00000070: 73ef 1dbf 439b 98bd d276 bebe e46d 083d
00000080: d9e0 113e 8b26 a03e f171 063f 6c04 c7be
00000090: 2a06 093f be7f 71bf 7af2 71bf 0234 eabe

bias f4 [20]
-0.52252096 -0.79087484 0.49377474 0.12226382 0.4803945 0.6410611 0.04357673 0.7446138
-0.044307955 -0.46761444 -0.5620391 0.6774526 0.5888296 -0.278908 0.538883 0.41137764
-0.091443 0.7400199 -0.76708037 -0.44537303
00000000: efc3 05bf c676 4abf 0bd0 fc3e 7465 fa3d
00000010: 45f6 f53e 951c 243f 837d 323d 039f 3e3f
00000020: 427c 35bd 296b efbe cbe1 0fbf 896d 2d3f
00000030: 89bd 163f 08cd 8ebe 3cf4 093f 17a0 d23e
00000040: 7846 bbbd f271 3d3f 615f 44bf ef07 e4be

weight f4 [20, 20]
0.12714677 -0.14924707 0.13495441 -0.26148054 -0.03473437 -0.06686231 -0.22358565 0.08484875
-0.19028848 -0.19193739 0.085999936 0.2174564 -0.1399465 0.09120412 0.054754242 0.25449193
0.11968058 0.100747004 -0.112711675 -0.11002732 0.090754755 0.14002484 -0.0579675 0.12881234
0.02417115 -0.027728282 0.09151728 -0.1551823 0.19116436 -0.013925037 0.23301941 0.11689934
0.16957659 0.028929451 -0.01802988 0.12945099 0.061361134 0.20624968 -0.09165482 0.19429421
-0.07640074 0.15856901 -0.085253 -0.26339707 -0.05671291 0.059909295 0.15937771 0.1727317
-0.030117266 -0.052034616 0.02906311 -0.13327716 -0.14951654 -0.22775097 0.15111436 -0.0133845005
-0.14986907 -0.18788815 0.17730922 0.04204409 -0.05805355 0.15491107 -0.13849168 0.08240797
0.032283 0.14019822 -0.12050254 -0.101384126 -0.113910004 0.17008097 0.04068503 -0.39288598
-0.010103725 0.010020592 0.1959626 0.11008718 0.27193204 -0.15384163 0.18597867 -0.061904307
-0.14513998 0.10435243 0.18244036 0.0077690976 0.11840506 -0.11202796 0.12821707 -0.03094123
-0.0066228495 0.13101517 -0.016844468 0.1264543 -0.061117176 -0.160214 -0.13389564 -0.108306065
-0.0018816139 -0.22657989 -0.15197493 -0.12636186 -0.015587178 0.0429633 0.206222 0.020053113
-0.17206027 0.27355677 0.05283079 0.17856808 0.21231905 0.14685687 -0.0967095 -0.249946
-0.07148523 -0.16405046 -0.08656046 0.08717546 -0.0818795 0.030205619 -0.123459354 -0.00845912
0.03799536 0.29006493 -0.2737574 -0.11961637 -0.19237916 -0.020613985 -0.1490294 -0.086318605
0.0803792 -0.011515919 0.23825099 0.020033633 0.04530414 0.030049296 -0.15325044 -0.29704106
0.15316154 -0.137189 0.1419948 -0.054268006 -0.055685475 0.11488059 0.15053232 0.1819466
0.10689998 -0.03648998 0.14244172 -0.049049623 -0.19672768 0.058313742 -0.29441494 0.18701164
-0.14886849 -0.08056806 0.19659348 0.013792173 -0.14010605 -0.08710054 0.24698126 0.09826242
-0.01688876 0.26887944 0.09785531 -0.1293629 0.049574457 -0.12199032 0.20323122 -0.14526075
-0.17775688 0.22964638 -0.18829343 -0.19409783 -0.1511889 0.06421981 0.23180802 -0.011910988
0.23493361 -0.017719232 0.21390973 0.093886666 -0.10216273 -0.025973452 0.14483222 0.047707032
-0.10196269 -0.052890055 -0.19321376 0.13691019 0.08674088 0.09414066 0.042606417 0.08046044
0.1810058 0.011838322 -0.07276114 -0.1327566 -0.070493564 -0.22281408 0.10753279 0.03788061
0.16167535 0.08367183 -0.23921385 0.04710946 0.012986121 0.0064941854 0.020601545 -0.17558938
0.06373642 0.29101282 -0.040852435 -0.36584437 -0.21908243 -0.20814659 -0.095490925 0.07873577
0.16810894 0.10687342 0.18598297 -0.035221968 -0.16111541 0.21073139 0.09800711 0.02201767
0.07479981 -0.18066667 -0.19273171 0.13083754 -0.18476333 0.07176222 0.23261574 -0.10070193
0.122004256 -0.021392893 -0.004589847 -0.21954428 0.032258403 -0.16678102 0.16589262 0.12539414
0.012697186 0.051630273 -0.013985352 0.016951887 -0.112925 -0.09789908 0.10238168 -0.044086225
-0.3045173 -0.22043125 -0.08330561 -0.12981656 -0.027580539 -0.17074253 -0.24633397 -0.07310798
00000000: c332 023e 39d4 18be 7d31 0a3e c7e0 85be
00000010: a045 0ebd 1bef 88bd a3f3 64be 2ec5 ad3d
00000020: fcda 42be 3c8b 44be bc20 b03d e4ac 5e3e
00000030: 234e 0fbe 3ac9 ba3d fc45 603d c44c 823e
00000040: 181b f53d 7254 ce3d 61d5 e6bd 0156 e1bd
00000050: a1dd b93d ac62 0f3e 546f 6dbd 62e7 033e
00000060: 9302 c63c 6c26 e3bc 696d bb3d 1ce8 1ebe
00000070: 97c0 433e d725 64bc a49c 6e3e ec68 ef3d
00000080: 7ca5 2d3e 75fd ec3c 66b3 93bc cd8e 043e
00000090: d055 7b3d 1e33 533e 86b5 bbbd 10f5 463e
000000a0: fe77 9cbd ea5f 223e 2099 aebd fbdb 86be
000000b0: cc4b 68bd 7363 753d e933 233e 94e0 303e
000000c0: 7cb8 f6bc 4022 55bd c215 ee3c cf79 08be
000000d0: dd1a 19be 8d37 69be b9bd 1a3e aa4a 5bbc
000000e0: 4777 19be c065 40be 8c90 353e 6c36 2c3d
000000f0: 8fc9 6dbd 02a1 1e3e c3d0 0dbe 83c5 a83d
00000100: 2e3b 043d 1f90 0f3e 09ca f6bd 7ba2 cfbd
00000110: a649 e9bd b529 2e3e 59a5 263d 5a28 c9be
00000120: 188a 25bc 692d 243c 6baa 483e 6375 e13d
00000130: ad3a 8b3e a988 1dbe 3171 3e3e 5f8f 7dbd
00000140: 939f 14be bab6 d53d a5d1 3a3e ea93 fe3b
00000150: 5a7e f23d ea6e e5bd 564b 033e 7678 fdbc
00000160: 7d04 d9bb d728 063e 69fd 89bc 3c7d 013e
00000170: 0156 7abd 240f 24be f01b 09be 92cf ddbd
00000180: 7ca0 f6ba 8f04 68be 519f 1bbe 0165 01be
00000190: 5d61 7fbc 49fa 2f3d dc2b 533e 6d46 a43c
000001a0: 9130 30be a20f 8c3e 1965 583d 8dda 363e
000001b0: 2a6a 593e a661 163e a10f c6bd d8f1 7fbe
000001c0: d966 92bd d8fc 27be 9c46 b1bd 0c89 b23d
000001d0: 70b0 a7bd c671 f73c 42d8 fcbd 1f98 0abc
000001e0: 06a1 1b3d 6483 943e ee29 8cbe 6df9 f4bd
000001f0: 0bff 44be a9de a8bc 2a9b 18be cfc7 b0bd
00000200: da9d a43d 44ad 3cbc 11f8 733e 931d a43c
00000210: d590 393d f129 f63c afed 1cbe c415 98be
00000220: 61d6 1c3e 467b 0cbe 1667 113e 2148 5ebd
00000230: 7416 64bd 8446 eb3d 2525 1a3e 3650 3a3e
00000240: 60ee da3d 8476 15bd 3edc 113e 42e8 48bd
00000250: fb72 49be 64da 6e3d 8ebd 96be fb7f 3f3e
00000260: fb70 18be de00 a5bd cd4f 493e 91f8 613c
00000270: f677 0fbe c561 b2bd a8e8 7c3e cf3d c93d
00000280: 4c5a 8abc 91aa 893e 5d68 c83d b577 04be
00000290: 960e 4b3d 10d6 f9bd d81b 503e 3cbf 14be
000002a0: e605 36be 6c28 6b3e fecf 40be 95c1 46be
000002b0: 43d1 1abe ad85 833d 155f 6d3e 4e26 43bc
000002c0: 7092 703e ec27 91bc 270b 5b3e a747 c03d
000002d0: b23a d1bd 47c6 d4bc e64e 143e 7368 433d
000002e0: d1d1 d0bd 3ea3 58bd d4d9 45be 2f32 0c3e
000002f0: 34a5 b13d d1cc c03d 1184 2e3d 71c8 a43d
00000300: 9659 393e 85f5 413c cb03 95bd 59f1 07be
00000310: ee5e 90bd 6029 64be 273a dc3d b328 1b3d
00000320: 398e 253e 235c ab3d 7af4 74be d9f5 403d
00000330: bdc3 543c 2dcd d43b 92c4 a83c b4cd 33be
00000340: 3d88 823d a2ff 943e e254 27bd f44f bbbe
00000350: 2557 60be 6124 55be bf90 c3bd 3840 a13d
00000360: c024 2c3e 74e0 da3d 5272 3e3e e944 10bd
00000370: 70fb 24be f8c9 573e f4b7 c83d 675e b43c
00000380: a530 993d af00 39be 765b 45be 47fa 053e
00000390: 9932 3dbe 12f8 923d d232 6e3e d03c cebd
000003a0: 5edd f93d 2640 afbc 6d66 96bb 37d0 60be
000003b0: 6321 043d a5c8 2abe c1df 293e 5267 003e
000003c0: dc07 503c 447a 533d d122 65bc afde 8a3c
000003d0: 3945 e7bd 507f c8bd 7cad d13d c293 34bd
000003e0: b1e9 9bbe bbb8 61be 229c aabd a2ee 04be
000003f0: 95f0 e1bc 21d7 2ebe f93e 7cbe a3b9 95bd

bias f4 [20]
0.007954106 0.10961586 -0.17075387 -0.15152128 -0.014214691 0.22827314 -0.056254648 -0.08804637
0.20621946 -0.1331679 -0.18125261 -0.10529759 -0.260534 0.237241 0.045859482 0.04893119
0.06966116 0.1642669 0.062916696 0.030312443
00000000: f051 023c 487e e03d 1ada 2ebe 6528 1bbe
00000010: bce4 68bc 6fc0 693e 466b 66bd a851 b4bd
00000020: 322b 533e 2a5d 08be 499a 39be 43a6 d7bd
00000030: b664 85be 4eef 723e 27d7 3b3d 126c 483d
00000040: 83aa 8e3d 9535 283e 78da 803d cd51 f83c

weight f4 [20, 20]
0.043197017 0.10689046 0.06841909 0.07057668 -0.058532257 0.1449875 -0.24507536 -0.2137296
-0.15566231 0.17590217 -0.1412787 -0.059220072 -0.09333858 0.20758955 -0.038917918 0.048185557
-0.09876251 0.09298503 0.1478178 0.033486687 0.20948099 -0.019044572 -0.050778147 -0.23836935
-0.084610686 0.10823808 0.18616715 0.23331536 -0.13217244 -0.05882134 -0.2591084 0.068508126
-0.17621827 0.12713414 -0.004723643 0.14577158 0.22716083 0.068064466 0.022141596 -0.07644272
0.2068789 0.0072518466 0.06930187 -0.2347077 -0.013993796 -0.03278394 -0.22237623 0.076567814
-0.2412109 0.1479492 -0.30692372 -0.15862672 0.23493442 -0.090223044 -0.03514154 0.14829142
-0.2618577 0.10034542 0.020004967 -0.004541636 -0.1747354 -0.12569572 -0.04382053 0.096106395
-0.14631008 0.25041464 0.07131915 0.055002026 0.13766582 -0.04581707 -0.115844205 0.059205938
0.15896545 -0.20059286 0.18390946 0.011525024 -0.078655116 0.17490178 -0.17152046 -0.18014817
-0.05429871 -0.18612665 0.059480086 0.08723383 0.03830517 0.05425137 0.053074278 -0.17679852
0.11715507 -0.0030017663 -0.10824186 -0.15421684 0.23259994 -0.050702773 0.16562779 0.11659042
-0.2962294 -0.071982786 -0.035739746 0.14404282 0.14267609 0.14413413 0.36009255 0.1799607
0.055418015 0.034972377 -0.023883145 0.2814333 0.3307066 0.08264196 0.2809519 0.105124824
-0.04113741 0.041542232 0.045306575 0.060227543 -0.03115569 0.121287026 -0.22104278 -0.21247718
0.22001393 0.25909245 -0.25704798 -0.32730427 -0.03908768 0.08148219 0.09115292 -0.055338476
0.14137371 -0.10309545 -0.26055306 0.12989345 0.16242161 0.16235928 0.18339728 -0.070892304
0.236271 -0.06963865 -0.10035124 0.121900246 0.20280366 -0.19996962 0.016452104 -0.29617524
-0.17079495 0.01616634 0.017412305 0.121102095 -0.26867434 0.115142055 -0.21303307 0.041505016
0.17036113 -0.14902581 -0.010761534 -0.08278883 0.049283426 0.04692343 0.2622362 -0.09638489
-0.10318832 -0.05595557 0.24044181 0.27035388 0.1461603 -0.133507 0.27860138 0.26825395
-0.1117421 0.11624092 0.15840973 0.27132782 0.14387111 -0.17427948 -0.19832891 0.0037264314
0.14654474 -0.053259317 -0.32815304 -0.11822371 -0.17114162 -0.078919634 0.2349921 0.09077691
-0.18815169 0.042748 -0.22083019 -0.2813232 0.13886246 -0.19331874 0.079197265 0.12431404
-0.101434864 -0.1724772 0.06576272 0.14736517 -0.051942132 0.06477309 0.12897292 -0.21434893
-0.14468876 0.22270726 0.12322704 0.12855549 0.14253685 -0.18669845 -0.110597305 0.10535451
0.19467734 0.07420774 0.09281392 0.15641817 -0.25540906 -0.078205444 -0.035307504 -0.2606064
0.28823987 0.032631524 -0.21392539 0.026205864 -0.00093755656 -0.050225087 -0.12606175 -0.26776943
0.1686075 0.18909232 0.07156511 0.18126987 -0.077359125 0.1622662 0.030120576 0.18141289
-0.13861324 0.13049583 0.1049708 0.049290735 -0.07065104 0.07937976 0.17881341 0.1522645
0.14269662 -0.27265424 0.014149311 -0.08331049 0.08617535 -0.14369316 -0.1294681 0.015392257
0.07362716 0.06786393 -0.3481026 0.08518215 -0.15774122 0.28587866 -0.1550234 -0.0965581
00000000: 5bef 303d 63e9 da3d 4f1f 8c3d 828a 903d
00000010: 85bf 6fbd 9a77 143e 09f5 7abe efdb 5abe
00000020: f165 1fbe b31f 343e 5dab 10be bf90 72bd
00000030: 4c28 bfbd 5b92 543e 6568 1fbd 385e 453d
00000040: 0044 cabd ef6e be3d 8d5d 173e 5629 093d
00000050: 2f82 563e 5d03 9cbc bffc 4fbd 1817 74be
00000060: 5e48 adbd edab dd3d 9aa2 3e3e 39ea 6e3e
00000070: 3658 07be a5ee 70bd dba9 84be fd4d 8c3d
00000080: 9072 34be 742f 023e cac8 9abb 2545 153e
00000090: d99c 683e 6265 8b3d 4b62 b53c 008e 9cbd
000000a0: 10d8 533e e6a0 ed3b 24ee 8d3d 3757 70be
000000b0: 3c46 65bc 7448 06bd 98b6 63be 96cf 9c3d
000000c0: fdff 76be ff7f 173e 1b25 9dbe 0b6f 22be
000000d0: a692 703e dcc6 b8bd 93f0 0fbd b5d9 173e
000000e0: 3612 86be e681 cd3d 75e1 a33c 01d2 94bb
000000f0: d6ed 32be 61b6 00be 287d 33bd 6ed3 c43d
00000100: 4fd2 15be 5936 803e c60f 923d ce49 613d
00000110: 45f8 0c3e aeaa 3bbd ba3f edbd ed81 723d
00000120: d7c7 223e 3768 4dbe c352 3c3e 74d3 3c3c
00000130: ef15 a1bd 7419 333e 0fa3 2fbe c378 38be
00000140: 5368 5ebd fc97 3ebe 64a1 733d a6a7 b23d
00000150: e2e5 1c3d af36 5e3d 6a64 593d ac0a 35be
00000160: ffee ef3d 48b9 44bb e9ad ddbd 05eb 1dbe
00000170: ae2e 6e3e b6ad 4fbd 559a 293e f5c6 ee3d
00000180: 61ab 97be b66b 93bd d763 12bd f67f 133e
00000190: ae19 123e e697 133e 0d5e b83e 9e47 383e
000001a0: 00fe 623d 323f 0f3d 96a6 c3bc 0718 903e
000001b0: 6052 a93e 3040 a93d edd8 8f3e af4b d73d
000001c0: b37f 28bd 3028 2a3d 6393 393d 28b1 763d
000001d0: 383a ffbc 5565 f83d 0a59 62be 9e93 59be
000001e0: 554b 613e c4a7 843e cb9b 83be 6d94 a7be
000001f0: 671a 20bd 22e0 a63d 62ae ba3d 99aa 62bd
00000200: 45c4 103e b523 d3bd 3667 85be ca02 053e
00000210: da51 263e 8341 263e 7fcc 3b3e fc2f 91bd
00000220: 06f1 713e b59e 8ebd f384 cdbd d6a6 f93d
00000230: c3ab 4f3e d6c4 4cbe 90c6 863c 48a4 97be
00000240: dfe4 2ebe 466f 843c 40a4 8e3c 6004 f83d
00000250: af8f 89be 99cf eb3d 5725 5abe 2a01 2a3d
00000260: 2673 2e3e 399a 18be 2551 30bc 318d a9bd
00000270: 6bdd 493d c832 403d d343 863e 7165 c5bd
00000280: 6654 d3bd ab31 65bd 6136 763e d36b 8a3e
00000290: 0cab 153e 0fb6 08be d7a4 8e3e 9558 893e
000002a0: 0bd9 e4bd b80f ee3d 2936 223e 7beb 8a3e
000002b0: f352 133e 5276 32be bc16 4bbe 2537 743b
000002c0: d30f 163e 7126 5abd ad03 a8be 461f f2bd
000002d0: c03f 2fbe 9ea0 a1bd c5a1 703e 3fe9 b93d
000002e0: d6aa 40be 8718 2f3d 4f21 62be 9809 90be
000002f0: f631 0e3e 59f5 45be 2d32 a23d 5c98 fe3d
00000300: 15bd cfbd dd9d 30be 9bae 863d e5e6 163e
00000310: 46c1 54bd c1a7 843d 7a11 043e 497e 5bbe
00000320: 4a29 14be 5f0d 643e 755e fc3d 0da4 033e
00000330: 2ef5 113e e12d 3fbe d780 e2bd 1bc4 d73d
00000340: 7f59 473e 3afa 973d 3915 be3d 162c 203e
00000350: fac4 82be 2d2a a0bd 9a9e 10bd 346e 85be
00000360: 2d94 933e a2a8 053d 420f 5bbe aead d63c
00000370: 5bc6 75ba d2b8 4dbd 5516 01be 1319 89be
00000380: 72a7 2c3e 6ba1 413e ba90 923d cf9e 393e
00000390: 766e 9ebd 1c29 263e 6dbf f63c 4dc4 393e
000003a0: a1f0 0dbe b3a0 053e eefa d63d 15e5 493d
000003b0: 7eb1 90bd db91 a23d dd1a 373e 3aeb 1b3e
000003c0: 101f 123e 5699 8bbe 83d2 673c b19e aabd
000003d0: b47c b03d 4d24 13be 4993 04be ce2f 7c3c
000003e0: d6c9 963d 3efc 8a3d 813a b2be fb73 ae3d
000003f0: ea86 21be b05e 923e 74be 1ebe 41c0 c5bd

bias f4 [20]
0.15518966 -0.0066321706 0.15891857 -0.19858909 0.05105197 0.011141371 0.051400464 0.1818701
0.0824532 -0.13201702 0.013759857 0.17439085 -0.12309735 0.2200818 -0.05050066 0.18824193
-0.19163659 -0.11500178 0.038156636 -0.078187495
00000000: 0aea 1e3e ae52 d9bb 8dbb 223e f05a 4bbe
00000010: df1b 513d 4c8a 363c 4b89 523d 283c 3a3e
00000020: 39dd a83d 782f 07be 0671 613c 8493 323e
00000030: 771a fcbd 205d 613e c8d9 4ebd 7ec2 403e
00000040: 623c 44be 0e86 ebbd 224a 1c3d c420 a0bd

weight f4 [20, 20]
0.20838752 0.010161801 0.17243238 0.015351574 0.044601113 -0.015797129 -0.3026106 -0.26831207
-0.14293577 -0.1205802 -0.1660031 0.03338904 0.010563143 -0.2261473 -0.1097867 -0.0019488307
-0.021694817 -0.28866485 0.13751811 0.17732742 0.28635186 0.21654849 0.29550275 -0.05875008
0.1875344 -0.050270922 0.070794895 -0.057028513 -0.19910021 0.07200953 -0.104262196 0.2743804
0.11970831 0.30666977 0.20955202 0.15015584 -0.2829424 0.11406974 0.16654052 -0.2076978
-0.025166688 0.3364263 0.18402028 -0.28202042 -0.13662903 0.13108349 0.112446226 0.20342728
0.23133534 -0.13263206 -0.08493282 0.023039121 0.18319795 0.23412994 0.20930871 -0.08070473
0.11439825 0.25623837 0.17350358 0.11209274 0.15306222 0.24216168 0.06940252 -0.19314495
0.0512478 -0.08804335 0.20563531 -0.01621311 0.06589935 -0.18502806 0.2017685 0.2156304
0.21262711 -0.1145391 0.115690626 -0.18098843 0.23929709 0.18079762 -0.09293789 0.098451264
-0.0918875 -0.3166669 -0.12176277 0.09954314 0.14501925 0.15337144 -0.1720301 -0.092383616
-0.12049882 0.025292544 0.041285295 0.13560241 -0.05877239 -0.09121298 -0.12987304 0.20231085
-0.114779 -0.116013356 -0.120598055 -0.22192214 -0.08856408 -0.19226639 0.0057378765 0.1335836
-0.0640937 0.14448582 -0.21384937 0.1407403 0.035685945 0.31432512 -0.03590436 -0.14738409
-0.20407568 0.17223465 -0.14731884 0.101138026 0.026646053 0.035123225 -0.15370193 0.020880433
-0.055742186 -0.15458618 0.06317285 0.30565947 0.10115078 0.09160775 -0.24241035 -0.2026344
-0.2114147 0.2051335 -0.071779676 0.09336468 -0.25616297 -0.16963723 -0.23532361 -0.17637369
0.14760828 0.085751005 0.07506904 -0.022190452 -0.06199437 0.3501487 0.08081902 -0.22791503
-0.26775342 -0.015356394 0.17654058 0.045934327 0.17872714 -0.09885027 0.09534862 0.22417206
-0.09157713 -0.1433086 0.002033184 0.08918183 0.08002639 0.11755497 0.2260717 0.24703826
0.025546 -0.03103347 0.053814612 -0.15889075 0.1756273 0.032240547 -0.10828266 0.13856676
-0.14288646 -0.14142396 -0.13262565 -0.12996691 -0.035465144 0.16353092 0.04707222 0.1607931
0.046715602 -0.12004047 -0.16904002 -0.097387604 0.20702547 -0.062056955 0.16684881 -0.15136658
-0.06889452 -0.19056879 0.019339098 -0.039105147 0.038104624 0.043168623 -0.113104016 -0.21084487
0.065078646 0.1555654 -0.17579338 0.19427845 -0.2536788 0.02035749 -0.07499839 0.04738958
0.15660372 -0.10324015 0.17647657 0.20287745 0.2877221 -0.0013100514 -0.023427153 0.050629344
0.037321128 0.23870793 -0.015449541 -0.028573746 0.097929396 0.17298897 0.016027255 -0.2098349
-0.03764961 -0.22120443 -0.12728094 0.02768507 -0.16826901 0.16661601 -0.22618476 0.09754901
-0.03200174 -0.21315712 0.22117147 -0.11373575 0.17849822 0.01347371 -0.07384106 -0.1681511
0.10165702 0.24121436 0.081489034 -0.16411847 -0.1352378 0.21571463 0.087536655 -0.0021768473
0.24939232 0.1638149 0.3101897 -0.21344408 -0.06266329 -0.30353978 0.031378463 0.17974594
-0.2896326 -0.05465436 -0.2913535 0.17885047 0.32524785 0.34837094 0.08744615 0.00028187217
00000000: 8a63 553e af7d 263c 1d92 303e 2b85 7b3c
00000010: a8af 363d fb68 81bc c7ef 9abe 3360 89be
00000020: c15d 12be c0f2 f6bd b7fc 29be f2c2 083d
00000030: 0811 2d3c 2893 67be d9d7 e0bd e86f ffba
00000040: 54b9 b1bc e1cb 93be 8cd1 0c3e 5295 353e
00000050: b69c 923e e3be 5d3e 234c 973e eda3 70bd
00000060: 0509 403e e2e8 4dbd eafc 903d bb96 69bd
00000070: ede0 4bbe bc79 933d 6b87 d5bd 967b 8c3e
00000080: a129 f53d d203 9d3e ce94 563e 74c2 193e
00000090: d4dd 90be 659d e93d 9989 2a3e bbae 54be
000000a0: 5f2a cebc 1140 ac3e d06f 3c3e fb64 90be
000000b0: 7be8 0bbe c03a 063e 354a e63d 3e4f 503e
000000c0: 2ce3 6c3e b3d0 07be 42f1 adbd 8abc bc3c
000000d0: 3e98 3b3e c2bf 6f3e 0655 563e 8548 a5bd
000000e0: a149 ea3d ad31 833e ecaa 313e e190 e53d
000000f0: 58bc 1c3e 3bf9 773e e922 8e3d cac7 45be
00000100: 37e9 513d 1250 b4bd 1092 523e 5bd1 84bc
00000110: 3df6 863d ff77 3dbe 679c 4e3e 37ce 5c3e
00000120: ecba 593e 7a93 eabd 35ef ec3d 0855 39be
00000130: 4c0a 753e 0323 393e 3856 bebd d1a0 c93d
00000140: 832f bcbd 2a22 a2be c25e f9bd 46dd cb3d
00000150: ed7f 143e 670d 1d3e a928 30be 9f33 bdbd
00000160: 16c8 f6bd 4f32 cf3c c51a 293d 5cdb 0a3e
00000170: 51bb 70bd dfcd babd 70fd 04be 932a 4f3e
00000180: 4111 ebbd 6998 edbd 1dfc f6bd 8f3f 63be
00000190: 1661 b5bd 7be1 44be cc04 bc3b 24ca 083e
000001a0: 8f43 83bd 17f4 133e 54fb 5abe 3a1e 103e
000001b0: 6d2b 123d 39ef a03e 7310 13bd dbeb 16be
000001c0: 37f9 50be 485e 303e c0da 16be 7421 cf3d
000001d0: d348 da3c 5fdd 0f3d 0a64 1dbe 710d ab3c
000001e0: eb51 64bd d74b 1ebe c460 813d 667f 9c3e
000001f0: 2428 cf3d d89c bb3d 6b3a 78be 647f 4fbe
00000200: 187d 58be 840e 523e 3901 93bd fb35 bf3d
00000210: cb27 83be 62b5 2dbe acf8 70be 4e9b 34be
00000220: a026 173e 399e af3d ccbd 993d c0c8 b5bc
00000230: cfed 7dbd b146 b33e 7184 a53d 8f62 69be
00000240: fa16 89be 6399 7bbc 0ec7 343e a225 3c3d
00000250: 3f04 373e 0372 cabd 2346 c33d 5c8d 653e
00000260: ca8c bbbd 7dbf 12be 2b3f 053b f7a4 b63d
00000270: e0e4 a33d a9c0 f03d 577f 673e 99f7 7c3e
00000280: d845 d13c e739 febc b66c 5c3d 42b4 22be
00000290: a5d7 333e aa0e 043d 4dc3 ddbd 72e4 0d3e
000002a0: d450 12be 71d1 10be 05cf 07be 0c16 05be
000002b0: e643 11bd a674 273e cdce 403d f2a6 243e
000002c0: dc58 3f3d c7d7 f5bd d418 2dbe 2773 c7bd
000002d0: 7cfe 533e 6f2f 7ebd 6ada 2a3e d7ff 1abe
000002e0: 9218 8dbd 7724 43be 076d 9e3c b82c 20bd
000002f0: 9813 1c3d 95d1 303d 14a3 e7bd b8e7 57be
00000300: f447 853d 894c 1f3e 2e03 34be eef0 463e
00000310: 30e2 81be c0c4 a63c c298 99bd 941b 423d
00000320: ba5c 203e 926f d3bd 46b6 343e 1bbf 4f3e
00000330: 5050 933e 08b6 abba 4dea bfbc b760 4f3d
00000340: 0ade 183d da6f 743e 1220 7dbc 7d13 eabc
00000350: 358f c83d 0524 313e 974b 833c f6de 56be
00000360: 7a36 1abd 6a83 62be ef55 02be cdcb e23c
00000370: b64e 2cbe 639d 2a3e fa9c 67be c6c7 c73d
00000380: 4214 03bd dc45 5abe c67a 623e 4aee e8bd
00000390: 3dc8 363e d6c0 5c3c fb39 97bd cd2f 2cbe
000003a0: 8e31 d03d e600 773e b9e3 a63d ac0e 28be
000003b0: c77b 0abe 4ce4 5c3e 6b46 b33d 70a9 0ebb
000003c0: b360 7f3e 18bf 273e 2fd1 9e3e 1691 5abe
000003d0: 9c55 80bd 9169 9bbe b486 003d 520f 383e
000003e0: b94a 94be 40dd 5fbd 492c 95be 9424 373e
000003f0: e386 a63e ad5d b23e f816 b33d 3ec8 9339

bias f4 [20]
0.087291494 -0.070395485 -0.08396165 -0.19171384 0.08330092 -0.118437834 -0.07015528 -0.06442824
-0.16935554 -0.1662667 0.16024041 0.12318932 -0.03432446 -0.09146792 0.123780936 -0.0170266
0.22737373 -0.1647583 -0.0444804 -0.02954715
00000000: e2c5 b23d 822b 90bd 16f4 abbd a250 44be
00000010: ac99 aa3d 898f f2bd 92ad 8fbd f4f2 83bd
00000020: 8a6b 2dbe d141 2abe 1016 243e af4a fc3d
00000030: ce97 0cbd 8853 bbbd dc80 fd3d 5e7b 8bbc
00000040: a9d4 683e 66b6 28be 1431 36bd dd0c f2bc

weight f4 [20, 20]
0.0050691036 0.16118613 0.117034 -0.019807918 0.012668914 0.10496179 -0.11086024 -0.1440913
0.031348724 0.10686603 0.19409247 -0.17419542 0.06410825 0.08977022 -0.21505652 -0.04348775
-0.0005265199 -0.23451999 -0.13959312 -0.107985534 0.07405376 0.0066329245 -0.0999548 -0.17022881
0.32580125 0.16412793 0.225679 0.04821397 0.18432042 -0.13044208 0.17880258 -0.009078477
0.03686676 -0.011830459 -0.15497172 0.2523788 0.123036854 -0.12445395 -0.050396353 0.21678232
0.15145689 0.15007249 -0.20254952 -0.030914687 0.15727721 0.15716904 0.15049772 -0.21858913
-0.13988833 0.25726497 0.28580597 0.09397876 0.24092335 -0.099503115 -0.109888606 -0.1605766
-0.1185044 -0.19429672 -0.08803204 0.22254147 -0.21164876 0.17677338 0.3295521 0.10854239
-0.1947409 -0.21602522 -0.11196859 0.16767961 -0.09041883 -0.0705318 -0.12067078 0.22248547
-0.11055769 -0.27900264 0.21508974 -0.08621329 0.19478956 0.051486887 0.099976614 -0.26231697
-0.10919547 0.060856365 -0.31427038 -0.31649265 0.1990628 -0.17647362 0.05327877 -0.24864013
0.21244729 0.21967113 -0.004668524 -0.1127464 0.24032468 0.108168855 -0.06962298 -0.060766052
-0.08871841 -0.09869686 -0.17494632 0.102080755 -0.26070377 0.13112688 0.32253966 0.27035883
-0.0645398 -0.20875353 -0.3041981 0.2962715 0.017882012 0.086864814 -0.13416186 0.16402459
-0.01650066 0.01659139 -0.063671455 -0.2934134 0.21475843 0.03027768 0.13552655 -0.20441951
-0.08237154 -0.16679955 -0.02565927 -0.05587328 0.019230114 -0.025644487 -0.122633725 -0.1836525
-0.117101274 0.22549486 0.15389653 -0.122967385 0.086320005 0.28238058 -0.10645922 0.22203462
-0.21975197 -0.094617195 -0.2080137 0.12272605 0.03233182 0.1630002 0.18306464 0.23405816
-0.2245399 -0.1919261 0.069107786 -0.08757339 -0.14922515 0.05882113 -0.08890043 -0.06676716
0.13895136 -0.08841631 -0.10190845 -0.053307295 0.013426988 0.18084492 0.044409946 -0.07502371
0.0223765 0.06857311 0.17995276 0.16755463 0.014216059 0.17854066 -0.25368357 0.10493131
-0.1978993 -0.24105898 -0.10272702 0.12528418 -0.27036995 0.06977758 0.18747018 -0.26175332
-0.146924 0.20384495 0.0071458844 0.095880374 -0.19754744 0.26469946 0.07224983 0.20706147
-0.030209586 -0.19006027 0.12850904 0.19405097 0.10022901 0.13175358 0.16275664 -0.041321136
-0.017111469 -0.13218014 0.022808885 -0.22558855 0.092969045 -0.19104727 0.21637 0.031915296
0.055847034 -0.13576029 -0.23744911 -0.049985778 -0.01258252 -0.15929295 0.24816498 -0.13520055
-0.093219124 -0.1491508 -0.10466112 -0.103093974 0.10757791 -0.1290754 -0.15617041 0.14185482
0.0042460416 -0.265261 0.09737633 0.26845777 -0.23337458 -0.122416474 -0.14079963 0.14166167
-0.24651723 -0.22107492 -0.15761004 0.05093074 -0.02453049 -0.08082624 -0.19276182 -0.16346434
-0.15523545 -0.007136786 0.25984275 -0.07642268 0.0750484 0.17707254 0.022775188 -0.08376823
0.10774153 -0.10287895 -0.074964575 -0.32120398 0.33387715 0.29292732 -0.033429205 -0.22048819
-0.20862798 -0.024996916 0.11637003 -0.14199936 -0.128823 0.0044885403 -0.008549027 -0.001277881
00000000: b91a a63b fa0d 253e 86af ef3d 3744 a2bc
00000010: 4791 4f3c 35f6 d63d b20a e3bd ab8c 13be
00000020: 8567 003d 94dc da3d 2dc0 463e 4960 32be
00000030: 304b 833d 73d9 b73d c737 5cbe 3620 32bd
00000040: 2706 0aba 0226 70be 80f1 0ebe 8527 ddbd
00000050: 7fa9 973d 0159 d93b 1ab5 ccbd 7650 2ebe
00000060: 6ccf a63e 2711 283e 6518 673e 037c 453d
00000070: 7ebe 3c3e 9c92 05be 0618 373e e4bd 14bc
00000080: 9a01 173d 8bd4 41bc e8b0 1ebe cb37 813e
00000090: bffa fb3d b6e1 febd 686c 4ebd 2ffc 5d3e
000000a0: 8417 1b3e 9aac 193e 2469 4fbe cc40 fdbc
000000b0: 470d 213e ecf0 203e 131c 1a3e d4d5 5fbe
000000c0: e33e 0fbe 3cb8 833e 2955 923e f077 c03d
000000d0: 9cb4 763e 4ac8 cbbd 470d e1bd 316e 24be
000000e0: 6fb2 f2bd b8f5 46be 244a b4bd e9e1 633e
000000f0: 74ba 58be 1504 353e 0ebb a83e 794b de3d
00000100: 296a 47be b735 5dbe ca4f e5bd 34b4 2b3e
00000110: 822d b9bd fa72 90bd 3e22 f7bd 3bd3 633e
00000120: 126c e2bd 6fd9 8ebe 7c40 5c3e 9890 b0bd
00000130: ea76 473e eae3 523d 8ac0 cc3d 694e 86be
00000140: e0a1 dfbd 8644 793d 0ce8 a0be 530b a2be
00000150: 1ed7 4b3e 80b5 34be d73a 5a3d 859b 7ebe
00000160: c88b 593e 78f1 603e 6bfa 98bb 96e7 e6bd
00000170: ac17 763e a287 dd3d 7e96 8ebd d3e5 78bd
00000180: ffb1 b5bd 9421 cabd 2125 33be b70f d13d
00000190: f77a 85be 2046 063e eb23 a53e 796c 8a3e
000001a0: 712d 84bd 7cc3 55be dabf 9bbe e6b0 973e
000001b0: 4c7d 923c 2ee6 b13d ba61 09be 10f6 273e
000001c0: 642c 87bc abea 873c 2e66 82bd 483a 96be
000001d0: a2e9 5b3e e608 f83c 79c7 0a3e 5953 51be
000001e0: 69b2 a8bd 80cd 2abe 6433 d2bc 61db 64bd
000001f0: 7988 9d3c 6314 d2bc 6427 fbbd 670f 3cbe
00000200: cbd2 efbd 20e8 663e 0d97 1d3e 53d6 fbbd
00000210: 8bc8 b03d 3094 903e 4b07 dabd 0b5d 633e
00000220: a906 61be a9c6 c1bd 8b01 55be cc57 fb3d
00000230: 5f6e 043d 86e9 263e 4c75 3b3e f1ac 6f3e
00000240: caed 65be 4788 44be 6288 8d3d ad59 b3bd
00000250: 7ace 18be 6dee 703d 6e11 b6bd 39bd 88bd
00000260: 4449 0e3e 9c13 b5bd 61b5 d0bd c058 5abd
00000270: dffc 5b3c 692f 393e 34e7 353d 08a6 99bd
00000280: ec4e b73c 0f70 8c3d 8945 383e 7193 2b3e
00000290: 79ea 683c 5dd3 363e d0e2 81be 3ae6 d63d
000002a0: 1da6 4abe 2ad8 76be 8b62 d2bd 7f4a 003e
000002b0: ee6d 8abe 8ce7 8e3d 2ff8 3f3e 8804 86be
000002c0: 3f73 16be bbbc 503e 0628 ea3b ee5c c43d
000002d0: e049 4abe b086 873e b8f7 933d ec07 543e
000002e0: 187a f7bc 299f 42be e097 033e 4cb5 463e
000002f0: de44 cd3d 69ea 063e ada9 263e 5a40 29bd
00000300: 5a2d 8cbc 3b5a 07be b3d9 ba3c af00 67be
00000310: 8e66 be3d e5a1 43be 1990 5d3e 9db9 023d
00000320: dcbf 643d bf04 0bbe dc25 73be e3bd 4cbd
00000330: ea26 4ebc b11d 23be f61e 7e3e 0372 0abe
00000340: abe9 bebd fdba 18be 9258 d6bd ef22 d3bd
00000350: cf51 dc3d 572c 04be 23eb 1fbe 6442 113e
00000360: 6122 8b3b 4ad0 87be 3e6d c73d 4c73 893e
00000370: bff9 6ebe 7db5 fabd c72d 10be c20f 113e
00000380: 036f 7cbe 7761 62be 8764 21be c09c 503d
00000390: 2bf4 c8bc 3a88 a5bd 5b63 45be 3263 27be
000003a0: 0bf6 1ebe b3db e9bb 1c0a 853e 7e83 9cbd
000003b0: fab2 993d 8152 353e 0893 ba3c ae8e abbd
000003c0: 97a7 dc3d 33b2 d2bd 0787 99bd d974 a4be
000003d0: f2f1 aa3e 92fa 953e 10ed 08bd a8c7 61be
000003e0: 93a2 55be 55c6 ccbc 6953 ee3d 4868 11be
000003f0: 2dea 03be 9b14 933b 3811 0cbc 927e a7ba

bias f4 [20]
0.15703425 -0.045823716 0.2394057 -0.06014776 0.20011678 0.0926098 0.18167663 0.042260952
-0.007980836 0.17722994 0.120953955 -0.08456962 -0.112986274 0.08075147 -0.11300194 -0.12143598
-0.15830931 -0.01480716 -0.038062654 0.10157207
00000000: 96cd 203e a6b1 3bbd c526 753e 7f5d 76bd
00000010: 6aeb 4c3e 35aa bd3d 7009 3a3e d219 2d3d
00000020: 0dc2 02bc c47b 353e b5b6 f73d d632 adbd
00000030: 5965 e7bd 0761 a53d 906d e7bd 6db3 f8bd
00000040: d61b 22be bb99 72bc 96e7 1bbd 0405 d03d

weight f4 [20, 20]
0.05574675 0.22369042 0.0022366229 -0.25899658 0.29657686 -0.051088862 -0.118451856 0.044489626
0.0732184 -0.037262455 -0.08365965 -0.14730817 0.18931477 0.28046763 0.09949899 0.028710388
-0.18734632 -0.14578992 0.22195809 -0.007484252 0.23621015 0.025602544 -0.0084711 6.3225714e-05
0.20985606 -0.009383498 0.043801192 -0.1725143 -0.2339684 0.24155764 0.048447438 -0.057718456
0.15815619 0.000604181 0.15574835 0.14532368 -0.10316299 -0.07926558 0.2746755 0.2368917
0.120900765 0.048650905 0.11344302 -0.30786562 0.1452781 -0.27744928 0.17739579 -0.21420969
-0.20015474 -0.06366504 0.16852666 0.071808025 0.10359518 -0.021266008 0.18346721 -0.31077352
0.016868213 -0.09479748 0.100862496 -0.020302696 -0.10179104 0.18730792 -0.1852843 -0.07267747
-0.027109439 -0.2705496 -0.06413518 -0.24577026 -0.13704492 0.14767887 0.09207151 -0.15398994
0.18291987 0.13915859 -0.061825637 -0.25813884 -0.19656071 -0.016067134 -0.28093532 -0.08910059
0.00070859265 0.16272072 0.06910322 -0.037229817 0.041005153 -0.09242822 0.15354358 -0.16279471
0.015845 0.060267612 0.19440266 -0.08133421 -0.18243337 0.25740913 0.034595296 0.06617494
-0.22996508 -0.19329345 0.07455506 -0.004700085 -0.15241386 0.055505086 -0.084885724 -0.022065775
0.16902575 0.09977063 0.21549861 0.068429 -0.23261045 0.07582235 0.04222664 -0.2905023
0.019001437 0.004641085 0.23942322 -0.037482824 -0.20022178 -0.27446955 -0.28841212 0.16529135
0.15072082 0.10350347 0.25875977 0.09406252 -0.1196478 -0.09834276 0.08148216 -0.025607355
0.005608776 -0.09362404 0.20131579 0.15693925 -0.26278538 0.074586086 0.0470306 0.06810833
-0.13396023 -0.07909159 0.1712587 0.18264872 0.17840669 -0.091581896 -0.09628112 -0.12698229
0.1869291 -0.24269043 0.083952606 -0.21650952 -0.23105635 -0.13144957 0.06354912 0.0060362685
0.22567528 0.19119453 0.09997856 0.044629663 -0.12533283 0.06769266 0.20414767 -0.08609866
-0.25728422 -0.18423395 -0.26494965 0.12830612 0.014529556 0.03967707 -0.19094524 0.10255209
0.16864416 -0.20233144 -0.1274343 0.07877217 0.0518211 -0.27661595 -0.19589545 0.15505615
0.2743212 0.15796804 0.062676825 -0.27789462 -0.1255854 -0.14256667 0.025283754 -0.1616243
-0.1414427 -0.016767848 0.03255903 0.26119992 -0.08531953 -0.12785445 0.03081469 -0.111865334
-0.076390006 0.18276308 -0.24221729 0.27475554 0.18398878 -0.0059707565 0.16618073 -0.13109568
0.18786238 -0.14253984 -0.16149263 0.23030536 -0.14664158 0.17569521 -0.23746417 -0.07556018
-0.04420227 0.23791622 -0.13623981 0.24524857 -0.29700392 0.15624633 -0.21251856 -0.034505777
0.13967006 0.16814576 -0.11734548 -0.0398146 -0.19017015 -0.14272198 0.03711696 0.06242436
-0.13271993 0.07230376 -0.047194283 -0.095541015 -0.06094372 0.23725884 -0.271956 0.20188348
-0.0551736 0.03522523 -0.27144393 0.3055743 0.17939626 0.08082438 0.24973705 -0.23307234
-0.19667977 -0.11897142 -0.17074098 0.15143226 -0.05810505 0.24978976 -0.060997743 0.14192109
0.2506939 -0.05764315 0.0928457 -0.15803422 -0.12338503 -0.007920704 -0.17659238 0.19659592
00000000: b456 643d 1a0f 653e 4e94 123b 339b 84be
00000010: ecd8 973e 8e42 51bd e396 f2bd c13a 363d
00000020: 87f3 953d 84a0 18bd c055 abbd f4d7 16be
00000030: bbdb 413e 7499 8f3e 20c6 cb3d 0c32 eb3c
00000040: b7d7 3fbe f449 15be fb48 633e 753e f5bb
00000050: 13e1 713e 6dbc d13c 5eca 0abc 0c98 8438
00000060: 82e4 563e 3ebd 19bc e168 333d 97a7 30be
00000070: 6a95 6fbe e35a 773e d270 463d 306a 6cbd
00000080: b2f3 213e e761 1e3a 7f7c 1f3e bbcf 143e
00000090: 1e47 d3bd fe55 a2bd 44a2 8c3e bd93 723e
000000a0: d29a f73d 2c46 473d d054 e83d 90a0 9dbe
000000b0: c8c3 143e d50d 8ebe 3ea7 353e c959 5bbe
000000c0: 5df5 4cbe d162 82bd 4192 2c3e 1610 933d
000000d0: b629 d43d 0d36 aebc d4de 3b3e b51d 9fbe
000000e0: 352f 8a3c 2e25 c2bd ff90 ce3d d751 a6bc
000000f0: d277 d0bd a6cd 3f3e 2bbb 3dbe edd7 94bd
00000100: 9d14 debc 7a85 8abe 4e59 83bd 33ab 7bbe
00000110: 8155 0cbe 2139 173e fd8f bc3d 8aaf 1dbe
00000120: 594f 3b3e 977f 0e3e e13c 7dbd c62a 84be
00000130: 3647 49be 399f 83bc c1d6 8fbe 5f7a b6bd
00000140: d9c0 393a 43a0 263e fd85 8d3d 4b7e 18bd
00000150: 05f5 273d 024b bdbd 873a 1d3e a8b3 26be
00000160: 60cd 813c 2cdb 763d 7e11 473e 8d92 a6bd
00000170: d0cf 3abe 21cb 833e ccb3 0d3d ba86 873d
00000180: f77b 6bbe b8ee 45be 53b0 983d 2c03 9abb
00000190: 6112 1cbe 4d59 633d 91d8 adbd 49c3 b4bc
000001a0: 1615 2d3e 8b54 cc3d abab 5c3e 8124 8c3d
000001b0: 6f31 6ebe c048 9b3d d7f5 2c3d b8bc 94be
000001c0: e7a8 9b3c 3e14 983b 5c2b 753e 9787 19bd
000001d0: f006 4dbe 4687 8cbe c1aa 93be 2342 293e
000001e0: 8f56 1a3e a1f9 d33d 297c 843e daa3 c03d
000001f0: e809 f5bd ee67 c9bd 1ee0 a63d 84c6 d1bc
00000200: d3c9 b73b f6bd bfbd ba25 4e3e afb4 203e
00000210: ce8b 86be 97c0 983d 29a3 403d 617c 8b3d
00000220: df2c 09be c6fa a1bd 715e 2f3e 4408 3b3e
00000230: 3eb0 363e 4a8f bbbd 092f c5bd a507 02be
00000240: 586a 3f3e d783 78be 58ef ab3d acb4 5dbe
00000250: 099a 6cbe b79a 06be 0b26 823d e4cb c53b
00000260: 6c17 673e 80c8 433e 8fc1 cc3d 98cd 363d
00000270: 4057 00be 73a2 8a3d 160c 513e 7f54 b0bd
00000280: c2ba 83be d3a7 3cbe 7ba7 87be ae62 033e
00000290: 600d 6e3c 6c84 223d 2687 43be d506 d23d
000002a0: 0eb1 2c3e f92f 4fbe 237e 02be 4e53 a13d
000002b0: 5d42 543d 9ba0 8dbe d198 48be 0ac7 1e3e
000002c0: d473 8c3e 60c2 213e b55c 803d 3448 8ebe
000002d0: 7699 00be fffc 11be e01f cf3c d780 25be
000002e0: 5bd6 10be ba5c 89bc 9e5c 053d ffbb 853e
000002f0: 01bc aebd 47ec 02be 176f fc3c a719 e5bd
00000300: 5d72 9cbd 3f26 3b3e cf07 78be c2ac 8c3e
00000310: 8e67 3c3e 56a6 c3bb 482b 2a3e f23d 06be
00000320: ff5e 403e f7f5 11be 535e 25be 2bd5 6b3e
00000330: 3629 16be 72e9 333e cf29 73be 4cbf 9abd
00000340: 710d 35bd 4fa0 733e 7382 0bbe 7122 7b3e
00000350: e610 98be 0aff 1f3e 779e 59be ee55 0dbd
00000360: ab05 0f3e 672e 2c3e d452 f0bd a214 23bd
00000370: f7bb 42be b625 12be f407 183d b0b0 7f3d
00000380: bce7 07be fe13 943d cb4e 41bd 02ab c3bd
00000390: 1fa0 79bd fbf3 723e d13d 8bbe 8bba 4e3e
000003a0: b6fd 61bd 5548 103d b3fa 8abe 3c74 9c3e
000003b0: a7b3 373e 4187 a53d 12bb 7f3e 84aa 6ebe
000003c0: 6c66 49be 4aa7 f3bd b9d6 2ebe 0f11 1b3e
000003d0: 90ff 6dbd e3c8 7f3e c5d8 79bd c353 113e
000003e0: f35a 803e 391b 6cbd e325 be3d b9d3 21be
000003f0: 4ab1 fcbd d7c5 01bc a2d4 34be 7150 493e

bias f4 [20]
0.016584242 -0.034239102 0.072494864 -0.08229641 0.04407968 -0.12047433 0.14907698 -0.09873998
-0.12241883 0.16115506 0.0413345 -0.007339303 -0.071007706 -0.04748705 -0.111702725 -0.13505025
-0.1735214 0.016588641 -0.050153617 0.04087637
00000000: addb 873c 4d3e 0cbd 3078 943d 058b a8bd
00000010: e58c 343d 3fbb f6bd a3a7 183e 3038 cabd
00000020: b9b6 fabd d505 253e 5d4e 293d 897e f0bb
00000030: 7d6c 91bd c881 42bd 66c4 e4bd 9d4a 0abe
00000040: 98af 31be e7e4 873c e16d 4dbd fb6d 273d

weight f4 [20, 20]
0.14610057 -0.20302953 -0.24759163 0.041885607 0.012531915 -0.08834924 -0.14450416 -0.05757934
0.066795595 0.19586775 -0.06459941 0.013258849 0.26871717 -0.19746722 -0.048549257 0.05740224
-0.20546797 -0.09645426 0.07938032 0.060728017 -0.17021461 0.14243105 -0.20885555 0.17515467
-0.062321335 0.1535751 -0.23587668 -0.008024987 0.12845182 0.13850956 0.14747286 0.03843461
0.095567115 -0.08790509 0.062297676 -0.19862743 -0.0199826 0.033626974 -0.2406071 0.20052542
0.28281102 0.069837175 0.27382025 0.085331276 0.251685 -0.12484595 -0.064242885 -0.13023575
-0.09084552 0.039226912 -0.16485068 -0.14985143 0.06698304 0.19484954 -0.19240083 -0.11556452
0.1361114 -0.23861434 -0.039962795 -0.06930329 0.22981302 0.18198624 0.1129869 -0.08827621
-0.10492873 0.018340632 0.12579012 0.12533814 0.1514137 0.04386227 -0.21516153 -0.10610996
-0.24593312 0.028558644 0.073640846 -0.06477018 0.102288805 -0.26422045 0.09692977 -0.078678876
0.021080393 -0.04049999 -0.005551865 -0.060673475 0.27368245 -0.034364823 0.09601723 -0.076204285
-0.2227442 -0.009895983 -0.015638556 0.07464258 -0.100793175 -0.09730571 -0.006169369 0.014920933
-0.194867 0.07146183 0.1581291 -0.1843951 0.092886634 -0.08571943 0.1572218 0.13583808
0.26039755 0.23440656 -0.14715305 0.004770387 -0.03202359 -0.057124138 -0.26948664 -0.315717
-0.22121266 -0.055090643 -0.055320226 -0.039013483 0.0029527685 -0.15709965 0.1878269 -0.1369769
0.23071247 0.034544323 0.22761211 0.046464384 -0.13703561 0.092630744 0.23370951 0.17218082
-0.22990611 0.20450437 0.051688965 -0.007799932 -0.10324593 0.26713672 -0.16240074 -0.15112524
0.18092489 -0.07952459 0.06887969 -0.051171243 0.18381198 0.30674335 0.20430315 -0.10093356
0.28605843 0.17929448 0.15049611 -0.1401543 0.10648011 0.09358443 0.008454538 0.14818247
-0.18205282 0.18613105 0.13579442 0.1818301 -0.13977212 -0.21215282 -0.029760132 -0.021964062
0.23613459 0.034890372 0.26196346 0.009918397 0.08506989 0.26115125 -0.08123047 0.2667669
0.11489906 0.10433676 -0.12629184 -0.28794 -0.31248808 0.2830952 -0.19903198 -0.009715314
0.12118163 -0.077651985 0.04922001 -0.14275151 -0.10148742 -0.05587664 0.26034924 0.13817593
0.17649162 0.19051881 0.19999811 0.13425408 -0.018258205 0.06251106 0.05024735 0.05378409
0.03396816 0.17630117 -0.16853242 -0.06791206 -0.12661776 -0.25134668 0.016837783 0.14825967
-0.31540444 -0.08912906 -0.291265 -0.20987743 -0.27704528 -0.006972468 0.050385013 -0.07984678
0.2928846 0.18348987 0.26148537 0.22446926 0.31365943 0.09033436 0.19853519 -0.17174225
-0.088605896 -0.048155602 -0.09131747 -0.042402413 -0.00013257015 -0.18720199 -0.10567605 0.15462548
-0.14662647 0.005793781 -0.109103195 -0.2570352 -0.109773226 0.13855684 -0.14615835 0.08803275
0.048474036 0.065057755 -0.010727527 0.110399134 -0.082806185 0.17449458 -0.25274703 0.06885941
-0.021272467 0.17848694 0.027198534 -0.19870266 0.10394884 0.13132374 -0.014294995 0.07182612
-0.1480565 -0.050259948 -0.07247167 -0.13633333 0.06910861 0.2222497 0.10998913 0.09688824
00000000: 639b 153e f9e6 4fbe a988 7dbe 3e90 2b3d
00000010: a952 4d3c 72f0 b4bd e6f8 13be 50d8 6bbd
00000020: 21cc 883d 8e91 483e b24c 84bd a53b 593c
00000030: 4c95 893e d934 4abe 96db 46bd 9c1e 6b3d
00000040: 3266 52be d089 c5bd 2692 a23d f1bd 783d
00000050: bd4c 2ebe 72d9 113e 3bde 55be bf5b 333e
00000060: a844 7fbd ca42 1d3e a889 71be 3c7b 03bc
00000070: e088 033e 73d5 0d3e 2003 173e 9c6d 1d3d
00000080: b1b8 c33d 9507 b4bd d92b 7f3d fd64 4bbe
00000090: 8db2 a3bc 70bc 093d b561 76be 8956 4d3e
000000a0: 9bcc 903e cb06 8f3d 2b32 8c3e 2ac2 ae3d
000000b0: dbdc 803e 3caf ffbd c691 83bd 855c 05be
000000c0: 370d babd 66ac 203d 9ece 28be a772 19be
000000d0: 672e 893d a386 473e b904 45be 17ad ecbd
000000e0: c960 0b3e 5157 74be 07b0 23bd e2ee 8dbd
000000f0: 1b54 6b3e 9a5a 3a3e ad65 e73d 28ca b4bd
00000100: e0e4 d6bd 183f 963c 20cf 003e a458 003e
00000110: 310c 1b3e eca8 333d 4e53 5cbe 2e50 d9bd
00000120: e4d5 7bbe d1f3 e93c 03d1 963d 3aa6 84bd
00000130: cb7c d13d e747 87be 1e83 c63d 6422 a1bd
00000140: cab0 ac3c 51e3 25bd 6bec b5bb c084 78bd
00000150: 1b20 8c3e 21c2 0cbd aea4 c43d fe10 9cbd
00000160: 0e17 64be c322 22bc 6e1c 80bc 35de 983d
00000170: a76c cebd 3748 c7bd 6b28 cabb ee76 743c
00000180: 378b 47be 945a 923d 98ec 213e 12d2 3cbe
00000190: 593b be3d ab8d afbd c0fe 203e 2319 0b3e
000001a0: d452 853e 4608 703e 4aaf 16be e850 9c3b
000001b0: 2b2b 03bd 00fb 69bd 27fa 89be a9a5 a1be
000001c0: 9285 62be baa6 61bd 7697 62bd 9acc 1fbd
000001d0: 3c83 413b bbde 20be b255 403e ac43 0cbe
000001e0: e43f 6c3e 597e 0d3d 2613 693e 7051 3e3d
000001f0: 1053 0cbe 30b5 bd3d 8c51 6f3e 2b50 303e
00000200: 826c 6bbe 9869 513e cfb7 533d 9296 ffbb
00000210: 9a72 d3bd 25c6 883e 614c 26be 93c0 1abe
00000220: 6044 393e cadd a2bd cb10 8d3d f098 51bd
00000230: 3539 3c3e 770d 9d3e d834 513e 41b6 cebd
00000240: 4076 923e f998 373e a71b 1a3e 9c84 0fbe
00000250: 3e12 da3d 32a9 bf3d e784 0a3c 25bd 173e
00000260: 0e6c 3abe 2399 3e3e b10d 0b3e ab31 3a3e
00000270: 6c20 0fbe 973e 59be 85cb f3bc faed b3bc
00000280: 44cd 713e 35e9 0e3d 1320 863e c680 223c
00000290: 1f39 ae3d 9eb5 853e 295c a6bd ac95 883e
000002a0: 3350 eb3d 83ae d53d a652 01be df6c 93be
000002b0: 70fe 9fbe dbf1 903e 0acf 4bbe fb2c 1fbc
000002c0: 132e f83d 0108 9fbd ec9a 493d 742d 12be
000002d0: a3d8 cfbd e7de 64bd 7f4c 853e fe7d 0d3e
000002e0: 38ba 343e 5d17 433e 4ecc 4c3e e779 093e
000002f0: 3b92 95bc cc05 803d 2ad0 4d3d b54c 5c3d
00000300: 3322 0b3d 4b88 343e c393 2cbe 7a15 8bbd
00000310: 16a8 01be 83b0 80be 64ef 893c 62d1 173e
00000320: b17c a1be 4c89 b6bd b020 95be 1cea 56be
00000330: e1d8 8dbe 4d79 e4bb 8460 4e3d b586 a3bd
00000340: f8f4 953e c5e4 3b3e 69e1 853e 45db 653e
00000350: f897 a03e 3901 b93d cf4c 4b3e 33dd 2fbe
00000360: 0277 b5bd cf3e 45bd a704 bbbd 27ae 2dbd
00000370: 8702 0bb9 e1b1 3fbe af6c d8bd 2456 1e3e
00000380: 4025 16be c2d9 bd3b 7f71 dfbd 1e9a 83be
00000390: c9d0 e0bd d8e1 0d3e 89aa 15be 844a b43d
000003a0: b68c 463d 003d 853d 82c2 2fbc f118 e23d
000003b0: 4a96 a9bd b5ae 323e 0f68 81be 2a06 8d3d
000003c0: 9943 aebc 48c5 363e 76cf de3c b678 4bbe
000003d0: 21e3 d43d bb79 063e 8e35 6abc 9319 933d
000003e0: 209c 17be 60dd 4dbd 076c 94bd f79a 0bbe
000003f0: d188 8d3d 6d95 633e fb41 e13d 576d c63d

bias f4 [20]
-0.1706553 0.14181237 0.22034815 0.13324893 0.2043469 -0.10146253 -0.055338934 -0.013156159
0.06766871 0.22229074 -0.112208925 -0.11412195 -0.14941 0.030353855 -0.04619018 -0.06876993
-0.09672001 0.070647836 -0.10651228 -0.13862675
00000000: 43c0 2ebe 4337 113e f2a2 613e 6872 083e
00000010: 5040 513e 96cb cfbd 14ab 62bd ee8c 57bc
00000020: e595 8a3d 2fa0 633e cbcd e5bd c5b8 e9bd
00000030: effe 18be a6a8 f83c ea31 3dbd 40d7 8cbd
00000040: 2415 c6bd d0af 903d 1c23 dabd 2cf4 0dbe

weight f4 [20, 20]
0.11211504 -0.049246024 -0.0050575454 0.2390402 0.21850774 -0.050532848 0.15726143 -0.010879533
0.18090458 0.0337355 0.1555685 -0.052278463 0.010106799 -0.0021170839 0.22869048 0.13207567
0.25626177 -0.23142487 -0.13610905 -0.16404076 0.06767374 -0.0641104 -0.011548626 0.09274025
-0.109984785 -0.021480735 -0.07868764 -0.10740422 -0.27836886 -0.13574414 -0.15032439 0.095822
0.01242583 -0.23650613 -0.1779566 0.06004562 -0.2877007 -0.10880845 0.23160955 0.18618932
-0.08764624 -0.012452114 0.123700865 -0.06207685 -0.0034216053 0.01980208 0.2862998 -0.116592675
0.034981724 0.19736806 -0.24349646 -0.22959515 0.22829589 0.16352692 0.21996202 -0.072053954
0.0894384 -0.23763476 0.07340458 -0.14353597 -0.17174068 -0.043516353 -0.067068785 0.074505866
-0.102207646 -0.1408723 -0.2786603 -0.28451693 -0.0348329 0.14260568 0.062995896 0.03406856
-0.03046915 -0.24161701 0.050653093 -0.27015465 0.058415055 0.16101289 0.18042274 -0.010151813
-0.07374247 -0.25193825 0.21483386 0.18149082 -0.04262779 0.23144317 0.041505754 -0.042097125
0.17784932 0.20942387 -0.31966174 -0.07549429 0.042954605 0.037087407 0.09529991 0.25767097
-0.075712 0.1945564 0.024909334 -0.15581447 -0.21438605 -0.19132723 0.2657089 -0.09911958
-0.08048033 0.20841306 0.1690332 -0.046838842 0.16300847 0.06695281 -0.17058402 -0.15483941
0.1096947 0.13941039 -0.007294969 0.17893846 0.120388664 -0.013430561 0.17649648 0.012414031
-0.16048692 0.17417896 0.15803903 -0.17949383 -0.013966172 -0.17045869 -0.220386 -0.12413217
-0.021758687 0.012860989 -0.1410165 0.058042347 -0.10347524 -0.016307428 -0.28414533 -0.21372746
0.036154542 0.08598637 0.14833419 0.16873033 -0.028337888 0.02206104 0.092780314 -0.13048801
0.048589148 -0.16257899 0.03883937 0.12212377 -0.102761544 -0.052216306 0.13157868 -0.16456829
0.0058013266 0.029181818 0.05626982 0.21295229 0.027140072 -0.008837974 -0.20958158 -0.22089536
0.0038280117 -0.23184852 -0.05271754 0.18541321 0.10707606 -0.15228957 0.27060905 0.17724364
0.056856018 0.12157313 0.0053038495 0.16095436 0.19004746 0.08559791 -0.12583235 0.09188926
0.08371969 -0.15846518 -0.21297015 0.15860447 -0.22788347 0.13752817 0.2822151 0.17150895
0.2679021 0.041425236 -0.08742137 0.31019163 -0.046024594 0.25940934 0.14814733 -0.18499078
0.21754912 0.28755224 0.07022293 -0.13518424 0.35657942 -0.033336964 -0.1426369 -0.011226021
-0.23050183 -0.079465546 0.2587838 -0.09425543 0.13581717 0.2597064 0.14739724 0.29492304
0.19944853 -0.15853491 -0.14962953 -0.26355156 -0.16490066 -0.013962548 0.12254771 0.07212865
0.026285306 0.011136245 0.15705495 -0.0657739 -0.103528 -0.2537202 0.19616437 0.259221
0.10683617 -0.04872707 0.18780045 0.12597565 0.2545765 0.035238825 -0.16559534 -0.18981075
-0.2057894 -0.006178732 -0.053434826 0.07872536 0.028502522 -0.1747264 0.113358416 0.03139756
-0.14451528 -0.051157203 0.26405486 -0.00070016336 0.08436157 -0.13556513 0.19543636 0.2504696
0.20618653 0.20696938 -0.11045143 0.12163908 0.07817449 -0.045926604 -0.0778743 0.2793197
00000000: 929c e53d 33b6 49bd c4b9 a5bb f4c6 743e
00000010: 7ec0 5f3e 88fb 4ebd 2409 213e 1240 32bc
00000020: 0d3f 393e 3c2e 0a3d 594d 1f3e f121 56bd
00000030: fd96 253c c6be 0abb d62d 6a3e d83e 073e
00000040: be34 833e a4fa 6cbe 2c60 0bbe 4dfa 27be
00000050: 8898 8a3d 504c 83bd 7336 3dbc 9aee bd3d
00000060: b43f e1bd 5ef8 afbc fc26 a1bd bef6 dbbd
00000070: 5d86 8ebe 8300 0bbe a3ee 19be 533e c43d
00000080: b595 4b3c aa2e 72be 413a 36be 65f2 753d
00000090: 824d 93be f7d6 debd 0e2b 6d3e 6aa8 3e3e
000000a0: df7f b3bd f403 4cbc e156 fd3d 4c44 7ebd
000000b0: 033d 60bb f937 a23c e395 923e 24c8 eebd
000000c0: ff48 0f3d da1a 4a3e 2357 79be fe1a 6bbe
000000d0: 66c6 693e 9a73 273e b93d 613e 0691 93bd
000000e0: 7b2b b73d 8756 73be 2455 963d 18fb 12be
000000f0: cadc 2fbe 343e 32bd 5c5b 89bd 8896 983d
00000100: 3e52 d1bd d440 10be 90ac 8ebe 34ac 91be
00000110: f1ac 0ebd 3907 123e fe03 813d 798b 0b3d
00000120: 709a f9bc 736a 77be 9e79 4f3d b651 8abe
00000130: a044 6f3d 90e0 243e bdc0 383e ca53 26bc
00000140: 4b06 97bd 0dfe 80be 68fd 5b3e bbd8 393e
00000150: 7a9a 2ebd 70ff 6c3e f001 2a3d 096e 2cbd
00000160: 221e 363e 3673 563e b4aa a3be c09c 9abd
00000170: 2bf1 2f3d f7e8 173d 992c c33d 73ed 833e
00000180: e50e 9bbd cb39 473e a90e cc3c d48d 1fbe
00000190: 0488 5bbe 49eb 43be ff0a 883e 35ff cabd
000001a0: dfd2 a4bd 3c6a 553e 0a17 2d3e 16da 3fbd
000001b0: b1eb 263e 8e1e 893d 94ad 2ebe 398e 1ebe
000001c0: 9da7 e03d 99c1 0e3e a30a efbb a53b 373e
000001d0: 558e f63d db0b 5cbc 7ebb 343e 3864 4b3c
000001e0: af56 24be f85b 323e fcd4 213e 3bcd 37be
000001f0: 5fd2 64bc b98c 2ebe deac 61be 0239 febd
00000200: 463f b2bc e6b6 523c a166 10be d0bd 6d3d
00000210: d4ea d3bd 2897 85bc 7f7b 91be 5fdb 5abe
00000220: c916 143d 9f19 b03d ebe4 173e a5c7 2c3e
00000230: dc24 e8bc 5bb9 b43c 9b03 be3d a69e 05be
00000240: 6a05 473d 1b7b 26be 0816 1f3d 071c fa3d
00000250: a574 d2bd c4e0 55bd 90bc 063e 9784 28be
00000260: 0e19 be3b b50e ef3c 2f7b 663d 2a10 5a3e
00000270: db54 de3c 26cd 10bc 8e9c 56be 6532 62be
00000280: 61df 7a3b b369 6dbe 59ee 57bd f6dc 3d3e
00000290: b14a db3d ccf1 1bbe 458d 8a3e 5b7f 353e
000002a0: dbe1 683d 55fb f83d eacb ad3b 38d1 243e
000002b0: cd9b 423e f54d af3d 32da 00be 7030 bc3d
000002c0: 3b75 ab3d b244 22be d914 5abe 3669 223e
000002d0: 495a 69be 2fd4 0c3e 7f7e 903e 0ba0 2f3e
000002e0: 772a 893e 82ad 293d fa09 b3bd 70d1 9e3e
000002f0: 4984 3cbd 4dd1 843e efb3 173e 396e 3dbe
00000300: 32c5 5e3e 0c3a 933e 0ad1 8f3d bd6d 0abe
00000310: 9491 b63e 578c 08bd 680f 12be 58ed 37bc
00000320: ac08 6cbe d5be a2bd 4f7f 843e fe08 c1bd
00000330: a813 0b3e 3df8 843e 4def 163e 2700 973e
00000340: 3c3c 4c3e fa56 22be 7c38 19be 3bf0 86be
00000350: b8db 28be 2cc3 64bc 4bfa fa3d 30b8 933d
00000360: 4854 d73c cc74 363c 03d3 203e 77b4 86bd
00000370: 7d06 d4bd 9de7 81be 50df 483e 9db8 843e
00000380: eccc da3d 0996 47bd c34e 403e c3ff 003e
00000390: da57 823e 9656 103d d391 29be c05d 42be
000003a0: 75ba 52be f676 cabb 7ade 5abd c33a a13d
000003b0: 1f7e e93c 7aeb 32be 7528 e83d ba9a 003d
000003c0: d0fb 13be 378a 51bd 3332 873e 2b8b 37ba
000003d0: c2c5 ac3d 96d1 0abe 7820 483e 8d3d 803e
000003e0: 9022 533e c8ef 533e 5c34 e2bd e91d f93d
000003f0: f219 a03d 891d 3cbd 907c 9fbd fe02 8f3e

bias f4 [20]
0.12702392 -0.1570317 -0.16878259 -0.13045391 -0.1604692 0.046955444 0.039127402 -0.1818656
0.11096673 -0.122621015 -0.020317499 0.11509966 -0.07484959 0.09968145 0.047482025 0.20095131
0.12604646 -0.2145027 -0.09710633 -0.09981583
00000000: 8f12 023e ebcc 20be 58d5 2cbe b695 05be
00000010: 0a52 24be 5a54 403d 0e44 203d fa3a 3abe
00000020: 8642 e33d ba20 fbbd e270 a6bc 5fb9 eb3d
00000030: be4a 99bd ca25 cc3d 837c 423d 2ec6 4d3e
00000040: 5312 013e 99a6 5bbe afdf c6bd 3e6c ccbd

weight f4 [1, 20]
0.21830003 -0.2642143 0.25140116 -0.17973153 0.26945227 0.24099962 -0.18671371 0.09581055
0.19041727 0.08861565 0.30433986 0.22043706 0.13078488 -0.10679165 -0.14395528 0.09691352
0.18242162 0.19450527 -0.040023442 0.13470565
00000000: 0b8a 5f3e 1947 87be a7b7 803e 8b0b 38be
00000010: a6f5 893e 9bc8 763e e131 3fbe 5238 c43d
00000020: bffc 423e 1f7c b53d 6fd2 9b3e 41ba 613e
00000030: 79ec 053e 95b5 dabd 0369 13be 987a c63d
00000040: bccc 3a3e 642c 473e 9fef 23bd 47f0 093e
