pinn_cuatro_capas.pt (torch, 204451 bytes, 10 tensors)

weight f4 [128, 1]
000000 f4 97 e6 3d 17 db b5 be d4 26 23 bf 48 16 d6 3e
       0.112594515 -0.35518715 -0.6373112 0.41813874
000010 ff 6f ee 3e db da e6 be 2d 85 b9 be 0b 3a 0c bf
       0.4656982 -0.45088848 -0.36234418 -0.54776067
000020 4a 4f 63 3f 3c fd 5e be aa 6b c8 3e e1 98 6a bf
       0.8879286 -0.21776289 0.3914464 -0.91639525
000030 d0 ca df 3d 4e fd 97 3e 6d 4e ce 3e c9 2f 10 bf
       0.10927355 0.29685444 0.4029421 -0.56322914
000040 e3 aa 53 bf 7a ef 3f 3e 65 ed bd be 88 5c 58 bf
       -0.8268263 0.18743697 -0.3709518 -0.8451619
000050 4c 68 57 bf 7e c0 81 bf c0 53 d5 be 02 47 77 bf
       -0.8414352 -1.0136869 -0.4166546 -0.96592724
000060 a5 18 73 3f c5 ff 89 bf 7f e7 62 3f 03 53 30 3f
       0.9495948 -1.078118 0.88634485 0.68876666
000070 29 d1 38 be 55 fd 5e 3f 33 00 65 bf 76 42 82 3f
       -0.18048538 0.87105304 -0.8945343 1.0176532
000080 91 be 75 3f 45 f1 66 3e 94 9a 8c 3f ef 39 55 bf
       0.95993906 0.22552975 1.0984674 -0.83291525
000090 b9 fa 47 3f e4 00 4f bf a0 1f 16 be 5e e5 00 bf
       0.7811695 -0.80860734 -0.14660501 -0.50349987
0000a0 ff 24 f0 bd e3 45 0f 3e a8 95 64 3f cf 5f c6 3e
       -0.117258064 0.13991503 0.8929086 0.3874497
0000b0 d3 40 1a bf 95 b6 5b 3f b0 a4 f2 3c f4 9f 95 bd
       -0.60255164 0.85825473 0.029619545 -0.07305899
0000c0 05 63 1d bf e7 34 50 3f 03 a3 e2 3e eb 2b 65 bf
       -0.61479217 0.8133072 0.44264993 -0.8952014
0000d0 fa ab 01 be 70 5e 38 bf 51 99 34 3f 5d 39 83 be
       -0.1266326 -0.720191 0.7054644 -0.25629702
0000e0 43 68 82 be 94 b8 40 bf f0 c6 db 3e ab e7 db 3e
       -0.2547017 -0.75281644 0.42925215 0.42950186
0000f0 1f 35 13 bd 43 bf f4 be 6a b5 33 bf 53 4f 0b 3f
       -0.035939332 -0.4780217 -0.7019869 0.54417914
000100 d2 e9 b2 be 49 3c c5 be e5 97 d0 3e 19 c7 73 bf
       -0.34944016 -0.38522556 0.40740886 -0.95225674
000110 58 6f 2f bf d2 c3 41 3c 01 cb 1a bf 40 8c 48 3f
       -0.6852927 0.011826472 -0.6046601 0.78339005
000120 e5 46 5f 3f 90 c6 17 bf 9b 6e 16 3f 59 ec 79 be
       0.8721755 -0.5928736 0.5876252 -0.24406566
000130 d1 c4 7e bd b4 ae ca 3e 0b a5 1d 3f 08 51 52 3f
       -0.062199418 0.39586413 0.6157996 0.82154894
000140 73 26 bc be c5 25 30 bf 85 86 1e 3e 97 75 99 3e
       -0.36748084 -0.6880763 0.15481003 0.29972526
000150 7f d7 66 3f 6a 66 50 3f 95 51 80 3c 45 9f 46 3f
       0.9017257 0.8140627 0.015663901 0.77586776
000160 e9 3a 23 3f 8d 12 63 bf d2 a2 67 bf cc 4a 26 3f
       0.63761765 -0.8870018 -0.9048282 0.6495788
000170 9a a3 43 bf 33 53 07 bf 20 e5 3c bf dd a2 e5 bc
       -0.7642151 -0.52861327 -0.73787117 -0.02803176
000180 f6 1d 27 bf 05 85 6e 3f 2e a6 51 bf c6 09 70 bf
       -0.6528009 0.9317172 -0.81894195 -0.93764913
000190 47 38 f8 be 30 0f f2 3e 16 6a 0d 3f 18 05 08 bf
       -0.48480436 0.47277212 0.5524 -0.5313277
0001a0 dc 3d ec be bb a8 f5 3d b0 04 6c 3e 20 55 27 3e
       -0.46140945 0.119950734 0.23048663 0.16341066
0001b0 c0 6a 3e be 2c d1 22 3f c2 ea 59 bf 25 f4 7b be
       -0.1859541 0.6360042 -0.85123837 -0.24604852
0001c0 0b bd 5e 3e fc 94 5b 3e b7 be 01 bf 8f 1a 2e 3e
       0.21751802 0.21443552 -0.5068163 0.17002319
0001d0 9b 78 23 3d a6 17 49 3f 9a 5a 0d 3f 3f 78 04 bf
       0.03990994 0.7855171 0.5521637 -0.5174598
0001e0 9e 55 8f 3c 2f 5b 3f 3f c5 e9 82 3d 94 4d 8b 3d
       0.01749688 0.7474851 0.06392244 0.06801906
0001f0 12 a4 2e bf 11 a7 29 3e b3 ad 81 3f 04 28 0a bf
       -0.682191 0.16567637 1.0131134 -0.5396731

bias f4 [128]
000000 e6 b2 13 bf 6f b1 e0 3d 3a e9 52 bf 20 7a 07 bf
       -0.5769485 0.10971343 -0.82387125 -0.5292072
000010 b0 56 4b 3f bc 91 f6 bd 40 c4 c2 be fe 12 7f 3f
       0.7942915 -0.120395154 -0.38040352 0.99638355
000020 bb 02 3c 3f 54 88 18 3f 97 97 6b be c2 e3 24 bf
       0.73441666 0.5958302 -0.23007046 -0.6441003
000030 e9 b0 12 bf b2 c4 45 3f c1 fd 2b be b2 8b bf bd
       -0.57301193 0.7725326 -0.16796018 -0.09352817
000040 21 ea 3a 3f bf 22 66 bf fa fc 61 be f6 64 d8 be
       0.730135 -0.8989677 -0.22069159 -0.42264527
000050 3b f4 da be 30 f6 57 bf f9 4d ee be 4f d8 02 bf
       -0.42764458 -0.8436003 -0.46543863 -0.5111131
000060 2d dc 31 3e 7f a3 26 bf 21 2b 68 bf a6 ae 20 3f
       0.17369147 -0.65093225 -0.9069081 0.6276649
000070 1b 10 8f be 0e 27 5a bf b2 ba 68 3f 66 1f c1 bd
       -0.27941975 -0.8521584 0.90909874 -0.09429817
000080 c9 76 20 bf 95 b1 c8 be fa 45 26 3f 5f 8d 65 3f
       -0.6268125 -0.39197984 0.64950526 0.8966884
000090 8b ff 0e 3e 8a 07 63 3f 72 ce 5c 3f fa ce 67 bf
       0.1396467 0.8868338 0.8625251 -0.90550196
0000a0 02 6a 1c bf d6 df 4d be 9b 59 8a 3f c5 fc 4b 3e
       -0.61099255 -0.20104918 1.0808595 0.19920643
0000b0 c8 ee 1d bf e0 8b 35 3f 99 95 3f 3f c6 c5 0c 3e
       -0.61692476 0.7091656 0.7483764 0.1374732
0000c0 e4 44 81 3e 95 9e 6e 3e 82 f8 2a be 39 87 34 bf
       0.25247872 0.23302682 -0.1669636 -0.70518833
0000d0 73 b0 57 3f 38 73 97 be e6 d5 86 bf 38 c9 73 3e
       0.84253615 -0.29580092 -1.0534027 0.23807228
0000e0 6b c0 a9 be 26 0a 7d 3f 53 59 74 bf e6 7c 7b bf
       -0.33154616 0.9884361 -0.954488 -0.98237455
0000f0 bc e3 35 bf d4 fc 38 bf ea de b6 be 7b 68 7b bf
       -0.7105062 -0.72260785 -0.35716945 -0.982063
000100 d6 db d5 3a f3 a6 29 3f 64 26 59 3b b2 52 61 bf
       0.0016316127 0.6627037 0.0033134455 -0.8801681
000110 a8 b5 1b 3f 58 f2 f2 3e 06 33 2d 3e cd 59 ac be
       0.6082406 0.4745052 0.16913995 -0.33662263
000120 f2 b5 9e 3e 80 06 33 bf 2b 37 7f bf 6f 8c ae 3e
       0.30998188 -0.69931793 -0.99693555 0.34091517
000130 6f 5b 86 be 2b f8 b5 be 14 55 86 bf 4d 4d 80 be
       -0.26241633 -0.355409 -1.0494714 -0.25058976
000140 6b 6e 60 3f e5 2e 87 3f f3 b5 d2 be 01 fa 61 bf
       0.87668484 1.0561186 -0.4115444 -0.882721
000150 92 09 4e be b4 21 52 bf 6c a3 5a 3f 17 5d 03 bf
       -0.20120838 -0.82082677 0.8540561 -0.5131392
000160 f3 6e d2 bd ed 53 24 bf b1 d8 84 bc 13 ec 83 bf
       -0.10275068 -0.6419056 -0.016216608 -1.0306419
000170 11 4b 47 3f dc ba d5 3e d0 80 12 3d 95 ce 51 bf
       0.7784892 0.41744125 0.035767376 -0.81955844
000180 58 43 76 3e a3 a9 73 3e 06 bb e2 be b2 75 8f 3e
       0.24049127 0.2379518 -0.44283313 0.28019482
000190 86 7d 77 3f 6a c6 80 3f 3c 69 10 bf 58 8c 1b 3f
       0.9667591 1.0060551 -0.56410575 0.6076102
0001a0 8d 98 e7 3d 25 f5 63 bf 18 74 8c be fb ea 22 3f
       0.113083936 -0.89045936 -0.27432323 0.636398
0001b0 9f f5 c0 3d a6 6e 37 bf ac 3f b8 bd a2 85 dc 3e
       0.094218485 -0.7165321 -0.089965194 0.43070704
0001c0 f3 21 5c 3f e7 8f 3a 3f f1 7a 48 be 3a 5d ca 3c
       0.859893 0.7287583 -0.19578148 0.024702657
0001d0 8e 31 2d 3e 70 4b 46 be b0 19 da bb 36 17 1e bf
       0.16913435 -0.19364715 -0.006655894 -0.6175417
0001e0 e9 2a 7b 3f f0 de 96 bc 20 8c 24 3e 01 3e 26 3e
       0.9811235 -0.018416852 0.16069078 0.1623459
0001f0 80 df 4e 3f e5 60 3b 3f f0 0c 82 3f d3 92 20 be
       0.80809784 0.73194724 1.0160198 -0.15681009

weight f4 [128, 128]
000000 a4 8d 49 bd 4e 8c fb 3d 32 a4 36 3d 09 6b 08 bc
       -0.049207345 0.1228262 0.044590183 -0.0083263
000010 78 bd 81 3b 70 82 9d 3d 16 f1 06 3e cf fa 5a 3d
       0.003959354 0.076908946 0.13177904 0.053461846
000020 31 6a 2f be bd 30 b1 bd 53 c8 30 3a 3c dd 38 bb
       -0.17130353 -0.08651874 0.0006743718 -0.0028208038
000030 3c 14 d7 bd 6d a1 ce 3b da 1a de bc ba d6 2b 3d
       -0.10501906 0.0063058645 -0.027112413 0.041952826
000040 a5 ed 3f be df 8b 5f 3c d6 91 2c 3d 92 37 c2 bc
       -0.18742998 0.013644188 0.042131267 -0.023708139
000050 c9 ee f4 3d 29 45 58 bd 02 ce 40 3e 31 72 0a 3d
       0.11959607 -0.05280033 0.18828586 0.033800308
000060 82 6f d0 bd b7 b8 f9 bc ca c7 8c bd 7d 45 83 3c
       -0.101775184 -0.030483587 -0.06874044 0.016024346
000070 15 d9 a2 3b 81 b5 a5 3c 3f 8e 82 bd 21 46 35 bc
       0.004969726 0.02022815 -0.063747875 -0.011064083
000080 37 e2 94 bd df 96 fd bc dd 44 a0 bd 4b 35 5a be
       -0.072697096 -0.03095573 -0.07825635 -0.21309392
000090 05 7d ba 3d e1 33 ed bd 30 b9 54 3d 4b 20 b3 3b
       0.09105877 -0.11582161 0.05193442 0.005466496
0000a0 ff 92 a1 3d eb 89 8f bc 10 4e 87 be 4b c0 eb bd
       0.078893654 -0.01752182 -0.26426744 -0.11511286
0000b0 be 34 a6 3d 12 64 ee bd e1 e1 86 bc 27 b0 33 3d
       0.081155285 -0.11640181 -0.01646513 0.043869164
0000c0 c6 5d 76 3d 07 50 70 3d 40 e2 0a be 7f ff e5 3d
       0.060148023 0.05867007 -0.1356287 0.11230373
0000d0 07 9c 5d bc 75 a7 41 be b3 cb f8 3c 40 4b 8b 3c
       -0.013525969 -0.18911536 0.030370569 0.017003655
0000e0 c0 1d 87 3b 4d 08 ff bd f2 0c b8 bc db 49 45 bd
       0.0041234195 -0.12452755 -0.02246711 -0.048166137
0000f0 19 12 41 3d 6d 5a 87 3d 69 4b 6d be c7 7d 82 bc
       0.0471364 0.06609044 -0.23173298 -0.015929116
000100 f0 a4 d6 3d 3f 90 45 bd 8d 0f e6 bc 06 e9 00 3c
       0.10480678 -0.048233267 -0.028083587 0.007868057
000110 87 f4 4b bd b1 2f 2e 3d 18 36 a1 3d e7 85 44 3e
       -0.049793746 0.04252595 0.07871646 0.19191705
000120 b0 a6 03 be b0 3a 30 bd 78 a9 bd 3d 19 98 f5 bd
       -0.12856555 -0.04302472 0.09260839 -0.11991901
000130 31 61 d0 3d e6 03 87 bd 02 7d 61 bd 68 07 a4 3d
       0.10174788 -0.065925404 -0.055050857 0.08009225
000140 24 20 b7 bc 07 c8 06 bd 7c 81 a6 bd e3 7a 6f 3c
       -0.022354193 -0.032905605 -0.08130166 0.014616701
000150 09 32 90 3c e5 31 4f 3e 58 10 74 bd a1 29 43 3e
       0.017601984 0.20233877 -0.0595859 0.19058849
000160 4d 23 0b 3d a6 70 ca 3d b9 8e 0a ba b0 ab d1 bc
       0.033969212 0.09884767 -0.00052855496 -0.025594562
000170 cf a0 1b be 68 9d 56 bd 8d 8a 17 be 51 50 b9 38
       -0.15198062 -0.052396208 -0.14798947 8.8364475e-05
000180 a4 ba 9a bc ec 4b 44 3c 1d 86 63 3c 27 ef 10 3c
       -0.018887825 0.011980992 0.013886956 0.008846081
000190 22 ab f3 3d 46 dd 2e 3d dc 39 ad 3d a5 74 a2 3c
       0.11897875 0.04269149 0.084583014 0.019831011
0001a0 41 a9 55 3d 6f 1d d2 bd 86 4d a0 3d e3 5f a4 3d
       0.052163366 -0.1025952 0.078272864 0.080261014
0001b0 8d 09 5f bd 0a 39 a4 bc e1 cb 30 bc ab e1 95 bc
       -0.054452468 -0.02004673 -0.010790796 -0.018296083
0001c0 7c 10 db 3d f7 88 25 3d 3f 19 50 3d 66 10 7e 3d
       0.106965035 0.040413823 0.050805327 0.062027358
0001d0 2e d0 99 bc 0d 7f 94 3e 55 b8 92 bc bc 51 46 3d
       -0.018776026 0.29003182 -0.017910162 0.04841779
0001e0 ce a1 96 bd f5 7b 34 3e 98 20 c0 bd be 75 82 bd
       -0.073550805 0.17625411 -0.09381217 -0.06370114
0001f0 03 41 8f 3d 55 ee 7a bd 3f b4 7a 3d 09 f3 b1 bd
       0.06994822 -0.061262447 0.061207052 -0.086889334
000200 22 d4 d1 bc f2 62 bc 3c 36 f3 9e bd 5a 65 92 bc
       -0.025613848 0.0229964 -0.077612326 -0.017870594
000210 94 4e 9c bb 1c 9f e6 bc d1 af 77 3c 3a c8 11 be
       -0.0047701094 -0.028152041 0.0151176015 -0.14236537
000220 b4 c3 f6 bb c9 64 ca bc f6 d7 a1 bc a7 00 4f bb
       -0.007530654 -0.024706261 -0.019756299 -0.0031586082
000230 4d e9 fe 3b 2c da da ba c3 64 22 bb 83 50 30 3d
       0.0077792765 -0.00166971 -0.0024779297 0.043045532
000240 d1 b0 08 be 85 ee 05 3d ca 35 ad 3d 06 30 f5 bd
       -0.133487 0.032698173 0.08457525 -0.1197205
000250 e1 78 8c bc 3f f6 2a 3e e1 7f 94 bd 05 af 05 3e
       -0.017147483 0.16695498 -0.072509535 0.13055046
000260 69 ee 9d bd d3 db 03 be e6 71 25 3d 1d 55 81 3d
       -0.07711489 -0.12876825 0.040391825 0.06315062
000270 30 60 f3 bc a1 f0 e5 3d 03 6d 30 be 1c 6a 75 be
       -0.029708952 0.11227537 -0.17229085 -0.23966259
000280 5e 3b cf bd ed 60 f4 3d bc 0c 56 3e ca 17 87 bd
       -0.10118745 0.119325496 0.20903295 -0.06596334
000290 c3 52 04 3e 90 d9 9d 3c 5f f3 00 bd 7e ef ef bc
       0.12922196 0.019268781 -0.031482097 -0.029289003
0002a0 5d c5 09 3d a8 b3 c0 3d fa 2e 27 bd e7 a9 61 bd
       0.033635486 0.09409267 -0.040816285 -0.055093672
0002b0 a7 44 b3 3d b1 82 52 bd f8 75 44 bd d7 4f 62 bc
       0.08753329 -0.05139417 -0.047964066 -0.013812981
0002c0 75 f4 00 3c 07 20 82 3e f0 c5 f3 3c cb 7d 0a 3e
       0.007870783 0.2541506 0.02975747 0.13524549
0002d0 6d b0 54 bc b1 cc d6 3c e3 e5 c3 bc ab 8c d0 bd
       -0.012981516 0.026220651 -0.02391333 -0.1018308
0002e0 dc c0 74 bd 2a 8b 9b 3c 02 a2 ba bc d0 e2 9e bd
       -0.059754238 0.018987257 -0.02278233 -0.07758105
0002f0 43 3b 3f 3d 5a 3c 22 3c 51 3b 89 bc 47 0b 02 3e
       0.046687376 0.009902084 -0.016751917 0.12699614
000300 9d ba 81 3d f2 6f 7c 3d fd 84 39 3d c5 ef 22 3e
       0.06334422 0.061630197 0.045292843 0.15911777
000310 b3 cb 8c 3d 58 b3 9b bc 25 2d 00 3d a8 b1 89 3d
       0.0687479 -0.019006416 0.031293053 0.06723338
000320 69 2e 50 3d c6 99 b1 bc d7 73 86 bd 24 85 8c 3c
       0.05082551 -0.02167977 -0.065650634 0.01715333
000330 fd 79 40 bc 1d d3 af 3c fa 79 58 3d 6b 84 69 3e
       -0.011747834 0.021462971 0.0528507 0.2280442
000340 9f a2 a4 3c 4c 9e d0 3d b8 61 ff 3c 87 6d 33 bd
       0.020097075 0.10186443 0.031174526 -0.043805625
000350 31 1c 0f 3e 0c 61 12 3e 84 5f e5 3c 0d f7 2f bd
       0.13975598 0.14294833 0.027999647 -0.042960215
000360 1b c6 a5 bd 21 fa cc 3c 36 86 cc bd cd 53 f0 bd
       -0.08094426 0.025021615 -0.09986536 -0.11734734
000370 8b 03 8e 3d 9b 58 81 bd 5f a6 a1 bc a9 99 90 3d
       0.069342695 -0.06315728 -0.019732652 0.07060558
000380 6c bb e6 3a a0 2e a4 bd cb 23 24 be ab 96 44 3d
       0.0017603463 -0.080167055 -0.16029279 0.04799525
000390 e9 7e 6f 3c 6c 56 01 3e 48 d2 c8 bc a4 fd 6b bd
       0.01461766 0.12630624 -0.024514332 -0.057614937
0003a0 76 b7 54 bd a9 6c 49 3d 30 b8 ac bc 59 94 d2 3d
       -0.051932774 0.049175892 -0.021083921 0.10282201
0003b0 c3 42 c3 bd 3b e1 35 bd 88 49 2e be 1d 77 54 bd
       -0.09534218 -0.04440425 -0.17020237 -0.051871408
0003c0 2c 0d 83 bd cf 9d 19 3d 5d 69 d6 3c 5f 26 d1 3c
       -0.06398997 0.037504014 0.026173288 0.025530992
0003d0 3b fb 45 3d ac da 58 3e 77 84 53 bd 5e 35 97 bd
       0.048335295 0.21177167 -0.05164 -0.07383226
0003e0 cb 51 b6 3b 95 8e d4 3d c0 e3 10 3d 4f 3a b3 3d
       0.0055639497 0.10378758 0.03537345 0.08751356
0003f0 54 4e 25 bc 01 bb 52 bc f2 fb df bc 9f 64 ac bd
       -0.010089476 -0.012861968 -0.027341817 -0.084176295

bias f4 [128]
000000 b9 51 82 3c cc 27 d8 3c 81 f8 8d 3d f9 a2 09 bd
       0.015908109 0.026386164 0.06932164 -0.03360269
000010 17 6f 72 3d fb 9d a5 3d b5 1c a6 3d bd b3 bd 3d
       0.059187975 0.08086773 0.08110944 0.09262798
000020 0b 16 0d 3c bb 28 7d bc 63 3d d2 bc 76 bd 53 bd
       0.0086112125 -0.015451605 -0.025664037 -0.051694356
000030 fb 6b a2 3d ff e4 54 3d b6 82 7d 3d 76 d0 22 bd
       0.07930752 0.0519762 0.061892234 -0.039749585
000040 66 81 16 3d 4c a7 11 3d 00 5c 97 3d 41 33 37 3d
       0.036744498 0.035559937 0.073905945 0.044726614
000050 d1 42 98 3d d4 f3 3e 3d 42 e4 de bd ac 30 3a bd
       0.07434619 0.04661925 -0.108833805 -0.045456573
000060 0e 4e 25 bd 1b e6 64 bc e4 6f 9b 3a 76 f9 5c 3d
       -0.040357642 -0.013970877 0.0011858908 0.053948842
000070 2c 01 b2 bd fc 07 98 bc 8c 7c 0d bd 78 4d 33 bb
       -0.0869163 -0.018558495 -0.034542605 -0.0027359407
000080 a4 9d bf bc 70 71 2e 3d 26 12 89 bd f5 2c ae bd
       -0.023390599 0.04258865 -0.06692915 -0.085046686
000090 10 cc ef ba 46 0a ce bd b1 26 3d bd dd 8a 40 bd
       -0.0018295068 -0.10060553 -0.046179477 -0.04700743
0000a0 85 bd 80 3d d4 24 9d 3c 91 25 d1 bd b1 eb be 3d
       0.06286148 0.0191826 -0.10212243 0.09322298
0000b0 a5 75 6b 3d f2 24 4b bd a5 66 82 3d 7f 84 e1 bd
       0.05748524 -0.04959578 0.06367234 -0.110116
0000c0 cb 0a db bc 0b 11 ee 3c b7 d5 fb bc b6 12 b8 bd
       -0.026738545 0.029060861 -0.030741556 -0.08987944
0000d0 ba f2 95 3c 5b 1f f4 bd 93 96 7a 3d 4d b3 ad bd
       0.018304218 -0.11920043 0.061178755 -0.084814645
0000e0 ad e0 78 bd 0c 3f 05 bc d3 0d 3a bc c7 43 d5 bd
       -0.060761143 -0.008132707 -0.011355835 -0.10413318
0000f0 b0 19 97 bc 8e 3a 5a bc 8a dc e1 3d 13 c3 9f bd
       -0.018444866 -0.013319625 0.110283926 -0.07800879
000100 67 da 40 3d cd c6 9b 3d ea dd 95 3a 91 50 9a 3d
       0.047083285 0.076062776 0.0011433933 0.07534898
000110 5e db 50 3d e2 33 d6 bd 89 c7 7a bd 1b cf 59 3d
       0.050990455 -0.104591146 -0.061225448 0.053176027
000120 d7 52 7f 3d fe 73 3c 3d 20 a0 e1 3d 1f a1 ae 3d
       0.06233486 0.046009056 0.110168695 0.08526825
000130 7e 06 11 3d 54 c2 81 3d 17 fc c8 3d 85 88 c1 3c
       0.035406582 0.06335893 0.09813707 0.023624668
000140 c6 67 bf ba 6c 03 ad 3b ae b3 60 3d e0 ae ab 3c
       -0.001460307 0.005279949 0.054858856 0.02095741
000150 86 5b 59 bd 48 ed 4c 3d 80 1f 93 bc 90 9d 9c b9
       -0.0530658 0.050030977 -0.017959356 -0.00029872032
000160 1c 69 34 3c 17 da 15 3d ee cf 9a bd b2 8d 12 3d
       0.011011388 0.03658494 -0.07559191 0.035779662
000170 39 45 9c 3d a0 e9 6b bd 1d b6 9a bd 84 4e 1d bc
       0.07630391 -0.05759585 -0.075542666 -0.009601239
000180 4b 35 a7 bd 1f 80 b1 bd 51 44 04 bd a1 84 08 3d
       -0.08164462 -0.08667015 -0.032291714 0.03332961
000190 ef fd 90 bd 1f d3 ac 3c 1d 36 06 3d 5e 75 37 3d
       -0.07079684 0.021096764 0.03276645 0.044789664
0001a0 7f 71 ab 3d 9c 01 a8 3d 0b 78 76 3c fc 3e 4f 3d
       0.08371257 0.08203432 0.015043269 0.050597176
0001b0 f1 c3 1d be 2e 70 ea bc e4 5f ad 3d 1c 8c a3 bb
       -0.15406777 -0.028617945 0.08465555 -0.0049910676
0001c0 fe 2d 90 bd b4 cc d0 3c 22 3a 94 b9 49 a7 2e bd
       -0.07040022 0.025488235 -0.00028272072 -0.042640004
0001d0 05 4c 8d 3b 99 fe b3 3d 81 c2 eb bc d2 80 23 3d
       0.0043120407 0.08788795 -0.02877927 0.039917774
0001e0 d5 1d 5f bd 32 64 fe 3c 61 28 98 3d 5a 46 69 bd
       -0.05447181 0.031053636 0.07429577 -0.056951858
0001f0 be ae 2a bd 64 a5 1d 3e 63 3d 9b bd 0b 1e 59 3d
       -0.041670553 0.15395123 -0.07580068 0.053007167

weight f4 [128, 128]
000000 8a ec 60 bd 35 b7 9a bd 97 db bf bb 15 ed 19 3e
       -0.05491308 -0.07554475 -0.0058550346 0.15031846
000010 7a 4f eb bd 4d 56 90 3d 61 7e 97 3c 5e cd 63 bd
       -0.11489768 0.070477106 0.01849288 -0.055615775
000020 f0 7a dd ba 56 a3 06 3d 23 c2 3e 3d 8c ec 06 be
       -0.00168976 0.032870613 0.046571862 -0.13176173
000030 45 c5 a5 3b 7d 97 61 3d 44 85 93 bd 67 56 c1 bd
       0.0050589168 0.05507611 -0.07203153 -0.09440308
000040 9a 8f d2 bd 60 40 5a bd 7d 9f 6a 3d 76 65 82 3d
       -0.10281296 -0.05328405 0.057281006 0.063670084
000050 4b 54 6b 3c 59 79 b8 3c d8 b0 91 3d d7 36 d6 3c
       0.014363359 0.0225188 0.071138084 0.026149197
000060 cc c2 83 3d 30 78 03 3d f2 a1 fa 3d 98 44 21 3d
       0.06433639 0.03209704 0.1223792 0.039372057
000070 74 b8 5d 3c 6e 65 39 3d 28 6f 30 be c3 74 13 bd
       0.013532747 0.045262747 -0.17229903 -0.036000025
000080 2d dd 5b 3d ad 57 65 3d 5e b6 9b 3d f4 34 98 bc
       0.053677727 0.055991817 0.07603143 -0.018579938
000090 57 d0 b3 3d 9b c0 07 3d b3 0b c6 bc 93 af 09 3d
       0.08779972 0.033142667 -0.0241755 0.033614706
0000a0 18 61 c3 bc 5c 92 0f bc 88 e2 79 bd 58 7e ef bc
       -0.023850009 -0.008762922 -0.061007053 -0.02923505
0000b0 00 95 b4 bd 85 95 19 3e 81 94 45 3b 0d 2a c2 bd
       -0.08817482 0.14998443 0.003014833 -0.09480677
0000c0 58 50 4c bd 7d ed 29 3d bd e9 80 3d af e5 79 3d
       -0.04988131 0.041486252 0.06294582 0.06101006
0000d0 d6 cc f4 3a a4 8f 28 bd d4 73 19 bd 26 c5 7e bd
       0.0018676769 -0.04115261 -0.037463978 -0.062199734
0000e0 b9 4f aa 3c df 24 36 3c 6c 05 5a bd 0e 47 ca bc
       0.020789968 0.011117189 -0.053227827 -0.024692085
0000f0 e0 08 33 bd 99 11 85 bd 7a 93 3d bd 26 8a 85 bd
       -0.043709636 -0.06497497 -0.046283223 -0.0652049
000100 93 50 b5 ba 42 b2 99 3c 7e e4 a7 3b 96 d3 1f bd
       -0.0013833217 0.018761758 0.005123674 -0.039020143
000110 31 fd a1 3e 05 28 b8 3c 14 c8 2d bd 5c 70 97 3c
       0.31638482 0.02248002 -0.042427137 0.018486194
000120 a1 95 23 3c b9 97 4e 3d 27 fd 91 bd d5 4e 69 3d
       0.009984405 0.050437663 -0.07128363 0.056959946
000130 e4 b9 9c bd a7 d5 86 bc 10 54 83 3d 46 10 40 be
       -0.07652643 -0.0164593 0.06412518 -0.18756208
000140 80 4a 8c 3d 72 a5 71 bd a2 97 aa 3d 58 4c 4f 3d
       0.06850147 -0.05899567 0.08329703 0.050609916
000150 9f 05 2c bd fa c7 f8 bc 37 2f d3 3a d6 6f 86 3d
       -0.04199755 -0.030368794 0.0016112094 0.065643
000160 81 89 97 bd 66 04 1e bd 61 32 8a 3d 50 eb b2 3d
       -0.07399274 -0.038578413 0.0674789 0.087362885
000170 5b 6b db bc 92 98 69 3c 95 6a 78 3c c4 d8 5b 3d
       -0.02678459 0.014257567 0.01516213 0.05367352
000180 e5 27 5c bb 2e dc 98 3d f0 cf 94 3d e9 73 64 bd
       -0.0033593115 0.07463871 0.072662234 -0.055774603
000190 92 37 80 bd 39 08 dc 39 f2 49 b0 bc 29 a5 66 3e
       -0.06260599 0.00041967796 -0.021519635 0.22523941
0001a0 69 bd 70 be 4d 5a eb bc c3 ae db 3d c5 e0 81 bc
       -0.23509754 -0.028729582 0.107266925 -0.015854249
0001b0 5b d3 0f bd 3e 72 89 3d 01 fa af bc a0 17 21 be
       -0.035113674 0.06711243 -0.021481516 -0.15731668
0001c0 ea 70 d9 3d bd 9f 49 3b f8 0e 92 bd e1 5b 5a bd
       0.1061724 0.0030765377 -0.07131761 -0.05331028
0001d0 d9 2b 93 bc 59 f0 fd bc dc f0 62 3d ed 40 17 3c
       -0.017965244 -0.030998396 0.055405483 0.009231788
0001e0 5b 5e 7e bd 35 d5 64 3d b8 13 c7 3d 1d 86 cd 3d
       -0.062101703 0.055867393 0.09720558 0.10035346
0001f0 f0 d5 ba 3d 2c 4b 1e 3c 34 5a 7f be 01 8a bc 3c
       0.091228366 0.009661477 -0.24936754 0.023015024
000200 7d cb 9b 3d 9f d7 db 3d 70 03 45 3d 4b 92 42 be
       0.07607172 0.10734486 0.04809898 -0.19001119
000210 21 31 40 3d 66 4f 3b bd 34 50 2f bd bf 36 9e bd
       0.046921853 -0.045730017 -0.042801097 -0.07725286
000220 60 59 a2 bd 89 48 2d 3c db b4 2e 3d 49 be 05 3e
       -0.07927203 0.010576376 0.042652946 0.1306087
000230 22 b4 51 bd d7 b5 6d 3d f9 11 15 be aa 00 bd bc
       -0.05119718 0.058034744 -0.14557637 -0.023071606
000240 33 6e 2c 3d 50 70 06 bd f5 a6 74 bb 1d f4 90 bc
       0.04209728 -0.032821953 -0.003733096 -0.017694527
000250 31 d3 df bd b8 af fd bd 38 92 c7 3d a1 d8 ff 3b
       -0.109289534 -0.12387031 0.09744686 0.0078078066
000260 ea 7c 8a 3c 76 22 d6 3c 93 9f 8f bc ed 12 5c 3d
       0.016905267 0.02613948 -0.017532146 0.053728987
000270 c7 9b 9e ba 84 dd 05 3d 63 0a df bd 02 e9 1d bd
       -0.0012100869 0.032681957 -0.10890653 -0.03855229
000280 9c 61 c7 bc 26 13 c4 bd f7 e4 af bd de 84 2d 3e
       -0.024338536 -0.09573965 -0.085885935 0.16945216
000290 39 fa aa bb 08 d6 a4 3c da c5 b0 bd 04 40 1a bb
       -0.005217817 0.02012159 -0.08631487 -0.0023536691
0002a0 ee 4b e4 bd 41 ae c6 3d aa b7 99 3d ba 65 dd 3c
       -0.11147295 0.09701205 0.07505734 0.027026046
0002b0 a6 fa 1e bc 5e 49 fc bd 57 39 44 3a b9 cd 6b 3d
       -0.009703314 -0.12318681 0.0007485351 0.05756924
0002c0 3a 44 87 3c 53 06 06 3d 16 06 8e 3d c4 f0 6a ba
       0.016512025 0.032720875 0.069347546 -0.00089622685
0002d0 55 4a 4a 3c c7 cf 7e 3c 17 0a a0 bd 18 10 c7 3c
       0.012346824 0.015552468 -0.078144245 0.024299666
0002e0 8b f2 81 bb f5 5a 9f bd 36 dc b8 bd 03 4f 68 3d
       -0.003965681 -0.077810206 -0.09026377 0.056715976
0002f0 ca a3 bd 3e 92 68 de bd f5 8b fe 3c 01 cb a7 3c
       0.37039024 -0.10859789 0.031072596 0.020482542
000300 bd 32 a8 bc ef c3 d0 bc d6 96 41 3c 9a a1 cc bd
       -0.020532006 -0.025484053 0.011815747 -0.099917606
000310 7e c4 75 be 29 c8 72 bd 9a 1a 95 3d d7 51 c4 bd
       -0.24000737 -0.05927292 0.072804645 -0.09585922
000320 18 37 e2 bc 02 d0 32 3d 4c 03 18 3d ef 35 e6 bd
       -0.027614161 0.043655403 0.03711252 -0.11240756
000330 56 12 7d bc 75 13 8f bc 90 61 32 3d 3d 33 51 bd
       -0.015446266 -0.017465333 0.043550074 -0.051074255
000340 b0 e9 fa bc 3e 86 c3 3d ae d3 da bc dc 8a c3 bb
       -0.030629009 0.09547089 -0.026712265 -0.005967481
000350 2d 7f c8 3d 31 35 92 bd f7 9e 0e bd 64 75 4c bd
       0.09789882 -0.07139052 -0.03481957 -0.04991664
000360 a0 0e 5b bd c6 19 aa 3b 47 4b 85 3d 21 95 51 3d
       -0.053480744 0.0051910607 0.06508499 0.05116761
000370 94 05 ed bb f3 d6 89 3c 9f b9 06 3e ba 2f f2 3c
       -0.007233331 0.016826129 0.13156746 0.029563773
000380 b1 67 68 bd a4 8a 80 3d 74 f3 14 3d 23 30 88 3d
       -0.056739513 0.062764436 0.036364987 0.06649806
000390 b4 41 10 3b 1e 84 c2 3d d5 99 9f 3c ba a8 47 3e
       0.0022011818 0.094978556 0.019482533 0.19497958
0003a0 4c 16 5d 3d 4e 58 f6 3c f7 71 aa bd 8b 9f ac 3d
       0.053976342 0.030071404 -0.08322518 0.08428868
0003b0 40 78 75 bd 6c f2 8b 3d 98 85 2d 3d 6e dd a8 3d
       -0.059929132 0.06833348 0.042363733 0.08245359
0003c0 00 f8 59 3d 4d 36 b3 bd 83 f8 f1 3b af cb e0 3d
       0.053215027 -0.087505914 0.0073843612 0.109763496
0003d0 75 41 37 bc ec 86 52 bb 6a 2c 11 bd d2 a6 fd bc
       -0.01118504 -0.0032123877 -0.035442747 -0.030963335
0003e0 b5 e9 c0 3c ec 51 4b 3d f4 3a 2e be 9f 88 8e bd
       0.02354894 0.049638674 -0.17014676 -0.06959652
0003f0 37 e5 80 3c 78 18 2e be 42 31 fb 3d 02 92 28 bc
       0.015734298 -0.17001522 0.122652546 -0.010288717

bias f4 [128]
000000 4c d2 c0 3d fe d1 62 bd 65 49 0a bd f2 5e 50 3d
       0.09415111 -0.055376045 -0.0337614 0.050871797
000010 32 c0 aa 3c f6 b0 12 3d 64 85 7a bd d7 03 ae 3d
       0.020843599 0.035813294 -0.061162367 0.08496826
000020 e6 84 d3 3c c3 37 a4 bc b8 f0 1a bd 62 01 9f bc
       0.025820207 -0.02004612 -0.037827224 -0.019409839
000030 ec af e3 bc fc 3e 1f bd 6a 20 2f 3d a1 23 7c 3d
       -0.027793847 -0.038878426 0.04275552 0.061557416
000040 45 22 1b bd 78 fd 4d bc f2 45 12 bd e0 27 19 3d
       -0.03787448 -0.012572639 -0.035711236 0.037391543
000050 15 98 14 3d d1 45 93 bd 48 5e ca bd 93 2b 72 bc
       0.03627785 -0.07191051 -0.09881264 -0.014780897
000060 67 e0 d5 bb 99 5e ae bd 2e a7 2e bd 95 da 85 bd
       -0.006526995 -0.08514137 -0.042639904 -0.06535832
000070 64 ea 53 3d 18 be cc 3b 89 8b 50 3c ad cb 25 3d
       0.051737204 0.006248247 0.01272858 0.040477443
000080 fe 33 e8 bc a6 91 10 3d 93 dc 00 3d 40 54 f2 bc
       -0.028345104 0.03529515 0.031460356 -0.02958119
000090 c7 fe a5 bd 88 83 86 3d 46 a0 57 bd fe 2a 22 bd
       -0.081052355 0.06568056 -0.052643083 -0.03959178
0000a0 be 57 8b bd 4c 3f d1 3d af a6 83 bd fa 5b cc 3d
       -0.06803845 0.10217151 -0.06428277 0.09978481
0000b0 c6 a3 60 3c 97 21 8c 3d 66 43 c6 bd 3d 4d e6 bc
       0.013710922 0.06842344 -0.09680824 -0.028113002
0000c0 6a af 87 3d 19 d6 1b 3d 6e 8d 9a 3d 05 71 93 bc
       0.066252545 0.038045976 0.07546507 -0.017998228
0000d0 76 69 c4 bd e2 ec 51 bd cb b9 e8 bc 20 e2 c1 3d
       -0.095904276 -0.0512513 -0.028408905 0.09466958
0000e0 dc 66 10 bd c0 b9 97 bd d3 47 d4 3c 87 cc 06 bc
       -0.035254344 -0.07408476 0.025913155 -0.008227474
0000f0 68 96 a8 3d 06 81 75 bd 7a dc 45 ba b1 8a e3 3d
       0.08231813 -0.0599375 -0.0007547807 0.11110438
000100 fe 55 b7 3d 63 27 72 3c 14 54 35 bd d6 c1 13 bc
       0.089519486 0.014779898 -0.044269636 -0.009018382
000110 f3 58 cb 3d 92 e7 88 3c 8c 0a cc bd b9 57 7a 3c
       0.09929075 0.016711984 -0.09962949 0.015279704
000120 96 4d a6 3d 08 81 e1 bc d8 36 93 bd 76 d2 a2 bc
       0.08120267 -0.027527347 -0.07188195 -0.019875746
000130 d8 94 54 bd 04 f5 b4 3d e3 bf 51 bd 57 9a b3 3c
       -0.05189976 0.088357955 -0.051208388 0.02192418
000140 51 af 9f 3c 76 e3 52 bb 8e 54 72 bc 74 da 73 bd
       0.019492777 -0.0032179034 -0.014790667 -0.059534505
000150 8d d7 cf 3d 81 5b 31 3a 85 b9 79 3d 69 39 b8 bd
       0.10148535 0.00067656493 0.06096794 -0.08995325
000160 e4 b4 3e bd 51 c5 80 3d 00 48 95 3d 75 83 23 3d
       -0.04655923 0.06287635 0.072891235 0.03992029
000170 6b 66 8b 3d 54 3d d7 bd 98 5d 86 bd 24 1a 96 3d
       0.06806644 -0.10509744 -0.0656082 0.07329205
000180 13 a6 e3 3b 5a 1e b9 3c a2 f5 9b bd 23 0a cc bd
       0.006947288 0.02259748 -0.0761521 -0.09962871
000190 f0 64 61 bd c6 d5 11 bd d9 5f ba bd a0 9f fe 3c
       -0.055027902 -0.03560426 -0.09100313 0.031081975
0001a0 8a be 20 bd da b4 cd 3d 53 47 f1 bb 6a 53 11 bd
       -0.039244212 0.1004426 -0.007363239 -0.03547994
0001b0 45 68 9f bd 8d 3d 39 3c 69 07 7d 3d 16 57 ca 3c
       -0.0778356 0.011306179 0.061774645 0.024699729
0001c0 46 49 45 3d e1 98 8e ba d4 bf a1 3d d5 d3 5b bc
       0.048165582 -0.0010879302 0.078979164 -0.013417204
0001d0 79 65 71 bc 1c d4 95 bc 77 92 8a bc 9c ad da bd
       -0.014733666 -0.018289618 -0.016915543 -0.106776446
0001e0 f0 f3 aa 3d 99 5b c7 3c 11 c3 4b bc b1 ba 6e bc
       0.08347309 0.02433567 -0.012436644 -0.014570878
0001f0 b5 49 8d 3c ca 21 a4 3d df 8d cb 3d 8f f8 54 bd
       0.01724706 0.08014257 0.09939169 -0.051994856

weight f4 [128, 128]
000000 87 8a a8 bd d7 bd 06 3d 64 35 58 3e 82 dd 14 3d
       -0.08229547 0.03289589 0.21114117 0.03634406
000010 b4 40 9c bd a3 f5 48 bd e2 13 80 bd ad f2 14 bd
       -0.07629529 -0.049062382 -0.06253792 -0.036364246
000020 f8 46 23 3e dc 12 e1 3d 78 41 1c 3e 49 27 ec bd
       0.15945041 0.10989925 0.1525935 -0.115309305
000030 30 ff 36 3d d1 55 95 3e bd 61 2f 3c 33 1e 05 3e
       0.04467696 0.29167035 0.010704455 0.12999801
000040 e8 b1 03 3e e2 81 d1 3c 0f c7 72 be 84 d7 1b 3d
       0.12860835 0.025574628 -0.23708747 0.03804733
000050 27 7b 48 3e 18 16 98 3e c8 63 55 bd 59 71 85 bd
       0.19578229 0.29704356 -0.052097112 -0.0651576
000060 6b 79 cc 3b 92 9e eb 3d 6c 84 9a 3d cf d8 e7 3d
       0.00624006 0.11504854 0.07544789 0.1132065
000070 47 7d 8b bc ff 49 9b 3d 3a 6f 91 3e f5 12 bc be
       -0.01702751 0.07582473 0.28405172 -0.36733213
000080 e0 df 6f 3d ce 2c 17 3e ab cb f9 bd b5 86 cd 3c
       0.058563113 0.14763185 -0.1219705 0.025088647
000090 5a 7b 89 3d 4e 92 f7 bd a9 8e c0 bd 7d 42 06 bc
       0.067129806 -0.12088452 -0.0940221 -0.008194563
0000a0 af ab e9 3d 0b ab 93 3d 61 34 25 3c 27 48 3b 3d
       0.11409699 0.07210358 0.010083289 0.045723107
0000b0 ef 33 90 bd 14 1c 75 be d1 41 94 3d 75 86 c0 3d
       -0.070411555 -0.23936492 0.07239116 0.09400646
0000c0 75 52 fa bc 74 12 1d 3d a1 01 0e 3d 9f 19 7b 3e
       -0.030556897 0.038347676 0.034669522 0.24521492
0000d0 81 d6 3f bc 9e d3 97 3d bb 1a 71 be 99 ee 8f 3e
       -0.011708857 0.0741341 -0.23545353 0.28111723
0000e0 ce 28 35 3c 48 3e 9e 3c 5b dd 80 be 39 b3 97 3e
       0.011057092 0.019316807 -0.2516888 0.29628924
0000f0 df 8f 8d bd b7 d6 9a bc 34 5f 29 3d 8a d8 d2 bd
       -0.06912207 -0.018901212 0.04135056 -0.10295208
000100 08 fe 27 3a 82 96 3b be 9b 16 59 3d e7 45 fe ba
       0.0006408398 -0.18319133 0.053000074 -0.0019399495
000110 75 1f 0d 3d 37 0b 07 be 2a f1 ab 3d 66 ee b3 3d
       0.034453828 -0.13187872 0.08395608 0.08785705
000120 bd df 34 be 2b 38 14 3d ae f3 bd bc 15 9b f6 bc
       -0.17663474 0.03618638 -0.023187485 -0.030103246
000130 a1 e6 d6 bb 98 59 6f 3d eb ae 0b 3e 33 9d 98 3d
       -0.006558255 0.058435053 0.13640945 0.07451858
000140 3a 0e fa bc ce f3 0e 3e 24 cc 3f be cf dc 8d 3d
       -0.030524362 0.13960192 -0.18730217 0.069268815
000150 50 0c a0 3d 5a b6 62 3d a9 b0 a1 bd 0c 5f d3 3c
       0.078148484 0.055349685 -0.078950234 0.025802158
000160 5e 0d eb bc ac f8 32 3c 5a d3 cc 3d 30 89 0c be
       -0.028692897 0.010923546 0.100012496 -0.13724208
000170 49 d1 9a 3d 2f 49 46 3d c2 4a 14 3e bd 2e f3 bc
       0.07559449 0.048409637 0.14481643 -0.029685372
000180 cb af b1 bd b9 05 d1 bd 72 5e 21 bd 03 cf cf 3d
       -0.08676108 -0.1020617 -0.03939671 0.10146906
000190 7b 77 d3 bd e4 9c 35 3e 73 f1 88 bc af 66 62 3e
       -0.103255235 0.1773563 -0.016716694 0.22109483
0001a0 e7 cc 3b 3b 19 91 a0 bd 76 c7 97 be 9c 0f 91 be
       0.0028656067 -0.07840175 -0.29644364 -0.28332222
0001b0 7d a3 65 bd 45 f6 52 3d ae 51 c5 bd a6 dc 79 3d
       -0.056064118 0.051504392 -0.0963472 0.061001442
0001c0 a1 0f 09 3e 6a fb 5e 3c ac a0 b8 bd 2c d4 a1 3d
       0.13384868 0.0136097465 -0.09015021 0.07901797
0001d0 f1 76 03 3d 33 4e 28 3e 56 77 27 3e aa 6e 9d 3e
       0.032095853 0.1643608 0.16354117 0.30748492
0001e0 0d af 2b ba dd 4f 52 bc f0 95 e5 bd 07 8e 90 bc
       -0.0006549217 -0.012836424 -0.11210239 -0.017645849
0001f0 2c 21 41 bd 3a b2 93 bd 17 52 b2 bd b4 9b ce 3d
       -0.047150776 -0.072117284 -0.08707064 0.10088292
000200 92 2d d4 bb d0 e4 43 bc 9e a3 0a 3e 24 e5 db 3d
       -0.006475159 -0.011956409 0.13538978 0.107370645
000210 ee c6 c5 bd a8 29 56 3d 75 d3 cf bd 62 02 51 3b
       -0.096570835 0.05228582 -0.10147754 0.003189229
000220 6f 08 a5 bd 0f 30 6a 3d 9b 19 48 3d 61 eb 65 bc
       -0.08058249 0.05717474 0.048852544 -0.0140331695
000230 5c 72 0d be 03 fb ae bd 16 4f 3f bc 5c 30 9a bd
       -0.13813156 -0.085439704 -0.01167657 -0.07528755
000240 b0 6d 95 bd 14 55 90 3d 43 87 65 3e 9b 27 d0 bd
       -0.07296312 0.07047477 0.2241488 -0.10163804
000250 9d f1 b2 3c 71 da 68 be 2f 9c 2d 3d e8 6a f3 bc
       0.021843726 -0.22739579 0.042385276 -0.029714063
000260 43 ba 16 bd 71 8c 02 3d aa 1d ee bc 5f c4 34 bc
       -0.036798727 0.031872217 -0.02906688 -0.011033147
000270 1f 60 00 3e 5d 97 71 3d a0 f4 9b 3c 64 60 08 bc
       0.12536667 0.058982242 0.019037545 -0.008323763
000280 00 af 0d be 72 54 36 3d 60 74 d0 3d b8 02 25 bd
       -0.13836288 0.044514127 0.10178447 -0.040285796
000290 bb 78 5f 3d 50 77 a9 bc 0c 72 38 3d f6 b9 54 bd
       0.054558497 -0.020686775 0.04503064 -0.05193516
0002a0 09 ae 4b bd c1 32 07 3d fc 76 98 bd a5 83 bc bc
       -0.04972652 0.033007387 -0.074445695 -0.023011992
0002b0 dd 9e 81 3e 0d 89 ef 3d ab 7f 9b bc fc f3 07 be
       0.25316516 0.11696062 -0.018981775 -0.13276666
0002c0 af 0e e5 bc 79 52 28 bd 4a ee 88 3d 08 2b e2 3b
       -0.027961103 -0.041094277 0.06686075 0.0069021024
0002d0 66 c1 2f bd a2 4d d1 3d 60 93 b7 3e 4d 97 06 bd
       -0.04290905 0.102198854 0.35854626 -0.032859135
0002e0 54 df 92 bd 32 cf d0 bd 1b f4 4a 3d a5 7c 84 bd
       -0.07171503 -0.10195769 0.049549203 -0.064690866
0002f0 c9 41 b8 3d b0 e9 c2 b9 9e 48 a8 bd e8 28 b5 3d
       0.089969225 -0.00037176674 -0.08216976 0.08845693
000300 18 a5 bf 3d 43 9c b1 be 91 64 04 3d 3d 3e 04 be
       0.09357661 -0.3468953 0.03232247 -0.12914367
000310 07 e4 08 3c 81 10 93 bc 12 58 3b bc 4f 2b 08 3d
       0.008355147 -0.017952206 -0.011434572 0.033244427
000320 6e 71 a8 3d 68 48 d2 3d dd a9 84 bc 9a 88 91 bd
       0.0822476 0.10267717 -0.016194278 -0.07106133
000330 76 3f 03 3e 54 52 dd 3c c3 c2 13 be ce 42 25 bd
       0.12817177 0.027016796 -0.14429764 -0.040346913
000340 c4 4a 8f 3d 99 80 9b bd b1 99 1a 3d 58 1a 8a bb
       0.06996682 -0.075928874 0.037744228 -0.004214566
000350 a5 19 c7 3d db d1 c7 3c 1b e5 c7 3c da d9 13 3d
       0.09721688 0.02439206 0.024401238 0.03609643
000360 f0 c6 5c 3d 56 69 e7 3d ed 22 cc bb fa d5 a3 b9
       0.05390066 0.11299388 -0.0062297494 -0.00031249208
000370 c0 9d cc bc 44 02 bc bd 03 66 42 3c 05 d5 b9 3c
       -0.024977565 -0.0918012 0.011865142 0.022684583
000380 7e a5 cd 3a ef 77 94 bd fe aa cc 3d cc 15 e1 bd
       0.0015689579 -0.07249438 0.09993552 -0.109904855
000390 8c ef ed bd f2 62 1a be 0a ea 14 3e 01 4f 2f 3e
       -0.116179556 -0.15076807 0.14542404 0.17119981
0003a0 9e 03 19 3d 95 69 cb bc c6 df 73 3d 1d b7 ee 3d
       0.037356965 -0.024830619 0.05953958 0.1165602
0003b0 0a 21 14 bd 1e 13 b8 3d c4 58 97 bc 76 9c ca bd
       -0.03616432 0.08988021 -0.018474944 -0.09893124
0003c0 a2 dd a0 3d e6 c1 6a 3d fa 4c e1 bc b7 b0 e0 bc
       0.07854773 0.057313822 -0.027502526 -0.027428014
0003d0 4e 96 ea bc e9 e6 89 bd 38 a9 bd 3b ad aa 59 be
       -0.028636124 -0.06733496 0.0057879947 -0.21256514
0003e0 69 36 69 3d 5c e0 07 3e 43 7c d9 3e b7 f8 99 3d
       0.056936655 0.1326918 0.42477617 0.07518142
0003f0 99 bc fe bd f7 8c d1 3d 6a 97 95 3b 87 cf 7f 3d
       -0.12438316 0.10231965 0.004565169 0.062453773

bias f4 [128]
000000 07 c1 83 bd 67 43 12 3d 34 f8 f6 bc ba 49 25 3c
       -0.064333014 0.03570881 -0.03014765 0.010088379
000010 e0 ff dd 3c 59 4b 2c 3d b4 1e ed bb e8 07 a8 bd
       0.02709955 0.042064045 -0.007236326 -0.08204633
000020 71 d5 10 3d 54 6d 86 3d 54 be a8 bd 09 8b 5b 3d
       0.035359804 0.065638214 -0.08239427 0.05359939
000030 07 5c a7 bd 99 9d 39 3d ac 46 00 bd ff 73 4f 3a
       -0.0817185 0.045316312 -0.031317398 0.0007913708
000040 5e 7a 75 bd b5 d1 78 bd df d4 16 bd bb 91 34 bd
       -0.05993115 -0.060746867 -0.036824103 -0.044084292
000050 09 ba 1f bd b0 cb d8 3c ad 0a 9a bd 21 88 99 bc
       -0.038995776 0.026464313 -0.075215675 -0.01874167
000060 f1 80 b9 3d dd 4c 12 3d 12 c4 d3 bd f3 a1 24 3d
       0.09057797 0.035717834 -0.10340132 0.04019351
000070 8f 97 32 bd 51 11 0c 3d fb b4 90 3d e3 40 10 3d
       -0.04360157 0.0341962 0.07065769 0.03521813
000080 e0 8b 99 bd b2 21 2d bc fc a1 d9 bc 0d 77 a4 bd
       -0.07497382 -0.010567116 -0.026566498 -0.0803052
000090 95 a6 17 3d 9f f1 26 bd 8d 49 bb bd 2c e4 ae bd
       0.0370241 -0.04075777 -0.09144888 -0.08539614
0000a0 60 ac bf bc 89 5b 70 bc 57 9a b4 bb 89 87 c1 3d
       -0.023397624 -0.014670261 -0.005511563 0.094496794
0000b0 63 d2 c8 3d ac 55 48 bd e2 03 3f ba 2a fd dd bd
       0.09805753 -0.048909828 -0.00072866504 -0.10839303
0000c0 50 be 4b 3d e7 78 89 3d ca d7 6f 3d 91 88 2d bd
       0.049742043 0.067125134 0.0585554 -0.042366568
0000d0 4b d3 b2 bd 37 b5 41 3d 37 35 13 bd 93 be b1 bd
       -0.08731707 0.04729196 -0.03593942 -0.08678927
0000e0 30 0d 98 bd 46 64 23 bd ad 35 38 3c 70 de 71 bd
       -0.0742439 -0.03989055 0.011243266 -0.059050024
0000f0 f6 53 90 3c 1b 33 05 3b 4b 77 b3 bb 4b 51 58 bc
       0.01761816 0.002032465 -0.0054768673 -0.0132029755
000100 fe a5 5e 3d fa 64 60 3c d0 49 72 3d d7 00 6b bb
       0.05435752 0.01369595 0.059152424 -0.0035858655
000110 47 7e c7 bc 88 ee 48 3d 23 6c d1 bc b5 91 9c 3d
       -0.024352206 0.049055606 -0.025564259 0.07644979
000120 d4 03 ab 3d 75 55 a9 bd a2 35 2d 3d d9 39 42 3d
       0.083503395 -0.08268253 0.042287476 0.04741845
000130 9e 97 c8 bd ad 9e 63 3d 2a 4e 71 3c 9d dd 2a bd
       -0.09794544 0.055571247 0.014728108 -0.041715253
000140 af 50 3f bd f6 f9 3d bd 57 32 c7 3c 71 dd aa 3c
       -0.046707805 -0.04638096 0.024315996 0.020857545
000150 e0 d4 3c 3c 25 74 6e 3d d0 c9 34 3d a4 c0 c8 3b
       0.011525363 0.058216233 0.044137776 0.00612648
000160 f0 43 36 3d 5d 63 48 3d 3c 67 41 bd 5e 14 aa 3c
       0.044498384 0.048922885 -0.047217593 0.020761665
000170 8d c9 7a 3d c9 43 50 3a 36 d9 84 3d 11 85 a8 bd
       0.06122737 0.0007944671 0.06486742 -0.082285054
000180 5b 72 8c 3d 0b 71 31 bd bc 1b 5a bd 01 69 e7 bd
       0.06857749 -0.043320697 -0.053249106 -0.11299325
000190 3a 4f 92 bd c9 a7 60 3d 05 61 e1 3b 3d cd a3 bc
       -0.071440175 0.054847512 0.0068780207 -0.019995326
0001a0 d9 98 9a bd 27 ac 25 bd e5 b9 66 bd 31 28 22 3b
       -0.075486846 -0.04044738 -0.056329627 0.0024743194
0001b0 ab 14 5c 3d 5b 4c 6c 3d ae 96 96 bc d1 79 d7 bc
       0.053730648 0.057690006 -0.018382397 -0.026303204
0001c0 00 f9 76 3d bf 34 68 bd f6 27 80 3d 1c 81 00 3c
       0.06029606 -0.056690928 0.06257622 0.007843282
0001d0 90 d2 1c bd 9c 56 6f bd 42 02 b0 bd 96 10 40 bd
       -0.038286746 -0.058432207 -0.08594181 -0.046890818
0001e0 e2 e9 a1 3d 13 01 94 3d f9 9e 3f bd f0 d4 a4 3d
       0.07905938 0.072267674 -0.046782468 0.08048427
0001f0 bd 2e 92 3c 31 c2 55 3b c7 88 26 bd 26 66 0d bd
       0.017844552 0.0032616968 -0.040657785 -0.034521244

weight f4 [3, 128]
000000 b5 c7 3a be 3b a6 28 bd b8 04 11 3d 29 d8 d3 be
       -0.18240245 -0.041174155 0.03540489 -0.41375855
000010 8e 7a 38 bc b1 1e ec bc 5c 5a ca bd c6 5d 37 3d
       -0.011259688 -0.028823229 -0.09880516 0.044767164
000020 c9 21 2f bd 75 7a c4 3e 8b d5 2a 3e df 80 7a 3d
       -0.04275683 0.38374677 0.16683023 0.061158057
000030 af 3f 37 3c 8e 3b fa be 16 5e b5 3d 6d 2f 29 3e
       0.011184617 -0.48873562 0.08855836 0.16521998
000040 8e bf e5 3e f6 51 e4 bd c3 25 aa bd 23 2d b3 bd
       0.44872707 -0.11148445 -0.08307984 -0.087488435
000050 82 c9 02 bf 03 98 7f bd 65 4c a1 3d 33 1d a6 be
       -0.51088727 -0.06240083 0.07875899 -0.32444152
000060 fc 94 94 3b bf f0 b8 3e 50 df 66 bd 98 35 b6 bd
       0.004534362 0.36121175 -0.05636531 -0.08896941
000070 31 18 cf 3d 13 f5 b5 3b a0 c3 ec 3d 44 51 a1 3d
       0.10112036 0.0055528968 0.1156075 0.07876828
000080 da 14 32 bd 7b a6 3a bc bc 16 ee be 48 be 97 bc
       -0.043476917 -0.011392231 -0.4650172 -0.01852335
000090 af c9 bb bd b4 cf e8 3e b9 05 db be 47 28 f5 3b
       -0.091693275 0.45470965 -0.42777804 0.007481608
0000a0 4d de 01 bf 5a a5 2c 3c 66 a5 b9 3d d0 81 e8 3d
       -0.5072983 0.01053747 0.090647504 0.11352885
0000b0 18 c8 ec 3d 73 3e 86 3c f3 59 f7 3c ce 9b b8 bd
       0.11561602 0.0163872 0.030194258 -0.090140924
0000c0 a4 7c 34 3e 39 1a a9 bd 54 81 25 3d a9 f6 81 3d
       0.17625672 -0.08256955 0.04040654 0.06345875
0000d0 f6 58 8a 3d 35 80 05 3f c9 55 13 bd 02 f2 ec be
       0.06755249 0.52148753 -0.035970483 -0.46278387
0000e0 2c aa b7 be b1 e5 4d bd 81 af 9e 3d 65 99 fa 3d
       -0.35872018 -0.05026788 0.077483185 0.12236289
0000f0 03 fd 02 3f 6c 55 1e bd 53 e7 02 3f e1 f5 8f be
       0.51167315 -0.038655683 0.5113422 -0.28117278
000100 58 0c e9 bd 06 7d fd bd c3 ef 42 be 31 08 00 3f
       -0.113793075 -0.12377362 -0.19036774 0.500125
000110 ec b0 a0 be 4a f6 e5 be 62 d3 76 bd f0 3b 20 3e
       -0.3138498 -0.44914466 -0.060260184 0.15647864
000120 29 6a 69 bd 08 3d 9f bd 34 c1 c0 be 4e be 6c bc
       -0.056986008 -0.07775313 -0.37647402 -0.014449669
000130 38 1d 85 3d 9c ec 1c 3e 48 d7 63 be e5 55 8f 3e
       0.06499714 0.15324634 -0.22250092 0.2799522
000140 c1 1d 1a 3e 89 4b 07 3e 51 76 b5 be 91 d5 92 3e
       0.15050413 0.13212408 -0.3544183 0.28678563
000150 e3 b4 8c 3d 35 65 76 bd aa 29 cf bd 2b 57 e4 3e
       0.06870439 -0.060155112 -0.10115369 0.44597754
000160 43 be ae 3d e5 a0 bf be 2c b8 02 bf c6 06 d1 3d
       0.08532383 -0.3742744 -0.51062274 0.1020637
000170 0e 50 2d be 7c 92 ae bd 07 97 8b 3b 33 e0 a7 bc
       -0.1692507 -0.085240334 0.004259947 -0.020492649
000180 b3 aa 8d bd 9b ca 94 3d 13 60 07 bf 1a a2 a6 be
       -0.06917324 0.072652064 -0.5288097 -0.3254555
000190 95 df 11 3f 88 04 03 3f 0c 63 a6 be 79 d6 91 bd
       0.56981784 0.5117879 -0.32497442 -0.071209855
0001a0 c9 9d 00 3f c0 11 38 3e f6 55 9b bd 5f 6e 0c 3e
       0.5024076 0.17975521 -0.07584755 0.13713978
0001b0 59 56 03 bf 53 21 ae 3c 71 1f f4 be 11 12 31 3d
       -0.5130363 0.021256125 -0.47680238 0.04323012
0001c0 b9 60 24 3d 4a 83 d9 3d d3 b0 91 bd 94 f3 84 3e
       0.040131304 0.106207445 -0.07113805 0.25967085
0001d0 9a 94 e1 bd a4 41 17 3d ed 66 f1 3e 40 92 f1 3d
       -0.110146716 0.036927834 0.4714884 0.11795473
0001e0 33 55 a0 bc 8f 54 5f be c6 b2 3e bd 2a ad 97 3e
       -0.019571876 -0.218096 -0.04655721 0.296243
0001f0 30 65 a5 3c ce 14 c9 3e 3e 8a 9a 3b 79 e2 e2 3e
       0.020189852 0.39273685 0.004716187 0.4431341
000200 95 a8 e3 3e f5 22 b0 3e f4 3d ee be 14 e3 a7 3e
       0.44464555 0.3440167 -0.4653164 0.32790434
000210 73 69 92 3e a6 34 5a bc 02 55 84 3e 47 ba 86 bd
       0.28596076 -0.013318216 0.25846106 -0.06578498
000220 94 3b 7c be a8 59 d0 3e 78 8c 7a bc 06 ed 20 3d
       -0.24632102 0.40693402 -0.015292279 0.039288543
000230 f0 70 72 be 80 a6 d9 be fa 5d cc 3e e2 d4 95 3e
       -0.23675895 -0.42509842 0.39915448 0.2926398
000240 01 67 ba 3e 6f ef 7f bd 9f c9 00 3e ad 2e 85 3e
       0.3640671 -0.0624842 0.12576912 0.26012173
000250 b4 d4 c7 be 5e 79 0c 3e c3 63 1c be b0 85 d5 be
       -0.39029467 0.13718173 -0.15272431 -0.41703558
000260 53 2b 52 bc f6 a4 de 3e 6a d2 3a 3e 9e 9f 46 3e
       -0.012827712 0.4348523 0.18244329 0.19396827
000270 1e 5f 0f 3d ee 7f 2e 3e 19 6e bf 3e 83 94 53 3d
       0.03500282 0.17040989 0.37388685 0.051655304
000280 8f 6c a7 3e 97 7b a5 bd da a8 d0 be 9c b5 82 3e
       0.3270001 -0.080802135 -0.40753824 0.25529182
000290 93 2d e4 bd 1c b5 df 3e 7a c9 d7 3e 12 63 06 bd
       -0.11141505 0.43692863 0.42145902 -0.032809325
0002a0 bc b1 96 be 80 ae 9d 3d 3b 32 7b be 9f a7 3d 3d
       -0.29432476 0.07699299 -0.2453088 0.046302434
0002b0 94 fe 68 be 2a 2e 57 3d 3a 0a b4 bd b6 9e f6 bc
       -0.22753364 0.05253426 -0.08791013 -0.030104976
0002c0 4f df 89 be 54 ea b1 be a9 04 a1 bd b0 39 1b 3c
       -0.26928183 -0.3474909 -0.07862217 0.009474203
0002d0 f8 aa ed 3d 22 89 91 3e 2f c6 1a be dd c6 c6 be
       0.11604875 0.28424937 -0.15114664 -0.38823596
0002e0 1b 7c dc be d1 f1 30 3e 5b b2 e2 bd 52 80 9a 3d
       -0.43063435 0.17279746 -0.11069175 0.075440064
0002f0 e7 c8 a7 3e 10 f5 67 be 44 27 82 3e e2 88 9a be
       0.32770464 -0.22652078 0.25420582 -0.30182558
000300 4a 7a e1 bc 0c d6 5e bd 8c 43 81 3c b8 c9 bb 3e
       -0.027524132 -0.05440335 0.01577928 0.36677337
000310 76 d4 9f be 14 d8 cf be 83 99 92 3d 23 63 f3 be
       -0.31216782 -0.40594542 0.07158186 -0.47536573
000320 f3 60 2b 3e 7e 4f 0a bd a5 b5 d4 be a8 d1 5b be
       0.16736202 -0.033767216 -0.41544834 -0.21466696
000330 13 41 7b 3e da e5 33 be 29 3f 85 be 7d 23 eb 3e
       0.24536543 -0.1756815 -0.2602475 0.45925513
000340 41 13 ad 3e 6e 8e 6c bd 3b b0 ec be b7 54 c2 3e
       0.33803752 -0.05775302 -0.46228203 0.37955257
000350 e8 40 2c 3e aa 67 8a be 96 99 a5 bd 59 bf e0 3e
       0.16821635 -0.27032214 -0.08085935 0.43895987
000360 d0 48 b8 be 35 25 ef be 37 15 a1 be b0 0b b3 bd
       -0.35993052 -0.46708074 -0.31461498 -0.087424636
000370 4a 05 13 3d a2 26 cb 3b b9 fd 8e 3e 28 12 46 bd
       0.035893716 0.0061996737 0.2792795 -0.04835716
000380 b7 6c 11 be 53 89 86 bd ca 70 c1 be 25 67 e5 be
       -0.14201628 -0.06569161 -0.37781364 -0.44805256
000390 22 b4 d0 3e c9 14 c6 3e 92 8a c6 be c9 d4 05 3c
       0.4076243 0.38687733 -0.38777596 0.008168408
0003a0 19 40 92 3e 55 3e 9e bd aa ff d4 bd ae 69 a8 3e
       0.28564528 -0.07726733 -0.104003266 0.32893127
0003b0 0b ff e2 be b5 5c ea bd b8 b7 c5 be 1a 73 73 be
       -0.44335207 -0.11443464 -0.3861673 -0.23774377
0003c0 66 52 38 be 02 18 5f be a3 b1 9b be 18 3d 97 be
       -0.18000183 -0.21786502 -0.30408964 -0.29538798
0003d0 59 94 98 3d 56 46 0e be b8 da d5 3e 09 ec a8 b8
       0.0745017 -0.13894019 0.41768432 -8.054829e-05
0003e0 31 d5 d8 bd bc a3 d9 be ab f6 cc be 0e 82 f1 be
       -0.10587538 -0.42507732 -0.40031943 -0.47169536
0003f0 cd 97 05 3e ee 78 ce 3e e0 61 0f bd 27 84 bf 3e
       0.13046189 0.40326637 -0.03500545 0.37405512

bias f4 [3]
000000 cf 9d 71 bd 9a 03 f3 bc bf 63 49 3e
       -0.05898839 -0.029664803 0.19666956
